agent_actor_checkpoint_2_2.pth (torch_old, 183788 bytes, 6 tensors)

fc1.weight f4 [256, 48]
00000000: be59 4bbd d4f7 313f 7f3d 44bd 2920 07bd
00000010: 9619 f73c 9f1c acbd aa95 d6bd 095c 8fbd
00000020: 76a7 363e 2398 853f 2d47 aebc d3d9 e23e
00000030: acb0 0cbd a48b 75be 34e3 b1bd cf54 fe3e
00000040: e197 033e 53a2 983f 52ee 45bd 86ae 803e
00000050: 46cf 3b3d c4d4 23be 03a4 cdbd 1c98 833e
00000060: f25d 733f 316b 04bd 03dc b0bd 7b58 3a3f
00000070: bb8e 2c3c 4c93 f4bd dfd9 9dbd 87ca 3d3f
00000080: a655 493f 52af 0a3e 23c0 94be 51d9 053f
00000090: 32ec 98bd 74fc 85be 0eb0 63be c035 173f
000000a0: a14d 423f 1668 cd3e 9f8e 113e c484 0e3f
000000b0: 1f3b 78bd cfed 73be 1e8c e63d 33c7 053f
000000c0: 5570 9a3d 9577 6ebf 3b45 91bd f203 88be
000000d0: 1837 513e 4f98 053e c2b9 e5bd 05ea 7fbe
000000e0: 86a4 343e 4af8 89bf 70dd 5abd 97ad 41be
000000f0: a6cd 74bd 4e20 ff3d 86db 9abd 3394 75be
00000100: 8cf8 653e 82df 80bf eac3 14bd e250 0d3f
00000110: 9744 8dbe e709 013e a239 cbbd 6e72 083f
00000120: af77 adbd 38d8 3a3e ee0a 55bd ce5d 0fbe
00000130: 8960 3dbe bf08 bb3d ae26 413d 7165 1fbe
00000140: 1eee 933c 2c09 233e 85d3 ecb9 b2cf f43d
00000150: 5cf8 fdbc 2727 4d3e 196f cfbd 8fd3 493e
00000160: fc37 7ebd dc6e 693e 0adb 92bd a8e3 b63e
00000170: 9ebf 7e3e 9d9e f33d 268c d1bd 22c1 923e
00000180: fba0 d73e fc70 573f 2a39 d2bc e488 3cbe
00000190: e606 1ebe e0fd c03e 8476 b3bd 5eaf 45be
000001a0: d6dd af3e af04 4d3f f51f 533c 8d16 f5bd
000001b0: fec8 0e3e c4b8 db3c dba5 313d e97a dbbd
000001c0: 5b80 cf3e bdd3 673f 44da bc3d 85ae 913e
000001d0: adae 9b3e 3432 a1be dbbc 113e 0a20 8a3e
000001e0: 8c31 e7bd 264a acbe 3c9c f83a ad8b a9bd
000001f0: d871 dd3d 3ad9 e83e 1c17 f93d 7018 c5bd
00000200: 3fdc 75bc 8495 65be c962 893e f18b c1be
00000210: 0624 51bd 4de7 533d f2ac 783e 25dc cbbe
00000220: 12c8 8c3d 2399 8fbd 2221 3d3d 5c77 013f
00000230: bbfb 96be 03ae d6be 06f0 253d c9c5 003f
00000240: 2d61 723e 3637 f8be 0020 bb3c fa8b b53d
00000250: c097 f53d 90a8 46bf 56a9 6d3d 60be 053e
00000260: 6ad4 9f3e a8b7 c5be 6112 233e 4c2b c03e
00000270: 019c 21bb ad31 17bf d25f 3e3e 7a5c cf3e
00000280: f4c1 f03e 80eb d9be 96fa 283e 8dd4 d1bd
00000290: 5f59 66be 8e84 083d f3d4 3d3e 65f7 38bd
000002a0: 935c f1bd 65b4 ff3d 3ac4 aebd b87d 4fbe
000002b0: ed8c 84bd b336 32bf 2fab 83bd e6bd 7abe
000002c0: 0d46 0a3e b303 0b3e 129b 3b3e dd0c 313e
000002d0: 0d4e eab9 11a1 14bf 01c7 d73d 3683 6e3e
000002e0: 253e 843e a72a cebb 41ca 0d3e 63c4 69bf
000002f0: d156 963e 43e7 8a3c 599a 863d 2878 64bf
00000300: 29fd b7bc 5fc9 b23e 1458 7b3d df65 343d
00000310: f75f 71bc 755a 173c 1767 ce3d c57a 2a3b
00000320: c7fa 0e3d 9112 ca3e 9443 233e 267a 25be
00000330: 0700 ce3e cea8 34be 3c32 443e b9f8 5cbe
00000340: d1fe ae3d 8504 d13e 7503 843d 518d 193c
00000350: 8028 323f f796 cbbe 0d43 d13c 8058 66bd
00000360: aa76 023f 6ce4 913d d779 30be d655 3f3e
00000370: c27b 51bc 27ce b33c 9b7c cabd ffef 673e
00000380: 546d 003f 0c7e 023e 69c4 ad3d 61cf 723e
00000390: 466b 8fbe 0a47 8fbe 8cf3 db3d b9e6 8f3e
000003a0: 5cbb 1f3f b7db 883e 7f2a 093e 6734 9dbb
000003b0: 4c0b 2fbf cc08 99be b51c 393e 3076 1cbc
000003c0: c85b 3f3e 9610 73be 4fa1 d73c b7af c6be
000003d0: 769d 65be dcff f7be 87ce e93c 0436 e2be
000003e0: 5e47 7e3e f08f 57bd fcdd 82bc ccdb 5c3f
000003f0: 4b76 213e 0c7c 67be 9b1e c1bd 4d60 583f
-0.04964613 0.6951878 -0.04791021 -0.032989655 0.030163568 -0.084038965 -0.10477765 -0.06999976
0.17837319 1.0437053 -0.021274174 0.44306812 -0.034348175 -0.2397905 -0.08685914 0.4967408
0.12850906 1.1924537 -0.048322983 0.2513315 0.04585197 -0.15999132 -0.100410484 0.25701988
0.95065224 -0.03232879 -0.08635714 0.7279126 0.0105320765 -0.11942157 -0.07707571 0.7413716
0.78646314 0.13543442 -0.2905284 0.52284724 -0.07466926 -0.2616917 -0.22235128 0.5906639
0.758997 0.40118474 0.14214562 0.55671334 -0.060603257 -0.23821186 0.11257194 0.5225708
0.07540957 -0.9315122 -0.07093283 -0.2656551 0.20431173 0.13046382 -0.11217071 -0.24991615
0.17640886 -1.0778897 -0.053433836 -0.18913876 -0.059766434 0.124573335 -0.07561402 -0.23982315
0.22458094 -1.0068209 -0.03631965 0.5520154 -0.27591392 0.12601434 -0.09923102 0.53299606
-0.084700935 0.18246543 -0.052012376 -0.14000627 -0.18493856 0.091325276 0.04715603 -0.1556604
0.018057879 0.15921468 -0.00045171022 0.11953677 -0.031002216 0.20034467 -0.10128612 0.1970961
-0.06206511 0.22796196 -0.07170685 0.35720563 0.24877784 0.118954875 -0.10231809 0.28662974
0.42115006 0.84156775 -0.025662024 -0.18411595 -0.15432319 0.3769369 -0.087628394 -0.19305179
0.34348935 0.8008527 0.012886037 -0.11967192 0.1394386 0.026821502 0.043371063 -0.107168026
0.40527615 0.9055746 0.09221318 0.2845346 0.30406705 -0.31483614 0.14232199 0.2697757
-0.11288747 -0.3365032 0.001896746 -0.08278594 0.108127296 0.4547823 0.12162611 -0.09623802
-0.015006124 -0.22420317 0.2683318 -0.3780208 -0.051059745 0.051734257 0.24284723 -0.39816394
0.06874098 -0.070116304 0.046174176 0.5057275 -0.2948893 -0.41929635 0.040512107 0.50301796
0.23669882 -0.48479623 0.022842407 0.08864589 0.11991835 -0.77600956 0.05802282 0.13060904
0.31216747 -0.3861668 0.1592498 0.37533033 -0.0024659636 -0.59060174 0.1859124 0.40500242
0.47022974 -0.42562485 0.16501841 -0.10245619 -0.2249503 0.03332954 0.18538265 -0.04515781
-0.11785235 0.124855794 -0.08533521 -0.20262802 -0.06472192 -0.69614714 -0.06429135 -0.24486503
0.13503285 0.1357563 0.18320873 0.17290063 -0.0004469011 -0.5805827 0.10536004 0.2329224
0.25828663 -0.0062917056 0.13846685 -0.9131529 0.2936311 0.016955977 0.06572408 -0.89245844
-0.022459583 0.3491926 0.061363295 0.044042464 -0.014732352 0.009237875 0.100782566 0.0026013118
0.03490713 0.3946729 0.15943748 -0.16159877 0.40234396 -0.17642519 0.19159788 -0.21579255
0.08544696 0.4082376 0.06445972 0.009372071 0.6959305 -0.39763615 0.025544668 -0.056236744
0.50962317 0.07123646 -0.17233978 0.18685088 -0.012785854 0.021948887 -0.09887048 0.22650145
0.5016682 0.12743396 0.08484728 0.23711921 -0.2801153 -0.27983886 0.10739812 0.28105715
0.6239526 0.2673013 0.13395117 -0.0047975066 -0.6837661 -0.29889524 0.18077357 -0.0095496625
0.18687356 -0.23736796 0.026322035 -0.38805935 -0.22423348 -0.48437393 0.028540863 -0.44181836
0.24831912 -0.052627504 -0.015974991 0.86272883 0.15767781 -0.22605914 -0.09429666 0.84521943

fc1.bias f4 [256]
00000000: c85a 07bf 9baa 23bf 7471 05bf 305a 1fbf
00000010: 6f25 08bf 36c9 64bf 1b4b 3bbe 6817 26bd
00000020: 5fb8 02bf 26db 23bf e08c 3abf 4d3d 5d3e
00000030: 2e34 c0be 2494 9fbe 9213 2cbf e058 37be
00000040: b9e4 0fbf f1ab 7abf d38e 88bf caaf 64be
00000050: a87d 15be 0509 27bf c29b 14bf aacf 1ebe
00000060: aace 20bf ad24 2abf e0ef 87be 7a43 87be
00000070: 67f7 06bf b7da fbbe cae0 39bf 1888 87be
00000080: ffeb 10bf ce13 97be f952 08bf da74 79bf
00000090: ad07 64bf 3506 433d 2821 f7be 9c19 f4be
000000a0: 1c51 fdbe f8c8 dbbd 0195 90be 38e5 acbe
000000b0: a54c f6be f170 debe 9565 a0be 7d87 4fbf
000000c0: b27f b2be 6f0d c9bd b4e1 0bbf b14e f3bd
000000d0: e852 96be 44a6 29bf b0aa 39bf 502b 21bf
000000e0: e87d 01be 8b48 c6be a1d9 13bf 58b7 023d
000000f0: 2b16 753d 6c97 14bf 04ba 09bf 8a01 11bf
00000100: 35e8 90be 275c 0ebf cc3f 3dbf 31d0 26bc
00000110: 881b 00bf f7db 00bf 8bff 4dbe 221a 19bf
00000120: 7b16 febe c6d6 8cbd 00e9 d6bd 38bd bebe
00000130: 49a6 64be 5712 d0be 2bf6 05bf b228 d9be
00000140: 378f 96bc 481e 5dbe 53eb 73be d129 10bf
00000150: 5488 f2be 5f00 b6bd 82d3 42be 7576 acbe
00000160: b311 18be bd21 c7bc aec3 48bf 53b9 c0be
00000170: 4678 d1be d943 09be 6876 51be 4fa8 31bf
00000180: 2c34 2e3d fba7 5abf b0b7 b6bd 21a2 18bf
00000190: bd55 13bf 19e9 4bbf d374 40be e0f5 4b3e
000001a0: d075 53bf 95d0 a8be b310 c7be cc10 20bf
000001b0: 221e 043d b1fe 22bf 3750 44bf 6a34 9dbe
000001c0: 7787 80be 82be 42bf 3f78 6ebf d4c6 07bd
000001d0: 20f7 35bf 0286 03bf d236 59bf db8c 4bbf
000001e0: cb01 e7be dd5a 43bd e2a1 0dbf 13de efbe
000001f0: 4211 05bf ae87 98be 6a7d f5be eaf7 01bf
00000200: dbc8 573b f81c 2ebf 1d3d abbe 4faf 38bf
00000210: 30af 5cbf d182 3bbf 2e86 8abe 2e98 26be
00000220: 2552 1ebe 2998 00be cc9b 7ebd 5a1e 5fbe
00000230: fc95 b23d f4f7 cebe ab7b 06be 28b0 22bf
00000240: 5f11 0fbe b9b5 bf3e 0171 f3be 1d25 8ebe
00000250: fcdf 013f 8305 67bf 7b81 17bf 2f80 0dbf
00000260: 0967 c3be e19c fcbd 7de3 7abe bdac c1be
00000270: 6273 29be f19f 69be e8a0 8ebe a325 a8be
00000280: 7fed afbe 165f 30be e55f e2be 7b69 b13e
00000290: 5bd8 60bd ad5f 15bf 491a 26bf bf00 18bf
000002a0: 3585 19bf 3b21 0abf cbbd 123e b248 febe
000002b0: ee67 b9be d287 7dbe e3ca adbe 7949 0cbf
000002c0: 1121 e4be 7072 10bf b5d6 edbe 403a 56bf
000002d0: ebbb 3abf d354 dbbe 750d b1bd 7017 a9be
000002e0: 11ee 98be ab4d 7a3e 8b78 dfbe 09d5 c63c
000002f0: f8fa 673d 5121 34bf 25fa f9bd 134a 75bf
00000300: aa89 ecbe 851e 14bf 9314 63bf 2210 2abf
00000310: 381d 8bbe fb38 c93d e1c3 c6be 2e20 f3be
00000320: 43b5 12be 072e 8fbe b461 523e 726d 71bf
00000330: e13a 88be 261a a2be f006 7cbe ea2e 2cbf
00000340: ba3e 71be 4f78 95be c3ac 1fbf ac2f 4bbf
00000350: 20f3 3cbd c8e3 2fbe 9d6b 23bf 7266 51be
00000360: 624c bdbe 4338 93be 81ec 36bf a351 36bf
00000370: 780b 9e3e c4fb 0fbf 2dac fabd e3a5 c7be
00000380: 2897 55bd bb40 50bf 3fa0 56bf f7c9 11bf
00000390: 2b6d e6be 726f e33d 51c2 0fbf 6b18 01bf
000003a0: e6f8 e1bd 6922 4abf 5ed2 60bf 8f0b f3be
000003b0: b86b 2fbe 8ac6 1d3e aa97 663e 850c b9bd
000003c0: 01ae b8be 664e 4ebf 3260 b4bd fba2 2ebf
000003d0: 5919 57bf 7635 68be 4522 20be 53b7 c9be
000003e0: fccb 32bf 1647 f4be b558 09bf 9c90 e6be
000003f0: 9480 34be 211c 58be a68f 63be 8d76 05bf
-0.52872896 -0.639322 -0.5212624 -0.6224699 -0.5318212 -0.89369524 -0.18290369 -0.040549666
-0.5106258 -0.6400627 -0.7287121 0.21605416 -0.3753981 -0.3116771 -0.6721736 -0.17904997
-0.5620838 -0.9791861 -1.0668586 -0.22332683 -0.14598715 -0.6524814 -0.5805017 -0.15508905
-0.62815344 -0.6646221 -0.26550198 -0.26418668 -0.52721256 -0.49190304 -0.72608626 -0.2647102
-0.566101 -0.29507297 -0.53251606 -0.97443926 -0.8907421 0.04761334 -0.48267484 -0.47675788
-0.49475944 -0.10731691 -0.2823868 -0.3376863 -0.4810535 -0.43445542 -0.313275 -0.81066114
-0.3486305 -0.098170154 -0.5464127 -0.118802436 -0.29360127 -0.66269326 -0.72526073 -0.62956715
-0.12645686 -0.3872722 -0.5775395 0.03191313 0.059835594 -0.5804355 -0.5379946 -0.56642973
-0.2830216 -0.55609363 -0.7392547 -0.010181473 -0.5004201 -0.5033564 -0.20117013 -0.598055
-0.49626526 -0.06876902 -0.1049366 -0.37253737 -0.22329058 -0.40638992 -0.5232875 -0.4241386
-0.018378837 -0.21593583 -0.23820238 -0.56313807 -0.47369635 -0.088867895 -0.19025996 -0.33684126
-0.14850502 -0.02430808 -0.78423584 -0.3764139 -0.40912074 -0.13404788 -0.20455325 -0.69397444
0.042530224 -0.8541257 -0.08921754 -0.5962239 -0.575527 -0.79652554 -0.18794565 0.19918013
-0.8260164 -0.32971635 -0.38879928 -0.6252563 0.0322553 -0.6366988 -0.766849 -0.3070405
-0.2510335 -0.7607194 -0.9315223 -0.0331486 -0.7108021 -0.51376355 -0.84849274 -0.79511803
-0.45118555 -0.047694076 -0.5532514 -0.46849117 -0.5197946 -0.29791015 -0.47947246 -0.5076891
0.0032926116 -0.6801295 -0.33445063 -0.721425 -0.86204815 -0.73246485 -0.27055496 -0.1626899
-0.15461023 -0.12558044 -0.0621603 -0.21788922 0.087200135 -0.40423548 -0.13133113 -0.63550043
-0.1397147 0.3744333 -0.47547153 -0.2776269 0.507324 -0.90242785 -0.59181947 -0.5527372
-0.38164547 -0.1233461 -0.24500842 -0.378271 -0.16547921 -0.22814919 -0.27857137 -0.32841215
-0.34360883 -0.17223772 -0.44213787 0.34650788 -0.054893833 -0.58349115 -0.6488386 -0.5937614
-0.5996888 -0.53956956 0.14330213 -0.49664837 -0.36212105 -0.24758843 -0.33943853 -0.5479961
-0.44556478 -0.5642462 -0.4645287 -0.8368263 -0.7294299 -0.42838153 -0.08645145 -0.33025694
-0.2986913 0.2444369 -0.43646654 0.024271505 0.056635827 -0.70363337 -0.122059144 -0.95816153
-0.4619878 -0.5785907 -0.8870327 -0.66430867 -0.2717073 0.09825321 -0.3882132 -0.4748549
-0.14326958 -0.27964804 0.20545083 -0.94307625 -0.2660742 -0.31660575 -0.24612021 -0.67259085
-0.23559085 -0.2919335 -0.6237299 -0.79369617 -0.0461303 -0.17176735 -0.6383608 -0.20449236
-0.36972338 -0.28753862 -0.71454626 -0.7121832 0.30868125 -0.5624354 -0.12239871 -0.3899375
-0.052146107 -0.8134877 -0.83838266 -0.569488 -0.45005164 0.11105241 -0.5615588 -0.50427884
-0.11033802 -0.78958756 -0.87820995 -0.47469756 -0.17130935 0.15407768 0.22518793 -0.09035591
-0.36070254 -0.80588377 -0.0880741 -0.6821744 -0.8402305 -0.22676644 -0.15638073 -0.39397678
-0.69842505 -0.47710484 -0.5365098 -0.45032203 -0.17627174 -0.2110448 -0.22222766 -0.5213402

fc2.weight f4 [128, 256]
00000000: 8fb9 493e 87df 613e 2262 84be 9763 e73e
00000010: f3e4 a5be 7848 26bf 0ac4 203f 706a d93d
00000020: dd1b 44bd 079f 00bf 81fd f1be c79e cebe
00000030: 09c4 e4bc e815 27be c438 8c3e e49e 15be
00000040: 47ae 7cbe 6b2d d3bd 8d2d 4b3c f437 85bd
00000050: 8959 c7bc 3b80 fabe fdce d4be d8a5 033f
00000060: 614f 43be ba3a 483e 0707 efbe 418d f03e
00000070: b924 14bc 1378 a33e 58f5 9abe 3247 fcbe
00000080: 18b2 523d 2115 99bd cd96 eb3d b5a5 afbd
00000090: 059d 74be fbf1 0dbf d998 363e 3cc1 2d3e
000000a0: 8a89 de3d 0edd 9c3e 8153 d33d 64a1 313d
000000b0: 365e 2ebf 9ab8 c1be c9ce 30bf ff09 93be
000000c0: 39be c53e 0d82 37be d4b1 4fbc 9a1f 9b3e
000000d0: 8485 f6be 0faf 7dbe d511 c23d 709a d1be
000000e0: 69c0 e7bc 310b c13c 692e 413d 4e74 64be
000000f0: dfed 1f3e 9392 52be c892 48be 9308 0d3f
00000100: 0f52 a83b 5f5f c3bd 3136 b13e be0f 9bbd
00000110: 4ec1 13bf dd63 3fbe be2b 5f3e 224d 85be
00000120: 7efd 52be 0848 74be 316a b03c b27b 48bf
00000130: 7dcd 543f effe 8cbd 6c6d 3d3e 5940 7f3e
00000140: 7ddd 5fbd 19df 94bc ef89 23bd bf14 4b3e
00000150: 77b2 9dbd 3502 76be f411 ee3d caaa 94be
00000160: c2d9 9f3e 46d6 2b3d 2960 2fbe 91f7 d43e
00000170: ea46 c03c 58b6 90be d8e2 a6be e617 9dbd
00000180: 5d3a 34be d984 99bd 8514 9e3e 081a 2e3c
00000190: 3e90 153e 93af 5e3d 2899 053e d57d 6cbe
000001a0: d7c6 a8be 80ae d3be e07e 893e 7999 f2be
000001b0: 66b1 ebbd 5f10 29bf 8f3c acbf 5c54 703d
000001c0: ddcd 123e 587e 2dbf f424 83be 4380 16be
000001d0: 8c32 81be 51af ddbe ca83 d1bd 4c0b 9bbe
000001e0: fc2f 8e3e 4fa9 2dbb 9f9e 003e a1ea ad3e
000001f0: df76 b63d c1b8 dcbe fae7 e03e 2066 9bbd
00000200: 15c0 29bb 74fb 17bb d737 4d3d 32eb 073f
00000210: 6d6c b0be e1d0 14be 1902 223e cb1f fb3e
00000220: 829a fbbc 7187 823e 8afc 093f 6687 38be
00000230: 06c3 953e 7b6a 2b3e 2166 75bf d1c1 143e
00000240: eb38 2dbd 288e a0be 73d0 8abe abc1 0dbf
00000250: c5ae 19be a5fc 153f 37ba 033d 7650 33be
00000260: 67f8 ee3d 4353 973e 7f75 a43e 4b55 3dbb
00000270: 468c 3cbd 996c 483e 535a 523e 89d3 d6be
00000280: 868e c0bd 4203 f0bd acfa c4be a881 653d
00000290: 75ec d4bd b045 aabd a88d 44be 31e2 23bf
000002a0: 8396 233e 1c7f 943e cb0e e83d 4d0d 873c
000002b0: b170 413e 3f8e b9be dada 2fbf 7b0e 063e
000002c0: 0f1c c93c 77e3 983d 5bef 3cbe c7a2 99be
000002d0: 843a 113e 7dec 57bf 9a4f 04bd e14a c03d
000002e0: a618 223e 1a22 25be f3cb 8a3d e436 23be
000002f0: 34af 793e 3de2 03bf 7b37 823e 3a58 42be
00000300: d6f0 b2bd bd11 d4be 1870 ea3e f468 1dbe
00000310: ef23 75be 384d 6e3e 48c6 18bf ec2e 5fbe
00000320: 853c fc3e 9293 6bbd 132b febe 1422 babe
00000330: 9805 a03e 3dc6 3b3e dd87 29bf 756d d2bd
00000340: e40c fdbe c0be c13d ef19 2dbb a587 073e
00000350: 63e8 db3d be26 a73e 2158 29bf 9939 a23e
00000360: fe65 5abe 0004 4cbe 9fc9 7fbe 49b3 0fbe
00000370: 2602 41bc a4f0 183f 9356 11bf 15d9 b53e
00000380: b1ec e33e e28f a33e c138 553d 7d07 d93d
00000390: 5444 5e3e 33a4 143e 0a7c aabc e82b d83d
000003a0: 9d3f 61be 26dd 25bd ef2e 05bf 80b8 9c3e
000003b0: c8aa 0c3e 8034 05bf d3b2 fd3c b705 fabd
000003c0: 8cce d93e c5e7 79bd bcf6 033e 9eb9 b73e
000003d0: 9d9e 1bbf 2ae2 403e 39ef ce3e eebd e3bd
000003e0: cc52 8f3d dc4a 35bc 0c48 c73e 83ec ccbe
000003f0: 3f5c 523e 4bf2 b5bd c1a8 f0bd 3182 f73d
0.19699691 0.22057925 -0.2585612 0.4519317 -0.32401237 -0.6495433 0.6279913 0.106160045
-0.047878135 -0.50242656 -0.4726372 -0.40355512 -0.027925508 -0.1631695 0.2738706 -0.14611393
-0.24675857 -0.10311397 0.012400997 -0.06504813 -0.024334686 -0.48925957 -0.4156417 0.5142493
-0.1907325 0.19553652 -0.4668505 0.46982768 -0.0090419585 0.31927547 -0.30265307 -0.49273068
0.051439375 -0.07474733 0.11503372 -0.08576528 -0.23888023 -0.5544736 0.17831744 0.16968244
0.10866077 0.306374 0.103186615 0.043366805 -0.68112504 -0.37836152 -0.6906553 -0.28718564
0.3862169 -0.17920704 -0.012676675 0.30297548 -0.4814874 -0.24773811 0.094760574 -0.4093814
-0.02828999 0.023564907 0.0471634 -0.22309992 0.15618084 -0.20563726 -0.19587243 0.5509121
0.0051367353 -0.09539675 0.34611657 -0.07571362 -0.57716835 -0.18690439 0.2179403 -0.2603541
-0.20604512 -0.23855603 0.021535011 -0.78313744 0.8312605 -0.06884562 0.18498772 0.2492689
-0.054654587 -0.018172788 -0.039926466 0.19832133 -0.07700055 -0.2402428 0.11624518 -0.29036552
0.31220824 0.041952394 -0.17126526 0.41595128 0.023471314 -0.28264117 -0.32594943 -0.07670574
-0.17600389 -0.07496042 0.3087503 0.0106263235 0.14605805 0.05436666 0.13046706 -0.23094876
-0.32964203 -0.4134407 0.2685461 -0.47382715 -0.115084454 -0.66040605 -1.3455981 0.0586742
0.14336343 -0.6777091 -0.2561413 -0.14697365 -0.25233877 -0.43297818 -0.10230215 -0.30282056
0.27770984 -0.002649862 0.12560509 0.3396807 0.089093916 -0.43109706 0.43926984 -0.07587838
-0.0025901843 -0.002319065 0.05010208 0.53093255 -0.34457722 -0.14532806 0.15821113 0.49047694
-0.030713324 0.2549396 0.5390097 -0.180204 0.29250354 0.16739838 -0.9585896 0.1452706
-0.04229061 -0.31358457 -0.2711216 -0.5537364 -0.15008076 0.5858863 0.03216001 -0.17511162
0.11668473 0.2955571 0.32120892 -0.002888995 -0.046032213 0.19572677 0.20542268 -0.41958264
-0.09402184 -0.117193714 -0.38472497 0.056031853 -0.10396663 -0.08314073 -0.19194663 -0.64017016
0.15975384 0.29003227 0.113309465 0.016485834 0.18890645 -0.36241338 -0.68693316 0.13091461
0.024549512 0.074652605 -0.18450682 -0.30007002 0.14182478 -0.8434523 -0.032302476 0.09389282
0.15829715 -0.1612629 0.067771815 -0.15938908 0.24383241 -0.5151709 0.25432953 -0.18978968
-0.08737342 -0.41419783 0.45788646 -0.15372068 -0.23939489 0.23271644 -0.59677553 -0.21795243
0.49264923 -0.05751378 -0.49642238 -0.36354125 0.31254268 0.1833734 -0.66222936 -0.102747835
-0.49423897 0.09460211 -0.0026413163 0.13235338 0.107376836 0.32646745 -0.661501 0.3168457
-0.2132797 -0.19923401 -0.24979256 -0.14033236 -0.011780297 0.5974219 -0.56772727 0.35517183
0.4451652 0.3194571 0.052056078 0.105971314 0.21705753 0.14515762 -0.0208111 0.105552495
-0.21996923 -0.040494107 -0.5202474 0.30609512 0.13737023 -0.52033234 0.03096906 -0.12208121
0.42540395 -0.06101205 0.1288709 0.35883802 -0.607889 0.18836275 0.40416887 -0.111202106
0.06998214 -0.011065211 0.38922155 -0.40024194 0.20543002 -0.08884104 -0.11750937 0.12085379

fc2.bias f4 [128]
00000000: c6ab 93be 41ef 33bf 67cf 5abe 351b 23bf
00000010: f487 f43d 2363 39be 5f92 77be 2c99 71be
00000020: 326e 343e 6f2b aebe 680f 6bbe 9800 03bf
00000030: 4d02 7bbf 2949 2cbe b9c6 08bf f497 8ebe
00000040: 2035 463e 1b9d 18bf ede4 14bd af7c b83c
00000050: b5d9 ac3d 32c8 29be 9b51 a9be 8943 7bbe
00000060: cf77 35bf d740 5a3e 32f6 b2bd d120 fcbe
00000070: 48be e0be 7a28 09bf b3dd 1fbc 73ac 53bf
00000080: b90d 32bf 2b51 aebd 02c2 d7be 3981 cebe
00000090: 4122 b9bd 44a0 fcbe 947b a0be 16b5 20bf
000000a0: 21af c3be cda3 fabe 8b35 8bbe 4af9 ddbe
000000b0: e2c5 8cbe e37e 43be e625 43bc 9065 17be
000000c0: 17dc 92be 06f0 dabe 254c e63d 0de2 023e
000000d0: e5ce e2be 0cdb 90be ca71 713e bfbe c2be
000000e0: ec06 adbe 6d26 41bf d004 8f3d 6a4a bbbd
000000f0: d387 88bf 45c4 bb3e 0b29 29be 6689 b03e
00000100: 7126 54be 4b54 823e c451 11bf ae52 27be
00000110: e156 e7be ea8c 1bbf beda d8bd 9fe7 68bf
00000120: f70b aebe cfc0 0abf bf51 8cbe 9d98 d8be
00000130: fab0 c03d 7aab 9dbe 8d78 eb3e 19a0 cebd
00000140: cfd2 5dbf e942 623e f9c3 31bf 5d9e 37bf
00000150: 81e9 88be 1f58 32bf cdff 9dbf 5ad8 52be
00000160: f741 8dbe 84a9 02bf 6e59 8c3d bc18 35bf
00000170: 1114 8bbe a928 a7be d6a7 6bbf 8b5e 46be
00000180: 51d8 e0be 5831 20be f319 41be 6bd2 febe
00000190: dec3 0c3e 17a5 0cbf 02d2 943d 1e3a 08bd
000001a0: 3d0c 75be 7e8d b5bc 206c a83d 7c13 84bf
000001b0: 8dca 81bf ed53 98bf 26e3 23bf b41d a7be
000001c0: aad9 cabd 5912 03bf 2d00 45bd 605e 713e
000001d0: 26b9 02bf 223f 083f f5cd dfbe c0ef 2cbe
000001e0: ac3e b7be 7d7e a13c 14b3 463e c0fb 2dbe
000001f0: 3771 53bd 49cf 01bf 7e31 17bf 60b8 94be
-0.2884199 -0.7028695 -0.2136818 -0.6371339 0.119399935 -0.18104224 -0.2417693 -0.23593587
0.17620161 -0.34017512 -0.22955096 -0.5117278 -0.98050386 -0.16824783 -0.53428227 -0.27850306
0.19356203 -0.59614724 -0.036351133 0.022520391 0.08439962 -0.16580275 -0.33070073 -0.24537481
-0.7088594 0.21313797 -0.08738364 -0.49243787 -0.43895173 -0.5357739 -0.009757447 -0.8268501
-0.6955219 -0.08511575 -0.42140204 -0.40332964 -0.090397365 -0.49341023 -0.31344283 -0.62776315
-0.3821955 -0.48953095 -0.27189288 -0.43354255 -0.27494723 -0.19091372 -0.011910891 -0.14784837
-0.2868354 -0.42761248 0.11244992 0.12781544 -0.44298473 -0.2829212 0.23578563 -0.38036153
-0.33794343 -0.7544926 0.0698334 -0.09145053 -1.066645 0.3667318 -0.16519563 0.34479827
-0.20717789 0.25454935 -0.5676539 -0.16340134 -0.4518347 -0.6076189 -0.10588597 -0.90978426
-0.33993503 -0.5420045 -0.27406117 -0.42303935 0.094087556 -0.3079489 0.4599041 -0.1008913
-0.86649793 0.22095837 -0.69439656 -0.7172602 -0.2674065 -0.6966571 -1.2343689 -0.20590344
-0.2758939 -0.5103991 0.06852995 -0.70740867 -0.27163747 -0.3264821 -0.9205297 -0.19372003
-0.43915036 -0.15643823 -0.18857555 -0.4976991 0.13746592 -0.5493941 0.07266618 -0.03325855
-0.2393045 -0.022162195 0.08223748 -1.0318446 -1.0139939 -1.1900612 -0.64018476 -0.3263985
-0.099047974 -0.5119987 -0.04809587 0.23571157 -0.51063764 0.53221333 -0.4371182 -0.16888332
-0.35790002 0.019713635 0.1940425 -0.16990566 -0.051621642 -0.5070692 -0.59059894 -0.29046917

fc3.weight f4 [2, 128]
00000000: fea6 553d 5e97 f03d 3bfa 333e cde0 4fbe
00000010: 46e1 553d d36c 9c3d 57d5 133f fb34 fcbc
00000020: d77e 4bbd b8d5 7ebe 4597 a83e fa69 12be
00000030: 78de c3be ab15 8a3e 3fb6 a13d 8705 2c3d
00000040: 1aa7 473d 8669 72be a7dd 3fbe 7019 063d
00000050: 0de0 633d 18fb 50be b144 86bf bd2b 813e
00000060: b46b 16be e127 ab3d fb9a d13c e53c d43d
00000070: 94be 65be 26ee 8cbe 9814 503d b66a 6fbe
00000080: 3c69 39be d516 053d 98fc 57be 5cc1 37bb
00000090: d0c5 1cbe 5829 57be aa58 03be c63c d23d
000000a0: bb77 6f3b 16e8 1abe 2962 16be 65e8 25be
000000b0: 4059 da3c 4960 bf3e d0ae bcbd 6d10 7e3a
000000c0: e6b1 703b 8f73 b4bd fc5c 043c f331 6d3e
000000d0: 94e0 673e afde 84be e4c3 813e 22b5 11be
000000e0: c958 a9bd 9be9 f63d e891 5b3e 5731 43be
000000f0: 69d4 6ebe 9c58 b83d 150f 4f3d 84d0 e8bc
00000100: b9f0 9c3e bfcd 0a3d 2143 15bf e645 053c
00000110: 7185 913d c1a5 58be e69d 09be 0716 02be
00000120: 21b4 c9bd f5b8 bf3d 6269 0c3f 718e d83c
00000130: 1f10 a5bd c7e1 043e e36f 9b3e 83c6 96bd
00000140: ca19 7cbe 8288 1d3f 7265 98be aab6 e5bd
00000150: 70d3 27bf 8343 533e b3c9 883d 9136 1dbe
00000160: b827 9cbd 1b72 a63d 33de 453d 0bcb 683e
00000170: 66b0 993e 2358 7dbe 143f 793e 7647 05bc
00000180: 492f 02be 8605 65bb 94da 59be 15e7 35bf
00000190: fe51 c4ba 63fe 30be 45e5 7fbe 1341 85be
000001a0: eed8 01bf af75 ff3e 9477 ed3d 0670 a23e
000001b0: 6244 23bf 64d1 d63d 40eb e2bd 8dd6 4c3d
000001c0: 94d1 8cbd a3f3 ea3d 0c6b 813d 4a8d 083d
000001d0: e438 a4be c88c 00be eae0 f2bd 21d2 e5bc
000001e0: ff59 653b 53db 073d 7087 223e 47bc eb3e
000001f0: 4f7e b8be 7145 1ebe 67f4 aa3d 1c8d 59be
00000200: 975d 51be 6493 aa3e a702 13be 0a1c f6bd
00000210: ec87 81be 28f9 e33e 5aa7 63bd 9b3a c5be
00000220: 7e22 4cbe f705 7c3e bdc1 46be 1f16 a9be
00000230: abf0 363f 4a50 5a3e 7841 1f3e 824f 22bf
00000240: 2092 2e3f d686 36be c75c 8abc fb2f bcbe
00000250: 6e02 823d 5438 af3d af22 dbbc ac4d 00bf
00000260: 35d7 933d 67df 40ba ad2a ab3e 7bc1 b13e
00000270: b2a4 8e3e 9462 b73d c381 1abf f46c b73d
00000280: ddfd 1c3e 5d6e 96be d805 d93e 1733 33be
00000290: 6b2a 57bf c7bf 643e 9d64 ad3e 160f cabe
000002a0: a693 e53e 0a8b f43c e1a0 9e3e bb3d 6cbe
000002b0: 0848 c83e 2bf6 9f3e 23ed 7b3e c7dc e83e
000002c0: cc1d a53e ac35 763e 5544 86bf df62 483e
000002d0: 1300 ebbe adbf de3e bd01 43be 623b d83e
000002e0: 8a4f a73d 6dfb 64bc dcb1 1b3e ad8c 093f
000002f0: 3b40 133e 46e3 0c3f f36f c9bd 0477 98be
00000300: 635f 82bd 33ac e2be 993b 69be f5e9 92be
00000310: 7f3b f5be 2ea2 3dbd 6a10 d5be 5315 89be
00000320: 58b5 0fbf b331 88be 8ae3 06bf 8602 efbe
00000330: c1fb ffbe b89e b53e 247f 853c 8188 ad3e
00000340: e40e ec3d bcbc 1ebe 933f ca3d bbf7 6cbe
00000350: 57a9 1abf c3dd 613d e373 473f 3045 2bbf
00000360: b0c7 1d3e b148 10bf df73 78be d2b7 7c3e
00000370: b31c ccbe 9210 8e3e 11bc 223e 88b5 963c
00000380: 4e0c 1dbe ca88 973e 593a ffbc a923 e23d
00000390: c5db ec3e 9b59 4b3d a406 15be 74ca 1bbf
000003a0: 5a66 623e b7aa eebe a79a 113e 4130 92b9
000003b0: 2d54 dabd 7203 d03e 728b 663e 497f 4f3e
000003c0: d7a7 b6be 3ca1 32bc 76ed 03bf 2105 0bbf
000003d0: 4e4c b03e 5656 513f 2d78 f3bd 5212 26bf
000003e0: c66b a23c b704 d23e 03dd b43c 0ae8 653f
000003f0: b5eb 3abf 670b a9be d348 90be 8768 09bf
0.05216121 0.11747621 0.17575924 -0.20300598 0.05221679 0.07637944 0.57747406 -0.030786982
-0.04968151 -0.24886215 0.3292791 -0.1429824 -0.38255668 0.26969656 0.07896089 0.04199746
0.048743345 -0.23673066 -0.18736897 0.032739103 0.055633593 -0.20408285 -1.0489713 0.25228682
-0.14689523 0.08357216 0.025586596 0.10363177 -0.22435981 -0.27525443 0.05080089 -0.2338055
-0.1810655 0.032492477 -0.2109245 -0.0028038835 -0.15309834 -0.21011865 -0.12826791 0.10265498
0.003653987 -0.15127596 -0.14685883 -0.16201933 0.026653886 0.37378147 -0.0921303 0.00096917787
0.003672713 -0.088111036 0.00807881 0.23163585 0.22644264 -0.25951144 0.25344765 -0.14229253
-0.082688875 0.120562755 0.21442378 -0.1906179 -0.23323216 0.09001276 0.050551493 -0.02841974
0.30652407 0.03388762 -0.58305556 0.008134341 0.0710553 -0.2115698 -0.1343914 -0.12703715
-0.0984881 0.0936145 0.548483 0.026435109 -0.080597155 0.12976752 0.303588 -0.07362082
-0.24619213 0.6153642 -0.29764897 -0.11216481 -0.65557003 0.20631222 0.06679096 -0.15352847
-0.07624763 0.08127233 0.04830761 0.22733705 0.30017394 -0.24740653 0.24340469 -0.008134713
-0.1271335 -0.003494592 -0.21274787 -0.7105573 -0.0014978049 -0.17284541 -0.24989803 -0.2602621
-0.50721633 0.49894473 0.11595073 0.31726092 -0.6377622 0.10489157 -0.110800266 0.0500093
-0.06875911 0.11472251 0.06319246 0.03333787 -0.32074654 -0.12553704 -0.11859305 -0.028054299
0.0034996269 0.03316815 0.15871978 0.46042082 -0.36033866 -0.15456177 0.08347397 -0.21245235
-0.20445858 0.33315575 -0.1435648 -0.12017067 -0.25299013 0.4452603 -0.05557952 -0.38521275
-0.19935033 0.2461165 -0.19409843 -0.3302469 0.7146098 0.2131969 0.15552318 -0.6340257
0.6819172 -0.17824873 -0.016889943 -0.36755356 0.0634812 0.085556656 -0.026749937 -0.5011852
0.07218782 -0.00073575083 0.33430997 0.34717926 0.27860028 0.08954349 -0.6035425 0.08956328
0.15331216 -0.29381076 0.4238727 -0.17499958 -0.840491 0.22338782 0.33865824 -0.39464635
0.4483921 0.029851455 0.30982116 -0.23070423 0.39117455 0.312425 0.24602179 0.4548094
0.32249296 0.24043912 -1.0489603 0.19568966 -0.45898494 0.43505612 -0.19043632 0.42232805
0.08169468 -0.01397596 0.15204567 0.5373028 0.1437997 0.5503429 -0.09835806 -0.29778302
-0.0636585 -0.44272003 -0.22776641 -0.2869412 -0.47896954 -0.046297245 -0.41614085 -0.26774082
-0.56136084 -0.26600417 -0.5269095 -0.46681613 -0.4999676 0.35472655 0.016295977 0.33893207
0.11526278 -0.15501684 0.09875407 -0.23141377 -0.6041464 0.05514313 0.77911204 -0.66902447
0.15408206 -0.5636092 -0.24262951 0.24679497 -0.39865646 0.27747017 0.15892054 0.018397108
-0.15336725 0.2959655 -0.031155752 0.11041958 0.4626142 0.049646 -0.14553314 -0.60855794
0.22109357 -0.4661462 0.14219151 -0.00027883242 -0.106605865 0.4062763 0.22514132 0.20263399
-0.35674927 -0.010902699 -0.5153421 -0.543047 0.34433216 0.81772363 -0.11888156 -0.64871705
0.019826781 0.41019222 0.022078043 0.8980719 -0.7301591 -0.33016512 -0.2818056 -0.5367512

fc3.bias f4 [2]
00000000: df50 b1bc 17bd 693e
-0.021645008 0.22826038
