agent_actor_checkpoint_1_1.pth (torch_old, 183780 bytes, 6 tensors)

fc1.weight f4 [256, 48]
0.093856424 0.3640802 0.10652685 0.13086808 0.13278274 -0.3181469 0.11158264 0.18421213
0.12334334 0.66873723 -0.28323638 0.12371115 -0.034139857 -0.6453174 -0.22141287 0.21444263
0.24197902 0.6762832 0.23896906 0.08021106 -0.09370623 -0.9029673 0.27752596 0.15031348
-0.08074803 0.9813202 -0.06505722 0.27506602 -0.13510112 -0.3710448 0.029741468 0.28057757
0.060109276 1.1376188 0.027204571 -0.13846835 0.014199999 -0.6435846 -0.0056461645 -0.09142805
-0.006438345 1.0141006 -0.31748655 -0.49903724 0.10287304 -0.89796543 -0.27083457 -0.46677127
0.19562098 0.7965998 -0.11655404 0.1105653 0.1664416 -0.64833355 -0.08358721 0.13445838
0.261879 0.77347344 -0.1132926 0.028879773 -0.014045665 -0.35523036 -0.024102645 0.067772515
0.08525449 0.5289821 -0.09778011 -0.54214424 -0.22452286 -0.08099675 -0.112171546 -0.5869779
0.14268664 -0.17881654 0.17435408 -0.20273264 -0.21389042 -0.653702 0.17048033 -0.25223258
0.20871048 -0.4326829 -0.10435709 -0.47171748 0.00895418 -0.46339887 -0.13123196 -0.5372741
0.08285378 -0.50306314 0.029306233 -0.5435859 0.12126449 -0.056233913 -0.041494273 -0.50381505
0.51301956 -0.044447318 -0.115280405 0.29258755 -0.4278123 -0.16890666 -0.14307907 0.3854055
0.49621895 -0.028359562 -0.08983338 0.026187101 -0.51352566 -0.08159449 -0.120554246 -0.05587821
0.3251184 -0.17869614 -0.018004917 -0.11287959 -0.77564234 0.28665063 -0.033705138 -0.09806338
0.57435876 0.40975702 -0.053721953 0.32957682 0.39223632 -0.16956633 0.014434349 0.30615202
0.5134257 0.4981004 -0.00059655716 -0.0060762884 0.46796453 -0.06475505 0.06117435 -0.10448351
0.3777455 0.22397079 -0.08757912 -0.0506789 0.7599786 0.25265542 0.019010318 -0.082425594
-0.12177764 0.5577198 -0.27345124 -0.38615626 -0.20328838 -0.64337355 -0.22570321 -0.4518186
-0.1370275 0.3617768 -0.14126192 -0.12186821 -0.008596385 -0.81696284 -0.16369571 -0.099173546
-0.089285664 0.22235546 0.14468567 -0.40946016 0.17227653 -1.07785 0.050588623 -0.38848138
0.26833934 0.36484933 -0.28432238 0.0024493635 0.104902625 -0.6811941 -0.2568415 -0.00025378875
0.17040788 0.2443596 -0.05146139 -0.31322935 0.039071925 -0.86149275 -0.017119545 -0.37851626
0.21284628 0.10369924 -0.039707553 -0.5599484 -0.11299211 -0.9669785 -0.12374592 -0.57257843
0.34207898 0.91692895 -0.24844523 -0.17191298 0.46082848 -0.54213995 -0.18170977 -0.19796592
0.38713148 0.78033406 -0.20600465 -0.40481815 0.4559924 -0.16312279 -0.27319697 -0.3643431
0.48440263 0.82628447 0.16457765 -0.2356842 0.2768818 0.21063402 0.20699261 -0.3018782
0.09603718 0.3741927 -0.15781291 -0.9431276 -0.5314477 -0.50514865 -0.098310344 -0.82282865
0.002522083 0.06364894 -0.2367196 -0.44167426 -0.46265563 -0.23734164 -0.18262134 -0.5037079
0.07382156 -0.03301685 -0.10501156 -0.42019242 -0.21885483 0.1851237 -0.04275544 -0.47384858
0.41168964 -0.15000762 0.033179924 -0.59374696 0.13449216 -0.39856803 0.050348725 -0.5952144
0.4433113 -0.35781887 -0.24839011 -0.9072406 0.13800249 -0.313945 -0.26881015 -0.9113345
00000000: cc37 c03d b868 ba3e c02a da3d 4802 063e
00000010: 33f8 073e 27e4 a2be 7085 e43d 1ba2 3c3e
00000020: 6f9b fc3d 5d32 2b3f 5c04 91be 455c fd3d
00000030: 3cd6 0bbd 8533 25bf 0eba 62be d996 5b3e
00000040: 59c9 773e e520 2d3f 4eb4 743e b245 a43d
00000050: 0de9 bfbd dd28 67bf e217 8e3e c7eb 193e
00000060: 395f a5bd cd37 7b3f b83c 85bd 74d5 8c3e
00000070: f357 0abe 96f9 bdbe 61a4 f33c dda7 8f3e
00000080: 2535 763d 7e9d 913f 1fdc de3c a6ca 0dbe
00000090: 1da7 683c f6c1 24bf 7603 b9bb a13e bbbd
000000a0: c1f8 d2bb 0cce 813f 998d a2be cf81 ffbe
000000b0: 1aaf d23d 10e1 65bf d4aa 8abe a5fc eebe
000000c0: de50 483e f7ed 4b3f e2b3 eebd 0f70 e23d
000000d0: ab6f 2a3e 30f9 25bf c52f abbd 75af 093e
000000e0: 0115 863e 5b02 463f f305 e8bd 4695 ec3c
000000f0: ca1f 66bc c1e0 b5be e972 c5bc 51cc 8a3d
00000100: e899 ae3d 5f6b 073f f040 c8bd f7c9 0abf
00000110: 52e9 65be a0e1 a5bd 32ba e5bd 2f44 16bf
00000120: 721c 123e af1b 37be e089 323e 2599 4fbe
00000130: 1706 5bbe 0459 27bf 6592 2e3e a124 81be
00000140: 33b8 553e 9d88 ddbe 2cb9 d5bd f484 f1be
00000150: 8eb4 123c 9e42 edbe ac61 06be cc8a 09bf
00000160: 3eaf a93d bfc8 00bf a013 f03c 7228 0bbf
00000170: 8459 f83d 8855 66bd e6f5 29bd 06fa 00bf
00000180: 4055 033f 640e 36bd 2218 ecbd 09ce 953e
00000190: 370a dbbe def5 2cbe 5283 12be df53 c53e
000001a0: 6910 fe3e 5052 e8bc 90fa b7bd 5586 d63c
000001b0: 6b76 03bf 031b a7bd 25e5 f6bd 8de0 64bd
000001c0: eb75 a63e 1ffc 36be 0c7f 93bc 6a2d e7bd
000001d0: 7f90 46bf dfc3 923e 660e 0abd 74d5 c8bd
000001e0: 2d09 133f accb d13e 8d0b 5cbd 4bbe a83e
000001f0: 33d3 c83e cca2 2dbe 0c7e 6c3c f5bf 9c3e
00000200: de6f 033f 0407 ff3e 4662 1cba 9a1b c7bb
00000210: 0c99 ef3e 4c9e 84bd f591 7a3d 73fb d5bd
00000220: dc67 c13e 9958 653e af5c b3bd ae94 4fbd
00000230: f58d 423f 0d5c 813e 87bb 9b3c c0ce a8bd
00000240: 8e66 f9bd bac6 0e3f cd01 8cbe 46b6 c5be
00000250: d42a 50be 21b4 24bf be1e 67be c454 e7be
00000260: f050 0cbe cf3a b93e f7a6 10be 0a96 f9bd
00000270: dad7 0cbc 7a24 51bf d99f 27be 801b cbbd
00000280: 67db b6bd 26b1 633e 7b28 143e c3a4 d1be
00000290: 4269 303e fdf6 89bf 0436 4f3d 08e7 c6be
000002a0: c663 893e 88cd ba3e b492 91be 8085 203b
000002b0: 30d7 d63d bd62 2ebf bb80 83be f30e 85b9
000002c0: 677f 2e3e 6739 7a3e 2ec9 52bd 995f a0be
000002d0: e209 203d ca8a 5cbf 4a3e 8cbc e2cc c1be
000002e0: 60f4 593e 4460 d43d 63a4 22bd c758 0fbf
000002f0: 6868 e7bd e78b 77bf 806e fdbd 8094 12bf
00000300: fa24 af3e dbbb 6a3f 6d68 7ebe f509 30be
00000310: b6f1 eb3e afc9 0abf 2012 3abe 94b7 4abe
00000320: 1936 c63e f9c3 473f e2f2 52be 5344 cfbe
00000330: d677 e93e a909 27be 79e0 8bbe 2e8b babe
00000340: 9f03 f83e 6187 533f 0b87 283e 3357 71be
00000350: 74c3 8d3e 72b0 573e dff5 533e c88f 9abe
00000360: 24af c43d 3096 bf3e b599 21be cf70 71bf
00000370: f50c 08bf 6c51 01bf ef56 c9bd e6a4 52bf
00000380: 8849 253b 605a 823d 9f66 72be 2123 e2be
00000390: 33e1 ecbe b009 73be 1701 3bbe 00f3 00bf
000003a0: c22f 973d ad3c 07bd 4d10 d7bd 7623 d7be
000003b0: 7b1b 60be 1191 3d3e 5420 2fbd 489c f2be
000003c0: fcc8 d23e 999b 19be ace7 073d cdff 17bf
000003d0: 50b8 093e 1c11 ccbe 773a 4e3d f95f 18bf
000003e0: b3f9 e23e 0934 b7be fa59 7ebe ec40 68bf
000003f0: 8650 0d3e 66bd a0be 7ca1 89be 384d 69bf

fc1.bias f4 [256]
-0.09212329 -0.0747573 -0.1658719 -0.12989666 -0.40574923 -0.30727082 -0.15862219 -0.14712064
-0.2913585 -0.2915028 -0.3266393 0.21137469 -0.24204786 -0.14649712 -0.1437509 -0.17622784
-0.28783083 -0.07255142 -0.5889656 -0.121562004 -0.022217108 -0.2671975 -0.2632291 -0.3672885
0.23792668 -0.14313012 0.027003795 -0.5495743 -0.28598136 -0.39534596 -0.5117018 -0.06782165
0.14877841 -0.19598822 -0.15900761 -0.5115292 -0.25403827 -0.0021987315 -0.3722802 -0.4800701
-0.49630457 -0.23880534 -0.11770935 0.021305619 -0.09858155 -0.6952996 -0.1762992 -0.1670664
-0.020941518 0.34931457 0.24111198 -0.36866334 -0.08525702 0.298916 -0.06443558 -0.18619807
-0.12411547 0.12787661 -0.068270005 -0.18695387 -0.04974819 -0.41020948 -0.21496364 -0.20337337
-0.03243386 -0.45750293 -0.011358679 -0.23949441 -0.39174515 -0.24542633 0.19949205 -0.36216903
-0.50937575 -0.07873191 -0.1986406 -0.2489474 -0.40339017 -0.22865559 -0.4728902 0.016450668
-0.11765149 -0.31295225 -0.04813263 -0.23388058 -0.08550139 -0.28068632 -0.39369616 -0.25102562
-0.09938969 -0.2946275 -0.2088349 -0.2155618 -0.23812918 -0.104175925 -0.3435485 -0.2034414
0.10951989 -0.096240975 0.4998816 -0.20224878 -0.26448613 -0.2574444 -0.11388554 -0.07311144
-0.18618147 -0.1879288 -0.118803985 -0.32546687 0.14176483 -0.09821408 -0.48469082 -0.5128441
-0.255881 -0.12728421 -0.27009672 -0.37911844 -0.5419816 -0.42788476 -0.4629837 -0.36484644
-0.21057834 -0.24342991 -0.20766126 -0.3817554 -0.26680246 -0.0855958 -0.15466289 -0.12020072
0.19765095 -0.026822662 -0.31735435 0.03167995 -0.25948995 -0.34789556 -0.17508435 0.11868336
-0.1790579 -0.24349174 -0.17785288 -0.4988731 -0.30247593 -0.27560523 -0.33104452 -0.21325448
-0.06015005 0.08378019 -0.196562 -0.01893588 -0.23284608 0.015138108 -0.0733194 -0.062120963
0.0712712 0.08944358 -0.15808776 -0.50024825 -0.0668841 -0.34189868 0.1324817 -0.2337764
-0.33585924 -0.08232185 -0.34608293 -0.2308334 -0.43282467 -0.15183243 -0.33794886 -0.11921141
-0.09450362 -0.1260947 0.06728116 -0.14755462 -0.30596417 -0.1177035 -0.045832295 -0.35040066
-0.05425131 -0.5317685 -0.12350613 -0.036352783 -0.12891555 -0.2830985 0.18862547 -0.13272628
-0.21228811 -0.37196875 0.010904195 -0.20660414 -0.28448763 -0.09589156 -0.02065894 -0.07141963
0.034474533 -0.06950502 0.07171346 -0.17840324 -0.14585644 -0.34671304 -0.42376086 -0.4478865
-0.14446719 -0.026567243 -0.24208747 -0.18605325 -0.2562189 0.044091225 -0.34196964 -0.34109324
0.14485133 -0.06871277 -0.37691534 -0.29247862 -0.18696865 -0.21482395 -0.26790032 -0.20553881
-0.2552151 -0.34825513 -0.19700456 -0.4716177 0.08783431 0.13277598 -0.3771473 -0.35460323
-0.042291082 -0.23031549 -0.30556253 -0.091052115 -0.24222478 -0.4271058 -0.3850274 0.05210001
-0.28258628 -0.055196535 -0.3394001 -0.29536557 -0.11407953 0.33990008 -0.16821846 -0.21635139
-0.28125137 -0.18472673 -0.30026937 -0.27082396 -0.31753972 -0.15443379 -0.13551365 -0.5069137
-0.14105782 -0.054151498 0.021721628 -0.23726709 -0.1414181 -0.6890981 -0.38921526 -0.4826362
00000000: 23ab bcbd 5b1a 99bd 53da 29be a103 05be
00000010: 5dbe cfbe 9a52 9dbe db6d 22be cba6 16be
00000020: f12c 95be db3f 95be 443d a7be 9b72 583e
00000030: 65db 77be 5703 16be 7033 13be 1275 34be
00000040: 905e 93be d795 94bd 73c6 16bf 80f5 f8bd
00000050: a700 b6bc 1cce 88be f7c5 86be 3d0d bcbe
00000060: 0da3 733e b490 12be 1037 dd3c e7b0 0cbf
00000070: 266c 92be c96a cabe e4fe 02bf 14e6 8abd
00000080: 5e59 183e 23b1 48be e4d2 22be 94f3 02bf
00000090: 4e11 82be 9818 10bb 839b bebe c0cb f5be
000000a0: a21b febe 6389 74be 9a11 f1bd 1f89 ae3c
000000b0: 20e5 c9bd 28ff 31bf c787 34be 7413 2bbe
000000c0: 8c8d abbc 5cd9 b23e 0fe6 763e 71c1 bcbe
000000d0: 3c9b aebd 850b 993e cdf6 83bd b5aa 3ebe
000000e0: 4030 febd 16f2 023e 25d1 8bbd d670 3fbe
000000f0: c2c4 4bbd fa06 d2be 6e1f 5cbe 1c41 50be
00000100: 5ed9 04bd d33d eabe c119 3abc 063e 75be
00000110: d292 c8be 0a51 7bbe a547 4c3e 386e b9be
00000120: 7366 02bf 323e a1bd 7168 4bbe 11ec 7ebe
00000130: 2889 cebe b124 6abe aa1e f2be 8dc3 863c
00000140: 44f3 f0bd 473b a0be b826 45bd 647e 6fbe
00000150: 5a1b afbd 1eb6 8fbe 8b92 c9be 6e86 80be
00000160: d28c cbbd 6ad9 96be d1d8 55be 3cbc 5cbe
00000170: 23d8 73be 305a d5bd 97e5 afbe f152 50be
00000180: f74b e03d fd19 c5bd 7bf0 ff3e 4e1a 4fbe
00000190: ba6a 87be c1cf 83be d23c e9bd 73bb 95bd
000001a0: 5ba6 3ebe 6870 40be 814f f3bd 98a3 a6be
000001b0: cd2a 113e 7724 c9bd 6529 f8be c049 03bf
000001c0: d602 83be cb56 02be 1e4a 8abe d01b c2be
000001d0: 4ebf 0abf b613 dbbe 330c edbe 27cd babe
000001e0: d9a1 57be b145 79be 27a5 54be 7275 c3be
000001f0: 559a 88be da4c afbd f35f 1ebe cc2b f6bd
00000200: 0365 4a3e 33bb dbbc 457c a2be d6c2 013d
00000210: dedb 84be 5e1f b2be 5049 33be 4310 f33d
00000220: f45a 37be e655 79be 111f 36be 4c6c ffbe
00000230: 20de 9abe 211c 8dbe ab7e a9be 625f 5abe
00000240: e65f 76bd f394 ab3d 8d47 49be 6b1f 9bbc
00000250: 346f 6ebe d405 783c 7b28 96bd 8d72 7ebd
00000260: a3f6 913d 322e b73d c2e1 21be 4510 00bf
00000270: 88fa 88bd 580d afbe 48a9 073e 1563 6fbe
00000280: bef5 abbe 5c98 a8bd c831 b1be 975f 6cbe
00000290: 329b ddbe f679 1bbe a207 adbe 1d25 f4bd
000002a0: 1d8b c1bd f81e 01be b4ca 893d 8f18 17be
000002b0: 56a7 9cbe 880e f1bd a5ba 3bbd b767 b3be
000002c0: 9f36 5ebd fb21 08bf c8f0 fcbd a8e6 14bd
000002d0: 7002 04be 49f2 90be 0927 413e 66e9 07be
000002e0: 0e62 59be b072 bebe 82a7 323c 0990 53be
000002f0: 5da8 91be cb62 c4bd f03c a9bc 7444 92bd
00000300: 2b35 0d3d a658 8ebd 82de 923d 57af 36be
00000310: 645b 15be 5f84 b1be 2ff7 d8be 6151 e5be
00000320: 35ef 13be 8ca3 d9bc c7e5 77be be84 3ebe
00000330: 202f 83be 0099 343d a516 afbe c6a3 aebe
00000340: e853 143e 48b9 8cbd 0cfb c0be c2bf 95be
00000350: b674 3fbe cffa 5bbe 3b2a 89be c478 52be
00000360: 8eab 82be 7f4e b2be 90bb 49be e077 f1be
00000370: 7ae2 b33d 6df6 073e 7319 c1be 8e8e b5be
00000380: 6a39 2dbd d3d7 6bbe b172 9cbe 8879 babd
00000390: c609 78be 9dad dabe 5022 c5be d266 553d
000003a0: 26af 90be c315 62bd dac5 adbe 283a 97be
000003b0: 87a2 e9bd 6207 ae3e 7641 2cbe 388b 5dbe
000003c0: 2e00 90be 0129 3dbe e8bc 99be 70a9 8abe
000003d0: 9194 a2be e423 1ebe 17c4 0abe 19c5 01bf
000003e0: 7671 10be f6cd 5dbd 8ef1 b13c 25f6 72be
000003f0: e8cf 10be bc68 30bf 3947 c7be 181c f7be

fc2.weight f4 [128, 256]
0.45954806 0.24043745 -0.32795385 0.1481019 -0.31901392 0.011788163 0.43442023 -0.021485485
-0.50683033 -0.23950869 0.29346243 0.7113582 -0.49844226 0.077619135 0.08821177 -0.23388933
0.24016431 -0.014062419 0.5289769 -0.12280866 0.2152999 -0.12278571 0.12760739 -0.39390656
-0.34340307 0.26764393 -0.27267432 0.4522752 0.14462593 -0.23473285 -0.48202613 -0.04393407
-0.084479325 0.086685255 -0.14142168 -0.18740168 0.010767587 -0.19444838 -0.23065053 -0.014069368
0.45482183 0.19124289 -0.063086316 -0.10436045 -0.1753144 -0.51997584 -0.18448399 0.11120012
-0.3745175 0.43242085 0.45100045 -0.40246361 -0.14601468 0.1141616 0.09115243 0.3583265
-0.3207598 -0.16765274 -0.3196541 -0.22306411 0.30221203 0.10964258 0.26539803 0.45921978
-0.0645171 -0.3240506 -0.13481553 -0.0084964 0.04661768 -0.21011107 -0.40115577 -0.02436164
-0.15358193 0.44864258 -0.038087755 -0.37746096 -0.17565304 -0.119287714 -0.42929846 0.3763171
-0.5632604 0.11024509 0.106847055 0.2460435 -0.19842222 -0.0475306 -0.23136249 -0.03444048
-0.45852858 -0.07240676 -0.753136 -0.024966817 -0.005219032 0.08290969 0.36950457 0.27063078
-0.16157182 0.29133385 0.0050791227 0.09445613 0.33461106 -0.40971607 -0.09329453 -0.08316034
0.10230776 -0.20655717 0.2500738 0.20164515 0.056062132 0.079250455 0.38929003 0.24786113
0.2183254 0.08429439 0.024901632 -0.34007025 -0.23237315 -0.10774071 -0.1299798 -0.07620338
-0.17048928 -0.2703894 -0.11809703 0.08866677 0.21032919 -0.07933861 0.18579032 -0.3930911
0.2362103 0.41525152 -0.43932176 -0.22811596 0.17829078 0.31164044 0.12627092 0.19385853
0.20845889 -0.27388445 -0.2362574 0.3035466 0.34049085 0.5002105 -0.32686484 -0.1516191
-0.13701655 -0.15123628 0.4954524 -0.07979572 -0.3515547 0.44715777 0.18215221 -0.14018469
0.5170659 0.5221475 0.00034640724 -0.44784436 -0.01956816 -0.030444287 -0.058385957 0.42139554
0.09219698 -0.17587274 0.2346193 0.030668972 0.26931304 -0.0072471825 0.20623374 0.09146167
0.17659341 -0.046093732 -0.18062545 -0.93300015 0.005790663 0.28297126 0.07944261 -0.30724806
0.053511076 0.070426956 -0.10124874 0.072209515 0.4897922 -0.0748921 0.16082428 0.20771684
0.14922619 0.18122536 -0.5133784 -0.14607039 -0.12858923 -0.21601604 -0.32504997 0.17501904
0.19473785 -0.36069667 0.17451245 0.09256278 -0.5432658 -0.02121056 -0.07899696 -0.04159097
0.13614614 -0.30583525 -0.3417674 0.11324153 0.10110138 0.24425459 0.06717184 -0.017886087
-0.080541916 0.13594061 -0.4575309 -0.18249819 0.3645882 -0.046910003 0.2524031 0.47827095
0.2043541 0.02679578 -0.08612593 -0.24294393 0.059125766 -0.37027603 -0.0667926 0.12318607
0.14025879 -0.28923804 -0.06809268 0.05561442 -0.37082312 0.40689626 -0.029621586 0.3661708
0.015777547 -0.035264973 0.12029697 0.097365685 -0.09717907 0.6966772 0.16216269 0.009485333
-0.2382951 0.38090757 -0.107550554 0.09968144 -0.30918953 -0.23189011 -0.46738002 -0.4271751
0.12978444 0.2728001 0.27021995 -0.0110828215 -0.07435624 -0.17578484 -0.26804033 -0.21434732
00000000: e249 eb3e 3c35 763e 91e9 a7be 06a8 173e
00000010: cb55 a3be 2423 413c 546c de3e 5402 b0bc
00000020: a2bf 01bf c441 75be b540 963e 921b 363f
00000030: d333 ffbe c8f6 9e3d 5fa8 b43d af80 6fbe
00000040: a2ed 753e 0f66 66bc 086b 073f 1b83 fbbd
00000050: 9477 5c3e 1377 fbbd 83ab 023e 1fae c9be
00000060: 87d2 afbe a008 893e f89b 8bbe 9d90 e73e
00000070: d218 143e cf5d 70be 21cc f6be 36f4 33bd
00000080: 7f03 adbd 0a88 b13d d8d0 10be 3ae6 3fbe
00000090: 896a 303c 7a1d 47be a72f 6cbe 3583 66bc
000000a0: 68de e83e 2dd5 433e 6633 81bd eeba d5bd
000000b0: 9e85 33be 231d 05bf 5fe9 3cbe e3bc e33d
000000c0: c2c0 bfbe 4466 dd3e 88e9 e63e b60f cebe
000000d0: df84 15be 8fcd e93d 20ae ba3d 9276 b73e
000000e0: a13a a4be 29ad 2bbe b4a9 a3be eb6a 64be
000000f0: 89bb 9a3e 4a8c e03d 40e2 873e db1e eb3e
00000100: 8b21 84bd f6e9 a5be 150d 0abe 7c34 0bbc
00000110: 2ef2 3e3d 5b27 57be 4a64 cdbe 1092 c7bc
00000120: 9544 1dbe 7bb4 e53e e801 1cbd 9042 c1be
00000130: 64de 33be 1e4d f4bd 02cd dbbe a3ac c03e
00000140: d531 10bf 2ec8 e13d a1d2 da3d d4f2 7b3e
00000150: 322f 4bbe 72af 42bd 4aea 6cbe 7611 0dbd
00000160: 42c4 eabe ff49 94bd 85cd 40bf 3687 ccbc
00000170: 6a04 abbb 8ecc a93d b42f bd3e 1e90 8a3e
00000180: 1573 25be b629 953e c56e a63b 3772 c13d
00000190: 2452 ab3e 4ec6 d1be 3411 bfbd f84f aabd
000001a0: bb86 d13d b983 53be ac09 803e 117c 4e3e
000001b0: 68a1 653d 104e a23d 0651 c73e 4fcf 7d3e
000001c0: b290 5f3e 8aa2 ac3d 82fe cb3c b01d aebe
000001d0: 3af3 6dbe 29a7 dcbd 6d19 05be 8510 9cbd
000001e0: be94 2ebe 7b70 8abe dbdc f1bd ec96 b53d
000001f0: 8960 573e 487c a2bd d13f 3e3e 3d43 c9be
00000200: 1de1 713e d99b d43e c8ee e0be 3b97 69be
00000210: dc91 363e 568f 9f3e 2a4d 013e da82 463e
00000220: 3f76 553e 953a 8cbe 76ed 71be 766a 9b3e
00000230: d154 ae3e cc0d 003f d45a a7be 0a42 1bbe
00000240: 114e 0cbe afdd 1abe f0ab fd3e f06b a3bd
00000250: fafe b3be ddf1 e43e 1c86 3a3e 938c 0fbe
00000260: 6e5e 043f 75ab 053f fe9d b539 db4b e5be
00000270: 684d a0bc 4c66 f9bc 1d26 6fbd 28c1 d73e
00000280: c5d1 bc3d fc17 34be 0b40 703e 7f3d fb3c
00000290: 66e3 893e c679 edbb f02e 533e 4250 bb3d
000002a0: e7d4 343e c8cc 3cbd e1f5 38be 19d9 6ebf
000002b0: 9abf bd3b 9ce1 903e cfb2 a23d 9e4f 9dbe
000002c0: 6e2e 5b3d 023c 903d 805b cfbd 95e2 933d
000002d0: 0bc6 fa3e 0861 99bd 1faf 243e b9b3 543e
000002e0: c0ce 183e 2493 393e c46c 03bf 7a93 15be
000002f0: e5ac 03be 4f33 5dbe f36c a6be 3138 333e
00000300: 5c69 473e 3cad b8be 64b3 323e 8e91 bd3d
00000310: 7813 0bbf c5c1 adbc 28c9 a1bd 4b5b 2abd
00000320: e569 0b3e 7096 9cbe 23fc aebe 2deb e73d
00000330: 3e0e cf3d e01d 7a3e 6491 893d d885 92bc
00000340: 29f3 a4bd 0434 0b3e 7d41 eabe cee0 3abe
00000350: 4eab ba3e b424 40bd fb3a 813e eedf f43e
00000360: 3442 513e d382 db3c cb62 b0bd 4bc6 78be
00000370: dc2d 723d d294 bdbe 8fca 88bd fa48 fc3d
00000380: 00a0 0f3e 0217 94be 2d74 8bbd f2cb 633d
00000390: 87dc bdbe b554 d03e f8a8 f2bc bd7a bb3e
000003a0: ea3f 813c 0172 10bd 425e f63d a967 c73d
000003b0: d205 c7bd 7059 323f fa0d 263e 5f68 1b3c
000003c0: a103 74be 5106 c33e 7743 dcbd c825 cc3d
000003d0: 174e 9ebe 9a74 6dbe 6f4c efbe b2b6 dabe
000003e0: 36e6 043e 74ac 8b3e 455a 8a3e b994 35bc
000003f0: 1648 98bd f100 34be 953c 89be dd7d 5bbe

fc2.bias f4 [128]
-0.3169529 -0.050080374 -0.6058284 -0.20984188 -0.39340135 -0.069022976 0.020199986 -0.09502678
-0.22561158 -0.09270546 -0.1402947 -0.16603884 -0.46587196 -0.09201493 -0.05225881 -0.07101468
0.17679353 -0.31633118 0.16196996 -0.13983284 -0.06424601 -0.2385712 -0.29249597 -0.2557203
-0.115700275 -0.031203993 -0.30420586 -0.45389384 -0.2640743 -0.22758542 -0.06699349 -0.037273277
-0.20665188 -0.09691183 -0.023294378 -0.6046346 -0.24016485 0.11310427 -0.10461711 -0.21053557
-0.26544037 -0.107148394 -0.079718284 -0.17987113 -0.03425316 -0.47156653 -0.12654391 0.08906698
-0.6312284 -0.37789914 0.040207073 -0.13880332 -0.16522042 0.01911786 -0.43993717 0.040726647
0.13911988 -0.034690425 -0.09618581 -0.5600824 -0.022684645 -0.4283321 0.19328493 0.067447685
-0.0010405114 -0.2834327 0.10806779 0.0807269 0.094624706 -0.13591415 0.39909816 -0.21617466
-0.30132115 0.30602616 0.28415388 0.02433272 -0.05636976 0.019287866 -0.53502107 -0.15728027
-0.12956363 -0.35844055 -0.36882713 -0.4001182 -0.06415848 0.055882037 -0.24266078 -0.11890681
-0.118376836 0.077488266 -0.04744219 0.07032905 -0.027064925 -0.6871461 -0.022389848 -0.16681196
-0.11318951 -0.25063178 -0.01181462 -0.06571516 -0.14616168 -0.17846876 -0.014451282 -0.041391727
-0.0016082999 0.05984691 -0.15099308 -0.23362073 -0.37943727 0.18814452 -0.11619353 -0.73096824
-0.29671317 -0.29291043 -0.02110328 -0.03364085 -0.16020623 -0.120467275 -0.08763242 -0.29473963
-0.54116535 -0.3187156 -0.16017838 -0.3772777 0.22768043 -0.05179206 -0.13838121 -0.08103078
00000000: a747 a2be 1421 4dbd 9217 1bbf cae0 56be
00000010: e76b c9be eb5b 8dbd 717a a53c 679d c2bd
00000020: b906 67be 5cdc bdbd 6aa9 0fbe 1606 2abe
00000030: c586 eebe 5372 bcbd 550d 56bd 2570 91bd
00000040: 5d09 353e 29f6 a1be 74db 253e 5730 0fbe
00000050: 6993 83bd 024c 74be 08c2 95be c5ed 82be
00000060: 44f4 ecbd 849f ffbc dfc0 9bbe c664 e8be
00000070: bf34 87be 270c 69be e233 89bd ddab 18bd
00000080: 8d9c 53be b679 c6bd dad3 bebc 55c9 1abf
00000090: c6ed 75be 36a3 e73d 7f41 d6bd a396 57be
000000a0: cde7 87be 9e70 dbbd 5743 a3bd 2330 38be
000000b0: 0b4d 0cbd 2b71 f1be ba94 01be c068 b63d
000000c0: 2f98 21bf ff7b c1be 2cb0 243d 7522 0ebe
000000d0: 8b2f 29be 0f9d 9c3c 723f e1be fcd0 263d
000000e0: 7175 0e3e 8c17 0ebd 11fd c4bd 8f61 0fbf
000000f0: 26d5 b9bc 584e dbbe 7cec 453e 0322 8a3d
00000100: c561 88ba 171e 91be a552 dd3d 2554 a53d
00000110: 99ca c13d 142d 0bbe 9856 cc3e e45c 5dbe
00000120: c446 9abe 76af 9c3e 9e7c 913e 6a55 c73c
00000130: fae3 66bd 9601 9e3c 24f7 08bf 140e 21be
00000140: 54ac 04be 8585 b7be e9d6 bcbe 4bdc ccbe
00000150: 8565 83bd 90e4 643d 117c 78be 6a85 f3bd
00000160: 8e6f f2bd 2bb2 9e3d be52 42bd ad08 903d
00000170: 43b7 ddbc cfe8 2fbf ea6a b7bc c1d0 2abe
00000180: e7cf e7bd cf52 80be 1c92 41bc ab95 86bd
00000190: 68ab 15be 84c0 36be 12c5 6cbc 5f8a 29bd
000001a0: 97cd d2ba 0922 753d ee9d 1abe 463a 6fbe
000001b0: 9a45 c2be f5a8 403e e0f6 edbd bc20 3bbf
000001c0: caea 97be 5bf8 95be c9e0 acbc fdca 09bd
000001d0: 1a0d 24be 8cb7 f6bd a078 b3bd 1de8 96be
000001e0: d089 0abf b12e a3be cd05 24be 8b2a c1be
000001f0: 0f25 693e e923 54bd ceb3 0dbe 77f3 a5bd

fc3.weight f4 [2, 128]
0.10116754 -0.2589707 0.2421719 0.061685693 -0.10001336 -0.15500726 0.006841099 -0.15619871
0.03226128 -0.03052772 0.10604397 -0.014932602 -0.115116775 -0.33478487 0.03664054 -0.069265254
-0.033082787 -0.24494249 -0.029933838 0.03712489 -0.003385286 -0.114001565 -0.20786002 -0.22751364
0.09005168 0.012160145 -0.02737975 -0.13035613 -0.2548697 0.05961924 0.15585363 0.043380268
0.27878806 -0.08156702 0.043860413 -0.025553461 -0.05985959 0.054644704 -0.08499239 0.0731811
-0.007012169 0.07377593 -0.24459922 -0.01481637 0.016021168 -0.0934364 0.009020685 -0.22926292
-0.16950192 0.087878 0.23199852 -0.06214821 0.15620305 0.02162561 0.2049102 -0.0566159
0.112527266 -0.47198087 -0.080172546 0.18986242 -0.007289633 -0.28325996 -0.045214202 -0.3009615
-0.073702365 -0.015326575 0.006616388 -0.2580024 0.091912396 0.14912423 0.28782156 0.042259056
0.041688655 0.110496126 0.25720683 -0.041780643 0.008003027 0.04384959 0.19932094 0.05693146
0.0039277985 0.06351979 -0.05187633 -0.18390281 -0.019055204 0.07410864 0.14390711 0.13335587
0.25406367 0.0029390438 0.14076231 0.07749067 -0.07676181 0.06291401 0.07742948 -0.13839841
-0.007122321 -0.06997895 0.01222473 -0.030182095 -0.23030765 0.2560211 -0.18151 0.012638702
0.027196076 -0.11683347 0.2103835 -0.054790553 -0.12348141 0.03936693 -0.06121458 -0.062445655
-0.35542965 0.21938801 0.012383375 -0.7178208 -0.1456796 -0.12678994 -0.1800055 0.38239798
0.012723024 0.025145026 0.09388348 0.070200026 -0.058411896 0.13540038 0.05237195 0.0128767565
-0.21209854 0.07124522 0.3472163 0.39691663 0.17903046 0.17678604 -0.35299078 0.32584026
-0.041052837 -0.008862212 0.12080267 0.25486702 -0.09555815 0.24148439 0.31666574 0.34700218
0.46554148 -0.37262815 0.17023787 -0.7560439 0.0015723718 0.35445985 -0.002231763 0.35265407
0.49253646 0.00024091925 -0.4444296 0.21110937 0.16163567 0.24046876 -0.35236815 -0.63897026
0.07597979 -0.30309886 0.6017291 0.5659002 0.41328216 0.26983595 0.13274701 -0.23059766
0.32533434 0.19446737 0.37657195 0.52767384 -0.020158004 -0.06733487 -0.020648934 -0.089591615
0.49268615 -0.20564583 -0.34802935 0.028174434 0.3488858 0.72734684 0.27396205 0.35538855
0.21141697 0.07486891 -0.06244273 0.037813157 0.02146948 0.17764337 -0.32114494 0.040425077
-0.09910242 -0.46864718 -0.63580245 0.32263175 -0.055265073 0.012061025 0.4860408 0.44335178
0.0558286 1.0386481 0.18723309 -0.6053259 0.030561304 0.7224592 0.29388434 0.2896213
-0.009797933 0.2788953 0.11629088 -0.26217288 0.016357383 0.3089027 0.14306283 0.43747756
-0.25149912 -0.525572 -0.21045057 0.38359 -0.3929263 -0.38003922 0.07120364 0.31075847
0.0057646506 -0.34479368 0.5040691 0.5019367 0.42099312 -0.22397624 0.37501073 -0.38523093
-0.35208905 0.33081418 -0.23897673 0.2588061 0.5787522 0.37060708 0.4385257 0.025744118
-0.08360079 -0.16000041 -0.2777081 -0.50125843 0.11388125 -0.11316615 -0.2720123 0.0941507
-0.52107596 0.43532744 -0.19573727 0.45660147 -0.41703168 0.3225008 0.3867317 0.002978536
00000000: ed30 cf3d cf97 84be e9fb 773e 23aa 7c3d
00000010: ced3 ccbd 39ba 1ebe 4c2b e03b 8ef2 1fbe
00000020: 6724 043d 4515 fabc 952d d93d dfa7 74bc
00000030: 58c2 ebbd ec68 abbe 6414 163d f1da 8dbd
00000040: d181 07bd 34d2 7abe cf37 f5bc 4510 183d
00000050: addb 5dbb a779 e9bd 42d9 54be 56f9 68be
00000060: 046d b83d 583b 473c 7f4b e0bc 147c 05be
00000070: 487e 82be 4e33 743d 1898 1f3e 82af 313d
00000080: 4fbd 8e3e 9c0c a7bd faa6 333d 7e55 d1bc
00000090: 542f 75bd 20d3 5f3d 7d10 aebd f9df 953d
000000a0: 56c6 e5bb d617 973d 3878 7abe 5cc0 72bc
000000b0: d33e 833c 955b bfbd 7fcb 133c e6c3 6abe
000000c0: e991 2dbe 62f9 b33d 0591 6d3e 1f8f 7ebd
000000d0: b1f3 1f3e 3128 b13c fbd3 513e 13e6 67bd
000000e0: b274 e63d 7aa7 f1be 8131 a4bd 4b6b 423e
000000f0: e0dd eebb 7307 91be 8732 39bd a017 9abe
00000100: 44f1 96bd 511c 7bbc 49ce d83b e418 84be
00000110: 913c bc3d 06b4 183e 595d 933e d517 2d3d
00000120: b9c1 2a3d cb4b e23d 9db0 833e 2e22 2bbd
00000130: 211f 033c a19b 333d ca1a 4c3e f630 693d
00000140: c3b4 803b aa16 823d 467c 54bd 0551 3cbe
00000150: a919 9cbc 45c6 973d 635c 133e 718e 083e
00000160: a214 823e f99c 403b ff23 103e 6eb3 9e3d
00000170: 4c35 9dbd 0fd9 803d 5993 9e3d 50b8 0dbe
00000180: 5c62 e9bb 2051 8fbd 3c4a 483c 7140 f7bc
00000190: c5d5 6bbe 3315 833e c2dd 39be 8f12 4f3c
000001a0: 4eca de3c 6346 efbd c66e 573e 0f6c 60bd
000001b0: d2e3 fcbd 383f 213d 24bc 7abd 04c7 7fbd
000001c0: e0fa b5be 40a7 603e a4e3 4a3c 1bc3 37bf
000001d0: 082d 15be 39d5 01be 5d53 38be abc9 c33e
000001e0: 3b74 503c f1fc cd3c fb45 c03d 08c5 8f3d
000001f0: 5041 6fbd 66a6 0a3e f883 563d 08f9 523c
00000200: 5c30 59be 04e9 913d 56c6 b13e a838 cb3e
00000210: c353 373e 6607 353e 35bb b4be 89d4 a63e
00000220: 0527 28bd d032 11bc 6467 f73d ee7d 823e
00000230: feb3 c3bd af47 773e 0322 a23e 45aa b13e
00000240: 745b ee3e 1ec9 bebe d652 2e3e 188c 41bf
00000250: 0b18 ce3a c37b b53e c542 12bb 138f b43e
00000260: bd2d fc3e 459f 7c39 478c e3be 0e2d 583e
00000270: d283 253e 713d 763e 9969 b4be 8e93 23bf
00000280: 4b9b 9b3d c62f 9bbe eb0a 1a3f d6de 103f
00000290: b899 d33e f027 8a3e d5ee 073e cb21 6cbe
000002a0: 3992 a63e 7422 473e 0ace c03e a215 073f
000002b0: 6622 a5bc dde6 89bd f427 a9bc cf7b b7bd
000002c0: 5c41 fc3e d294 52be e730 b2be 12ce e63c
000002d0: 29a1 b23e 6733 3a3f c144 8c3e 7df5 b53e
000002e0: b17d 583e df54 993d f3c3 7fbd f8e1 1a3d
000002f0: c3e0 af3c 25e8 353e 1c6d a4be c494 253d
00000300: 36f6 cabd 86f2 efbe f3c3 22bf fd2f a53e
00000310: a15d 62bd 9b9b 453c 57da f83e 01ff e23e
00000320: 88ac 643d 6cf2 843f 08ba 3f3e a3f6 1abf
00000330: b35b fa3c 16f3 383f 0278 963e 3e49 943e
00000340: 8287 20bc 5dcb 8e3e ea29 ee3d 863b 86be
00000350: ebff 853c 7f28 9e3e 107f 123e 0ffd df3e
00000360: 7ec4 80be e38b 06bf 5b80 57be e965 c43e
00000370: a32d c9be 8094 c2be 37d3 913d bc1b 9f3e
00000380: 65e5 bc3b cc88 b0be ac0a 013f ec7e 003f
00000390: 698c d73e 075a 65be 6801 c03e fd3c c5be
000003a0: 0445 b4be 7a60 a93e 51b6 74be 3c82 843e
000003b0: 1b29 143f 36c0 bd3e 7186 e03e 54e5 d23c
000003c0: e436 abbd 26d7 23be c22f 8ebe 7952 00bf
000003d0: 933a e93d a8c3 e7bd 3245 8bbe 15d2 c03d
000003e0: 3c65 05bf 3de3 de3e 5a6f 48be abc7 e93e
000003f0: 2d85 d5be d31e a53e b301 c63e 8b33 433b

fc3.bias f4 [2]
0.0124001475 -0.39811087
00000000: fd29 4b3c 30d5 cbbe
