agent_critic_checkpoint_2_2.pth (torch_old, 185334 bytes, 5 tensors)

fcs1.weight f4 [256, 48]
-0.055368703 0.5140884 0.018182369 -0.075080976 -0.38307405 -0.12707429 -0.0073206625 0.0076722167
-0.03640324 0.5947559 0.010605069 -0.18000767 -0.12263699 -0.10404831 -0.05510898 -0.10258493
0.07070454 0.5437203 0.057661287 -0.047592238 0.3262646 0.15538098 0.040394716 -0.02254841
-0.18319272 0.52296513 -0.021950295 0.03391732 0.3318413 -0.05901413 0.044979926 -0.046559855
-0.021291023 0.5647738 -0.026858049 -0.14603941 0.1481168 -0.15966326 -0.030263403 -0.14130831
0.12557985 0.5313422 -0.024678279 -0.051225573 -0.33735076 0.152165 0.016303692 -0.057454403
-0.018384656 -0.40798515 0.03558042 -0.046515923 0.2302887 -0.85372794 0.02223506 -0.05559493
0.047213543 -0.48908606 0.030669954 -0.09028567 0.27491373 -0.80590034 0.019425904 -0.16688439
0.27585527 -0.48162776 -0.005034388 -0.10730748 0.05354567 -0.66201234 -0.02938313 -0.03462642
0.030616589 0.6434311 -0.017381724 0.3052134 -0.23918971 -0.8542184 -0.0045947377 0.31038028
0.10448356 0.8237984 -0.0709111 0.142044 -0.16395068 -0.88004 -0.11785461 0.07573276
-0.08093866 0.8222429 -0.10715085 -0.19732158 -0.1113862 -0.696256 -0.092410505 -0.15050276
0.22310689 0.48147565 -0.030637449 -0.06472556 0.21856569 -0.10694247 0.01824456 -0.027975501
0.09703283 0.3164759 -0.0039595244 0.13932942 0.29760355 0.16989462 0.040915933 0.103082575
0.09731715 0.31556034 -0.06299933 0.19565189 0.12272026 0.287725 0.013030839 0.22986434
0.26669264 0.022288408 0.017099282 0.10032058 -0.18904057 -0.15336445 -0.032333467 0.06384549
0.21884292 -0.06929169 -0.021764606 0.2298904 -0.20222628 0.08557147 -0.02669638 0.23784624
0.3937604 0.104555935 -0.014440305 0.26314828 -0.19431387 0.29183552 0.028670816 0.32133847
-0.008481461 0.34506413 0.02451082 0.047827862 0.42133564 0.13080497 -0.036076408 0.07226331
0.086997114 0.37819242 -0.0041552964 0.04493123 0.06825476 0.090477295 -0.03386754 0.0861016
0.033156972 0.625995 -0.0062914235 0.054998953 -0.38378456 0.097391635 0.0011561422 0.01807151
-0.039056946 1.3651263 0.050408784 -0.15851837 -0.42465627 0.11663574 -0.043802008 -0.13019252
0.08281439 1.1600838 -0.014209313 -0.18543592 -0.12138489 0.1687754 -0.008062333 -0.18767957
0.27563363 0.7860633 -0.016110523 -0.21781439 0.42471978 0.09773369 -0.008088666 -0.20766586
-0.047658846 -0.8932446 0.032911748 0.05894414 -0.1512492 0.20444486 -0.044602457 0.037488773
0.2216524 -0.8574822 0.0030694378 -0.022032203 0.11507935 0.18337992 -0.011485405 0.010258698
0.43453735 -0.8836042 0.037051853 0.11314041 0.20436792 0.019827181 0.021577336 0.09991135
0.068678096 0.41047925 -0.027835915 0.13586536 0.103742294 0.31959754 0.008747409 0.17939225
0.25071296 0.52304655 -0.04139752 -0.16619617 -0.06339175 0.23444523 0.0176448 -0.18354331
0.21022625 0.48000705 0.008496377 -0.3592477 -0.16460887 -0.015814785 0.032322235 -0.2971504
0.18814732 0.17447385 0.0050118356 -0.048679728 0.0020247553 -0.17189851 -0.012075531 -0.023398655
0.096096024 0.027203254 0.02258193 0.085328944 0.049188506 -0.003826085 0.024711609 0.08064666
00000000: 4bca 62bd 4c9b 033f 31f3 943c 0ec4 99bd
00000010: 4822 c4be c31f 02be 2be2 efbb 3867 fb3b
00000020: 901b 15bd ec41 183f e2c0 2d3c ee53 38be
00000030: 1a29 fbbd 4817 d5bd f4b9 61bd 0c18 d2bd
00000040: 8bcd 903d 4131 0b3f 3e2e 6c3d 14f0 42bd
00000050: 270c a73e 311c 1f3e ee74 253d 71b7 b8bc
00000060: df96 3bbe 0be1 053f 1bd1 b3bc e3ec 0a3d
00000070: 1ae7 a93e cdb8 71bd df3c 383d 8cb5 3ebd
00000080: 836a aebc 0495 103f 6905 dcbc 5b8b 15be
00000090: eeab 173e c47e 23be f5ea f7bc 20b3 10be
000000a0: 0198 003e 0b06 083f 1a2a cabc e8d1 51bd
000000b0: 3db9 acbe 24d1 1b3e 528f 853c 4f55 6bbd
000000c0: 6b9b 96bc 6ee3 d0be c6bc 113d 7b87 3ebd
000000d0: cdd0 6b3e ea8d 5abf 4d26 b63c 82b7 63bd
000000e0: fd62 413d 7d69 fabe 8e3f fb3c b1e7 b8bd
000000f0: 7ec1 8c3e 7c4f 4ebf 1323 9f3c bee3 2abe
00000100: e73c 8d3e ea97 f6be 82f7 a4bb 06c4 dbbd
00000110: b452 5b3d a479 29bf e4b4 f0bc 6fd4 0dbd
00000120: a4cf fa3c e7b7 243f 1e64 8ebc ee44 9c3e
00000130: 26ee 74be 0fae 5abf 748f 96bb 2aea 9e3e
00000140: 7afb d53d 74e4 523f d739 91bd fb73 113e
00000150: b0e2 27be 4d4a 61bf c25d f1bd c719 9b3d
00000160: 2bc3 a5bd 837e 523f e871 dbbd ab0e 4abe
00000170: 731e e4bd d53d 32bf b841 bdbd 651d 1abe
00000180: 2276 643e fa83 f63e 63fb fabc d68e 84bd
00000190: afcf 5f3e a704 dbbd 9e75 953c e12c e5bc
000001a0: 26b9 c63d 2109 a23e e6be 81bb 5fac 0e3e
000001b0: 7e5f 983e dbf8 2d3e 7797 273d f51c d33d
000001c0: 374e c73d 2091 a13e cb05 81bd f858 483e
000001d0: c254 fb3d b150 933e 4d7f 553c 8f61 6b3e
000001e0: f08b 883e 2e96 b63c cb13 8c3c e074 cd3d
000001f0: da93 41be 920b 1dbe 1970 04bd 6dc1 823d
00000200: 5c18 603e cde8 8dbd b04b b2bc 6468 6b3e
00000210: 6814 4fbe 1840 af3d 5eb2 dabc f78d 733e
00000220: f79a c93e 6c21 d63d 0797 6cbc 5fbb 863e
00000230: 37fa 46be 776b 953e 0fdf ea3c 7a86 a43e
00000240: d3f5 0abc 3fac b03e eaca c83c 26e7 433d
00000250: 4eb9 d73e bdf1 053e dbc4 13bd c9fe 933d
00000260: 8b2b b23d 70a2 c13e 2729 88bb cf09 383d
00000270: 27c9 8b3d 294c b93d b1b8 0abd 0956 b03d
00000280: 9bcf 073d 3541 203f 4928 cebb 9546 613d
00000290: 697f c4be 4475 c73d b289 973a b40a 943c
000002a0: 2dfa 1fbd 75bc ae3f 7179 4e3d a452 22be
000002b0: 8c6c d9be b8de ee3d bc69 33bd 3051 05be
000002c0: 979a a93d a07d 943f 2ece 68bc eae2 3dbe
000002d0: a498 f8bd 75d3 2c3e e017 04bc 132f 40be
000002e0: da1f 8d3e 723b 493f 37fa 83bc bc0a 5fbe
000002f0: df74 d93e 9a28 c83d 5386 04bc 5ca6 54be
00000300: ec35 43bd aeab 64bf 78ce 063d 696f 713d
00000310: 12e1 1abe fe59 513e 11b1 36bd d48d 193d
00000320: d9f8 623e f483 5bbf 9f28 493b e17c b4bc
00000330: b9ae eb3d f2c7 3b3e 482d 3cbc 1914 283c
00000340: ae7b de3e e333 62bf afc3 173d 29b6 e73d
00000350: d345 513e 9d6c a23c f4c2 b03c 529e cc3d
00000360: 1aa7 8c3d 562a d23e 2508 e4bc 4a20 0b3e
00000370: d776 d43d 4aa2 a33e 4b51 0f3c 9ab2 373e
00000380: 735d 803e 61e6 053f 7290 29bd 542f 2abe
00000390: 89d3 81bd 6912 703e d48b 903c c7f2 3bbe
000003a0: 8d45 573e 7cc3 f53e 6334 0b3c 51ef b7be
000003b0: 3a8f 28be 028e 81bc 5264 043d 1924 98be
000003c0: b1a9 403e 46a9 323e 533a a43b 6564 47bd
000003d0: c2b1 043b 2a06 30be 73d8 45bc 89ae bfbc
000003e0: fecd c43d 5cd9 de3c bdfd b83c f1c0 ae3d
000003f0: e379 493d 0ebf 7abb 0070 ca3c 132a a53d

fcs1.bias f4 [256]
-0.92166793 -0.29497722 -0.65187734 -0.49472514 -0.40116957 -0.60129297 -0.57556754 -0.8193174
-0.2995495 -0.32231954 -0.3810348 -0.50488746 -0.2952042 -0.06005057 -0.7327891 -0.35639614
-0.8013792 -0.8339574 -0.30527905 -0.36922634 0.07456999 -1.2369734 -0.27024364 -0.5400021
-0.017634157 -0.1552539 0.18156469 0.4390474 -0.8138427 -1.0471646 -0.2942672 -0.18504788
0.073303595 -0.03813223 -0.6696917 -0.14531244 -0.6087301 -0.54950726 -1.5553793 -0.19265598
-0.7768865 -0.8302859 -0.89889884 -0.8933727 -0.6786662 -0.16306521 -0.70355254 -0.6098692
-0.023509411 -0.19476503 -1.1223407 -0.21708466 0.1652259 -0.050900724 -0.33566758 -0.16429631
-0.3735006 -0.72444135 -0.6099258 -0.7224179 -0.16432366 -0.2696963 -0.5212148 -0.8501144
-0.5004612 -0.24945101 -0.6211105 -0.41261205 -0.44707242 -0.27792197 -0.51810503 -0.7246572
-0.94555515 -0.47826934 -0.89042866 -0.049708314 -0.6416002 -0.15583442 -0.6441428 -0.5842651
-0.44344836 -0.96661896 0.037791695 -0.8888597 -0.23716305 0.14816575 -0.4654967 -1.2132982
0.052001543 -0.8515887 -1.4536327 -0.5651404 -0.4526758 0.10136617 -0.20601986 -0.28752568
-0.44340533 0.2077038 -0.22130835 -0.45492104 0.32612452 -0.7829838 -0.828488 0.22182819
-0.20143692 -0.97131985 -0.3609698 -0.6349549 -0.5559087 -0.8627397 -0.7794495 -1.3221701
0.29070365 -1.0277504 -0.6589979 -0.3962872 -0.2784665 -0.49285135 -1.1889867 -0.75154006
-0.16432309 -0.9510476 0.20464069 -0.32054597 -0.62266535 -0.18282576 -0.63890433 0.09594015
-0.7560437 -0.32323983 -0.3421416 -1.2681046 -0.1220728 -0.4047846 -0.27402067 -0.27032942
-0.79907477 -0.6408544 0.099118486 -0.66814506 -0.4045163 -0.5253969 -0.7524108 -0.8097534
-0.5586052 -0.30855682 -0.20049441 0.17777985 -0.055139154 -0.37288097 -1.1314317 -0.3438152
-0.096107356 -0.51558036 -0.87688047 -1.0514444 0.17141965 -0.40264094 -0.16102955 -0.5278751
-0.8295198 0.36798698 -0.5935636 -0.4583219 -0.86864203 -0.2602102 -0.9457884 -0.015399187
-0.29435712 -0.027088223 -1.0246382 -0.46303126 -0.4400774 -0.20422855 0.27058664 -0.73641163
-0.13927408 -0.5997372 -0.41428524 -0.55214936 0.09384868 -0.8660967 -0.5270285 -0.42055696
-1.1871375 -0.6876643 -0.57508504 -0.27429238 -0.43963417 -0.5225562 -0.23185383 0.06817557
-0.33063918 -0.5121775 -0.007333923 -0.6176735 -0.6075119 -0.30745494 -0.3994712 -0.18696916
-0.6357359 0.25027907 -0.3801933 -0.7157871 -0.4764638 -0.21757753 -0.19159167 -0.84970784
-0.5869609 -0.63537425 -0.62610656 -0.45867074 -0.46608043 -0.60634965 -0.5252305 -0.23993085
-1.0678635 -0.73789847 -0.47550926 -0.53478616 -0.63298565 -0.17145705 -0.67771065 -0.43503952
-0.33914047 -0.8320243 -1.4290968 -0.673284 0.27566367 -0.25265118 -1.2520486 -0.14928897
-0.48096833 -0.37642086 -0.46565798 -0.3743765 -0.65271 0.058379 -0.62896085 -0.6211126
-0.35670543 -0.42483613 -0.8688974 0.36426306 -0.40422362 -0.7357304 -0.36388686 -0.56871545
-0.57283807 -0.9394206 -0.40132457 -1.1192755 -0.48540562 -0.13672915 0.016923591 -0.61633736
00000000: 6ef2 6bbf 4107 97be 6fe1 26bf 9d4c fdbe
00000010: 1966 cdbe 56ee 19bf 6558 13bf c9be 51bf
00000020: 8d5e 99be 1107 a5be fe16 c3be 4e40 01bf
00000030: 0125 97be 96f7 75bd 1198 3bbf 8e79 b6be
00000040: 3027 4dbf 3b7e 55bf 894d 9cbe 3c0b bdbe
00000050: 27b8 983d 2555 9ebf 605d 8abe 943d 0abf
00000060: 8275 90bc e1fa 1ebe 18ec 393e d2ca e03e
00000070: ff57 50bf 7d09 86bf 31aa 96be 317d 3dbe
00000080: 3220 963d 8b30 1cbd ea70 2bbf c9cc 14be
00000090: bcd5 1bbf 82ac 0cbf ab16 c7bf 9c47 45be
000000a0: 09e2 46bf 9e8d 54bf 3c1e 66bf 13b4 64bf
000000b0: 11bd 2dbf 91fa 26be 051c 34bf 6320 1cbf
000000c0: cf96 c0bc 7c70 47be dca8 8fbf 714b 5ebe
000000d0: fa30 293e 477d 50bd 9fdc abbe 4b3d 28be
000000e0: 783b bfbe fd74 39bf 1924 1cbf 61f0 38bf
000000f0: 7644 28be a215 8abe 556e 05bf 19a1 59bf
00000100: 3a1e 00bf 1670 7fbe 1901 1fbf e341 d3be
00000110: ade6 e4be ca4b 8ebe 88a2 04bf 2283 39bf
00000120: e70f 72bf b8df f4be 22f3 63bf f29a 4bbd
00000130: e93f 24bf 0f93 1fbe 8be6 24bf 6692 15bf
00000140: aa0b e3be 5774 77bf 77cb 1a3d 4f8c 63bf
00000150: dfda 72be c3b8 173e 9555 eebe 5b4d 9bbf
00000160: 92ff 543d b801 5abf a310 babf 0bad 10bf
00000170: 1fc5 e7be 1199 cf3d dff6 52be 9136 93be
00000180: 0606 e3be 4eb0 543e a89e 62be 69eb e8be
00000190: cbf9 a63e a071 48bf ca17 54bf ee26 633e
000001a0: 7b45 4ebe 6ba8 78bf 09d1 b8be 688c 22bf
000001b0: 0850 0ebf 82dc 5cbf 018a 47bf df3c a9bf
000001c0: 1cd7 943e 538d 83bf 16b4 28bf 28e6 cabe
000001d0: 2993 8ebe 0357 fcbe b730 98bf ee64 40bf
000001e0: 5044 28be db77 73bf 548d 513e 9a1e a4be
000001f0: ff66 1fbf ad36 3bbe 3c8f 23bf 457c c43d
00000200: 148c 41bf b17f a5be 2f2d afbe 4051 a2bf
00000210: 4e01 fabd ed3f cfbe 704c 8cbe 9e68 8abe
00000220: 2a90 4cbf 090f 24bf a2fe ca3d 8e0b 2bbf
00000230: c31c cfbe 6980 06bf ff9d 40bf 004c 4fbf
00000240: c000 0fbf 29fb 9dbe 684e 4dbe ec0b 363e
00000250: 98d9 61bd 41ea bebe c1d2 90bf 8c08 b0be
00000260: efd3 c4bd 13fd 03bf 3d7b 60bf bb95 86bf
00000270: a288 2f3e f426 cebe eee4 24be d322 07bf
00000280: 695b 54bf ca68 bc3e c9f3 17bf 2ba9 eabe
00000290: 535f 5ebf 453a 85be 301f 72bf df4c 7cbc
000002a0: fab5 96be 1fe8 ddbc 5827 83bf 6f12 edbe
000002b0: d351 e1be 4a21 51be 558a 8a3e 7985 3cbf
000002c0: dd9d 0ebe 6188 19bf 321d d4be a959 0dbf
000002d0: bd33 c03d 83b8 5dbf 57eb 06bf 3e53 d7be
000002e0: 1ff4 97bf c40a 30bf c638 13bf 0d70 8cbe
000002f0: bb17 e1be 3ec6 05bf 176b 6dbe a29f 8b3d
00000300: 8a49 a9be 111e 03bf 6851 f0bb da1f 1ebf
00000310: e685 1bbf bc6a 9dbe 7d87 ccbe d874 3fbe
00000320: 97bf 22bf 9424 803e b2a8 c2be d33d 37bf
00000330: 10f3 f3be a5cc 5ebe 9b30 44be 7486 59bf
00000340: 1243 16bf e3a7 22bf 8548 20bf e4d6 eabe
00000350: 18a2 eebe bb39 1bbf 8275 06bf 6fb0 75be
00000360: c0af 88bf eae6 3cbf f375 f3be bfe7 08bf
00000370: 590b 22bf 7092 2fbe 727e 2dbf 80bd debe
00000380: d2a3 adbe 8bff 54bf a5ec b6bf 575c 2cbf
00000390: ca23 8d3e 7f5b 81be 2143 a0bf 35df 18be
000003a0: 7b41 f6be 3cba c0be b96a eebe 47ae bfbe
000003b0: 0118 27bf d11e 6f3d 9403 21bf 3c01 1fbf
000003c0: 18a2 b6be 1f84 d9be 0f70 5ebf b080 ba3e
000003d0: 66f6 cebe d458 3cbf 614f babe 5697 11bf
000003e0: 84a5 12bf de7d 70bf 6a7a cdbe 6b44 8fbf
000003f0: 1687 f8be ba02 0cbe 58a3 8a3c 49c8 1dbf

fc2.weight f4 [128, 260]
-0.011199942 -0.73470676 -0.19850042 0.104809076 0.016806005 -0.12770802 0.13683273 0.05171105
-0.08302947 -0.24540891 0.03800501 -0.12289912 -0.053676676 0.016570749 0.029447515 -0.11318921
0.019005068 -1.6180594 0.24805935 -0.028386096 0.021617752 0.21798302 -0.14020026 -0.43371543
0.15456945 -0.022218423 -0.07764136 0.13183104 -0.052494235 0.029081857 -0.6913497 -0.20072755
-0.060934782 -0.0029434836 0.041483935 -0.25861096 -0.011147573 -0.08825915 -0.3143995 0.018770915
0.052520256 -1.0482756 -0.045496393 -0.058550447 -0.21966992 -0.14128903 -0.03275938 -0.043201257
-0.029964728 0.005628437 -0.07931895 -0.074268125 0.00211408 0.0029153395 -0.05034137 0.06779632
0.07639867 0.09019077 -0.08796556 0.027190523 0.036566176 0.06771524 -0.049459882 -0.004158687
0.010604361 0.29203644 0.066952236 -0.19648778 0.015943058 0.078456305 0.043830816 0.1047283
0.1738521 -0.06132424 0.067933135 0.3287023 -0.012034583 -0.21017681 -0.14863077 0.13672905
0.011987126 0.23321484 -0.07723106 -0.7534648 0.09822655 -0.027762422 0.08273231 -0.113114536
-0.019676497 -0.24659505 0.0112592215 -0.0668137 -0.052793622 -0.044222545 -0.03430461 -0.061487712
-0.021746466 -0.15517117 -0.009863531 0.020322526 -0.04272971 -0.4930099 -0.23222733 0.012808119
0.09893018 0.50635475 -0.039456982 0.036328115 -0.09742741 -0.100772515 -0.4258476 0.06284686
-0.029261911 -0.29338264 -0.017325658 0.15116099 -1.6904347 0.046402365 0.19100255 -0.29910573
-0.01607023 0.041920822 0.009320499 -0.15496139 0.13454024 -0.034099285 -0.16390356 0.053849027
-0.0051963837 -0.14113043 -0.8055831 -0.42810553 0.038263403 -0.07873656 0.14289804 0.20441936
-0.04877261 0.23244186 -0.19503209 -0.13578542 -0.051334273 0.031188615 -0.091424376 -0.020171707
0.034839347 0.085486434 0.025276544 -0.10153803 0.30878764 0.0010739462 0.07499546 -0.09626872
-0.04745461 -0.14295322 0.011345076 -0.54325026 0.21713586 0.07306431 -0.16050014 -0.12224035
0.008451041 -0.07208835 -0.009032214 -0.13199034 0.07423975 -0.01862914 0.19064543 -0.89049435
0.1650499 -0.22654407 -0.13171798 -0.035534367 0.065577865 -0.1076934 0.21388222 0.05331417
-0.0035848715 -0.08187475 -0.02719877 -0.054475896 0.063611984 -0.07219776 0.12555222 0.09996176
-0.67559594 -0.057381798 0.052029915 -0.12742408 0.050756738 -0.08798703 -0.0002803776 0.065208405
-0.08955136 0.046844553 0.0014994813 0.015240976 0.027338183 -0.07901608 -0.023609439 -0.07354934
-0.06658155 -0.16927163 0.0032225945 -0.034391068 -0.17647019 -0.05303575 -0.05154374 -1.0840677
0.06476687 0.07917779 -0.057029556 -0.037396085 0.42425188 -0.5594173 -0.059078883 0.07307178
-0.024873361 0.005769288 0.037719313 -0.012836743 0.2268935 -0.49225405 0.2268771 0.1999914
-0.029918388 0.045404825 -0.6000115 0.18843232 -0.15626234 0.016831122 -0.17094354 0.100755915
-0.15879929 -0.0607985 -0.059386432 0.0054196375 -0.025419515 0.00880315 0.11455483 -0.0030942936
0.01286234 -0.051084395 0.04390786 -0.029385949 -0.03632514 0.003310216 0.021211928 -0.039096285
-0.025517195 0.00795728 -0.288132 -0.6021303 0.18323506 -0.42910784 0.04130564 -0.08735319
00000000: f67f 37bc be15 3cbf b243 4bbe 24a6 d63d
00000010: bfac 893c e4c5 02be e11d 0c3e f7ce 533d
00000020: 5b0b aabd 794c 7bbe 24ab 1b3d 89b2 fbbd
00000030: 13dc 5bbd 61bf 873c ea3b f13c bfcf e7bd
00000040: 84b0 9b3c 921c cfbf 4503 7e3e f589 e8bc
00000050: b617 b13c f136 5f3e a890 0fbe f30f debe
00000060: 7447 1e3e 6903 b6bc 6f02 9fbd b7fe 063e
00000070: 3204 57bd 133d ee3c 4bfc 30bf 868b 4dbe
00000080: c096 79bd 76e7 40bb 0feb 293d a868 84be
00000090: 4fa4 36bc 37c1 b4bd f9f8 a0be 76c5 993c
000000a0: 7b1f 573d e52d 86bf 6d5a 3abd 98d2 6fbd
000000b0: 27f1 60be 12ae 10be b32e 06bd cdf3 30bd
000000c0: 9778 f5bc c06e b83b f971 a2bd e319 98bd
000000d0: 608c 0a3b 480f 3f3b c132 4ebd ccd8 8a3d
000000e0: e876 9c3d f0b5 b83d 4a27 b4bd a9be de3c
000000f0: 6ac6 153d 4aae 8a3d 7296 4abd 9845 88bb
00000100: eabd 2d3c cd85 953e 411e 893d 1834 49be
00000110: 049b 823c b3ad a03d f187 333d ca7b d63d
00000120: 4906 323e 202f 7bbd 8720 8b3d ab4b a83e
00000130: b32c 45bc 9738 57be aa32 18be b302 0c3e
00000140: a765 443c dfcf 6e3e 512b 9ebd 12e3 40bf
00000150: 002b c93d 056e e3bc 8f6f a93d 98a8 e7bd
00000160: 9b30 a1bc 6a83 7cbe 9978 383c 9fd5 88bd
00000170: 203e 58bd b322 35bd fe82 0cbd 8ada 7bbd
00000180: a525 b2bc 31e5 1ebe a69a 21bc 6d7b a63c
00000190: 5905 2fbd cb6b fcbe 00cd 6dbe 25d9 513c
000001a0: e89b ca3d 77a0 013f a59d 21bd cacc 143d
000001b0: 0688 c7bd d261 cebd b208 dabe dbb5 803d
000001c0: adb6 efbc 4036 96be 8aee 8dbc f2c9 1a3e
000001d0: 2a60 d8bf 6810 3e3d 2c96 433e 6324 99be
000001e0: b7a5 83bc 2bb5 2b3d 02b5 183c 33ae 1ebe
000001f0: ebc4 093e b1ab 0bbd 56d6 27be cc90 5c3d
00000200: 6d46 aabb 7f84 10be b23a 4ebf a630 dbbe
00000210: 16ba 1c3d a240 a1bd dd53 123e 4f53 513e
00000220: cac5 47bd 3d05 6e3e 7eb6 47be 550b 0bbe
00000230: e343 52bd 447f ff3c b43c bbbd 233f a5bc
00000240: b4b3 0e3d 8313 af3d c110 cf3c 2cf3 cfbd
00000250: 6a19 9e3e a8c3 8c3a 3897 993d 8928 c5bd
00000260: c45f 42bd 5462 12be b3e0 393c 7312 0bbf
00000270: dd58 5e3e bea2 953d 265a 24be 2659 fabd
00000280: 3c76 0a3c 0fa3 93bd dafb 13bc 7a28 07be
00000290: 030b 983d 239c 98bc 8e38 433e 70f7 63bf
000002a0: d702 293e 2bfb 67be 14e1 06be 7c8c 11bd
000002b0: b04d 863d 5b8e dcbd f103 5b3e f65f 5a3d
000002c0: 2af0 6abb f3ad a7bd f4cf debc 1e22 5fbd
000002d0: 0047 823d 6bdc 93bd c390 003e c0b8 cc3d
000002e0: dbf3 2cbf 2d09 6bbd 521d 553d 757b 02be
000002f0: 4ce6 4f3d 8b32 b4bd a5ff 92b9 fc8b 853d
00000300: b466 b7bd 13e0 3f3d 3e8a c43a 49b5 793c
00000310: 53f4 df3c 2fd3 a1bd 9568 c1bc 09a1 96bd
00000320: e85b 88bd 8b55 2dbe 2a32 533b a6dd 0cbd
00000330: 9ab4 34be 043c 59bd 871f 53bd bbc2 8abf
00000340: 7ea4 843d f727 a23d d397 69bd a32c 19bd
00000350: 8b37 d93e f935 0fbf b3fc 71bd a8a6 953d
00000360: 38c3 cbbc 4c0c bd3b 917f 1a3d 3451 52bc
00000370: c556 683e b908 fcbe 7852 683e 8cca 4c3e
00000380: 6817 f5bc 69fa 393d 5b9a 19bf 67f4 403e
00000390: 3c03 20be 6ce1 893c d30b 2fbe 1e59 ce3d
000003a0: 489c 22be d907 79bd 303f 73bd 3797 b13b
000003b0: 963c d0bc 163b 103c b99b ea3d a2c9 4abb
000003c0: 90bc 523c df3d 51bd bad8 333d cdba f0bc
000003d0: acc9 14bd 35f0 583b a3c4 ad3c 6d23 20bd
000003e0: 7009 d1bc 405f 023c 0a86 93be 3625 1abf
000003f0: f9a1 3b3e 06b4 dbbe 1a30 293d 3be6 b2bd

fc2.bias f4 [128]
-0.040690284 1.1329204 -0.3117271 0.2095252 -0.26436302 0.29042265 0.082882375 -0.05011205
-0.40919983 -0.17707458 -0.20702295 0.6693438 -0.37439606 -1.3380934 0.24267334 -0.3389652
-0.0830882 0.029607885 -0.3602328 -0.26810062 -0.5057992 0.17836815 0.92761964 -0.33429584
-0.35041276 -0.3597091 -0.21683598 -0.48174393 -0.24506132 -0.3415602 -0.40185955 -0.62589204
0.103394605 -0.28474107 -0.5163236 -0.23932512 -0.5200739 -0.35167766 -1.08789 -0.27106613
-0.36274126 0.44602376 -0.088437214 -0.68327975 -0.27872148 -1.2305539 -1.0246288 -0.4692196
-0.55706346 -0.47988233 -0.6063533 -0.5622803 -0.729563 -0.90152997 -1.3556259 -0.71917796
0.08901646 -0.25710082 0.053093843 -0.07456746 -0.58459723 -0.28830162 0.109285854 -0.55738676
-0.22793378 -0.059329577 -0.6209267 -0.5303695 -0.9906729 -0.75485533 -0.6433948 -0.63829505
-0.4899357 -0.62291825 -1.1385686 -0.3130398 0.5222783 -0.3020108 -0.5472135 -0.7360296
-0.4158972 0.052685898 -0.023618346 -0.17868929 -0.3220376 -0.3199768 -0.46430206 0.14897618
0.4896508 -1.5518388 0.019843338 0.041597668 -0.5514574 -0.7505269 -0.2338498 -0.9093149
-0.06515805 -0.6934604 -0.83556545 -1.372499 0.036233157 -1.1075943 -0.5304439 -0.006212054
-0.53731513 0.15810248 -0.9824546 -0.48263833 -0.053088754 -0.90873456 -1.3384521 -0.13827518
-0.605024 -0.38835093 -0.3235768 -0.39228374 -0.370397 -0.2293812 0.56489265 0.26210326
-0.28008106 -0.35973814 -0.34279123 -0.3499907 0.19463047 -0.8140193 0.31163636 -1.3745929
00000000: dbaa 26bd 8903 913f b29a 9fbe c68d 563e
00000010: 975a 87be 47b2 943e 3cbe a93d 4b42 4dbd
00000020: a482 d1be 0a53 35be d3fd 53be 1e5a 2b3f
00000030: d7b0 bfbe a546 abbf 5c7f 783e d98c adbe
00000040: 252a aabd 3c8c f23c 6f70 b8be 7c44 89be
00000050: 0e7c 01bf 24a6 363e 7b78 6d3f d328 abbe
00000060: 4d69 b3be cb2b b8be 400a 5ebe 24a7 f6be
00000070: 5bf1 7abe fbe0 aebe 89c0 cdbe 763a 20bf
00000080: 8dc0 d33d 95c9 91be c92d 04bf a511 75be
00000090: 9023 05bf 180f b4be fb3f 8bbf 2ec9 8abe
000000a0: 39b9 b9be 3a5d e43e 921e b5bd 6ceb 2ebf
000000b0: 95b4 8ebe ca82 9dbf 0927 83bf 8d3d f0be
000000c0: b69b 0ebf 23b3 f5be f839 1bbf 9af1 0fbf
000000d0: a4c4 3abf abca 66bf 2685 adbf 0c1c 38bf
000000e0: 434e b63d b8a2 83be ee78 593d d3b6 98bd
000000f0: 2aa8 15bf 459c 93be 43d1 df3d e6b0 0ebf
00000100: 7967 69be 9203 73bd 0df5 1ebf 4cc6 07bf
00000110: bd9c 7dbf 333e 41bf 86b5 24bf 4e67 23bf
00000120: dad8 fabe 9277 1fbf 9ebc 91bf c146 a0be
00000130: 08b4 053f 29a1 9abe 2f16 0cbf 706c 3cbf
00000140: 7af0 d4be 2bcd 573d 437b c1bc 53fa 36be
00000150: 1de2 a4be 00d4 a3be 00b9 edbe 368d 183e
00000160: 82b3 fa3e a7a2 c6bf 7f8e a23c 5162 2a3d
00000170: 502c 0dbf 8822 40bf 5276 6fbe dcc8 68bf
00000180: 9571 85bd 9f86 31bf 9ee7 55bf 0cae afbf
00000190: 3869 143d a6c5 8dbf 2ccb 07bf 7c8e cbbb
000001a0: 7c8d 09bf 9ee5 213e 2582 7bbf 5f1c f7be
000001b0: 9873 59bd d4a2 68bf 6652 abbf 0298 0dbe
000001c0: dae2 1abf efd5 c6be dcab a5be 6ad9 c8be
000001d0: ada4 bdbe e8e2 6abe ce9c 103f 6632 863e
000001e0: c966 8fbe 992f b8be 5582 afbe fb31 b3be
000001f0: 364d 473e 9263 50bf cd8e 9f3e a9f2 afbf

fc3.weight f4 [1, 128]
-0.008495065 0.013732107 -0.021312209 -0.0057284296 0.0026695873 -0.015463349 -0.0063436176 0.00875109
-0.021637423 0.018851122 0.010577677 -0.007604246 -0.0051160334 -0.0094046015 0.00795052 -0.014262046
-0.007191632 0.0101959165 -0.0083784545 -0.011446385 0.022265906 0.008256997 0.005208377 -0.0032760808
-0.019324463 -0.007357017 0.0055848085 -0.01238905 -0.001291517 -0.011173255 -0.014027674 -0.011429846
0.007882812 0.004981171 0.018903231 0.012380837 -0.0077100033 0.005892385 -0.007604787 0.008491746
-0.013076911 0.005333662 -0.014782365 -0.007835694 0.016200297 -0.012131363 0.02028555 -0.009385172
-0.013102072 -0.05874317 -0.010430335 -0.022376427 -0.0071183178 -0.020953154 -0.013171817 -0.021911949
-0.012720431 0.01699377 0.007903981 0.008667879 -0.011272838 0.009491883 0.023317022 -0.010689815
-0.019000448 -0.0032758447 -0.0065156114 -0.022794893 -0.008834957 -0.009347717 -0.007157892 -0.008767896
-0.009216421 -0.010453845 0.012422713 -0.017112233 0.005817667 0.01140527 0.009114647 0.017099777
-0.012785327 0.020840969 0.005044154 0.00733939 -0.022062492 0.015696866 -0.012769798 0.007842766
-0.009812515 -0.01671063 0.01074753 -0.012144091 0.030453697 -0.017751042 0.01263234 0.00530925
0.006778736 0.014915953 -0.011233407 0.0072705364 -0.01443771 -0.0095523335 -0.019064596 -0.006921806
-0.013994809 -0.007194868 -0.007874109 0.00976307 -0.011028878 -0.009621572 -0.016321208 -0.018252518
-0.014552222 -0.012250485 -0.010709131 -0.02124813 -0.0069936533 0.0062759523 0.0052045817 0.0076915794
0.010432712 -0.031933375 0.0072548767 -0.0034313211 0.022891575 -0.011430726 0.007702555 -0.00772095
00000000: e32e 0bbc a2fc 603c f196 aebc 8db5 bbbb
00000010: 3ef4 2e3b fd59 7dbc 1fde cfbb bb60 0f3c
00000020: f740 b1bc ab6d 9a3c fe4d 2d3c 0a2d f9bb
00000030: 66a4 a7bb c215 1abc e642 023c 5bab 69bc
00000040: c8a7 ebbb c60c 273c c945 09bc 9e89 3bbc
00000050: fd66 b63c 5b48 073c 08ab aa3b 84b3 56bb
00000060: 564e 9ebc 2213 f1bb c500 b73b 71fb 4abc
00000070: 1f48 a9ba 0710 37bc 54d4 65bc 4044 3bbc
00000080: e926 013c 1739 a33b f3da 9a3c ffd8 4a3c
00000090: 32a4 fcbb e814 c13b 9431 f9bb f720 0b3c
000000a0: 8a40 56bc 00c6 ae3b bc31 72bc 4861 00bc
000000b0: 7cb6 843c a0c2 46bc e22d a63c 44c4 19bc
000000c0: 13aa 56bc ae9c 70bd ffe3 2abc c54e b7bc
000000d0: c740 e9bb f3a5 abbc 9bce 57bc b080 b3bc
000000e0: 5b69 50bc 8536 8b3c b37f 013c b803 0e3c
000000f0: b6b1 38bc d883 1b3c 5703 bf3c 5524 2fbc
00000100: d4a6 9bbc 8eaf 56bb e980 d5bb 5bbc babc
00000110: 7fc0 10bc 2b27 19bc c08c eabb 39a7 0fbc
00000120: 7900 17bc 9b46 2bbc a388 4b3c f42e 8cbc
00000130: 21a2 be3b 2bdd 3a3c 9a55 153c d514 8c3c
00000140: 8c79 51bc aeba aa3c 6e49 a53b 447f f03b
00000150: 66bc b4bc b796 803c 6a38 51bc f27e 003c
00000160: acc4 20bc bbe4 88bc 6816 303c 02f8 46bc
00000170: 087a f93c a26a 91bc e0f7 4e3c 38f9 ad3b
00000180: 2920 de3b 0b62 743c 530c 38bc ae3d ee3b
00000190: 258c 6cbc 6481 1cbc 5b2d 9cbc 51d0 e2bb
000001a0: 7c4a 65bc edc2 ebbb 6802 01bc 49f5 1f3c
000001b0: 78b2 34bc cca3 1dbc 0eb4 85bc 4e86 95bc
000001c0: 716c 6ebc 42b6 48bc 5a75 2fbc 8f10 aebc
000001d0: 042b e5bb 81a6 cd3b 328b aa3b a509 fc3b
000001e0: f7ed 2a3c 92cc 02bd 51ba ed3b 04e0 60bb
000001f0: 1d87 bb3c f147 3bbc b765 fc3b 0600 fdbb
