agent_critic_checkpoint_1_1.pth (torch_old, 185318 bytes, 5 tensors)

fcs1.weight f4 [256, 48]
0	0x3e702d7d	0.23454852
1	0x3eccea39	0.40022448
2	0xbd0d010a	-0.03442482
3	0xbad210d1	-0.001602674
4	0x3dd96409	0.10614783
5	0x3da226d9	0.07917566
6	0xbd4f2847	-0.05057552
7	0x3cec03b6	0.028810363
8	0x3e3063e5	0.17225607
9	0x3ed363c7	0.41287062
10	0xbdb278ca	-0.08714445
11	0x3d652092	0.055939265
12	0x3db5b29f	0.0887196
13	0xbd9571ab	-0.07297071
14	0x3c9e0a8a	0.019292135
15	0x3c9c5c52	0.01908699
16	0x3e6da4e9	0.2320744
17	0x3f27e0b8	0.6557727
18	0xbc82349b	-0.015894225
19	0x3ce29840	0.02766049
20	0x3e4bc201	0.19898225
21	0xbd43cd14	-0.047803
22	0x3cc40dd2	0.023932371
23	0xbd7dad3e	-0.061932795
24	0x3ee80e36	0.45323342
25	0x3ec72138	0.3889253
26	0x3d7c38c1	0.061577562
27	0x3e972240	0.29518318
28	0xbe349b21	-0.17637302
29	0x3c7be127	0.015373505
30	0x3cce638d	0.025193954
31	0x3ea87a60	0.32905865
32	0x3e3b4dbe	0.18291375
33	0x3ed83612	0.42228752
34	0x3c781c26	0.01514343
35	0x3ed2cd2a	0.41172153
36	0xbe0cfccc	-0.1376831
37	0xbd4074b6	-0.046986304
38	0xbbbfbf00	-0.0058516264
39	0x3eef5273	0.4674259
40	0x3e68efb6	0.22747692
41	0x3edbd5c7	0.42936537
42	0xbd910d0f	-0.07082569
43	0xbe90b0b1	-0.28259805
44	0xbe77943c	-0.2417764
45	0xbd486149	-0.048920903
46	0xbd82e9b4	-0.063922316
47	0xbe52b1ab	-0.20575587
48	0x3cff457a	0.031161059
49	0xbe054850	-0.13015866
50	0x3c4040ae	0.011734171
51	0x3dc88833	0.09791603
52	0xbe1f633d	-0.155652
53	0xbe9c98b8	-0.30585265
54	0xbca72620	-0.020403922
55	0x3e2e8746	0.1704379
56	0x3d3cdf2b	0.046111267
57	0x3e7f19e2	0.24912217
58	0x3c210f65	0.0098303305
59	0x3e812545	0.25223747
60	0x3dc8d1b2	0.09805621
61	0x3d7716dc	0.060324535
62	0x3afe151e	0.0019384956
63	0x3e8a5277	0.2701604
64	0x3c853330	0.01625976
65	0x3f1e072e	0.61729705
66	0x3c803c40	0.01565373
67	0x3eed6df3	0.46372947
68	0x3e688ca9	0.22709908
69	0x3f131758	0.57457495
70	0xbb44476c	-0.0029949797
71	0x3ec30d4a	0.38096076
72	0xbd905301	-0.07047082
73	0x3ec2c362	0.3803969
74	0x3cb7e914	0.022450007
75	0xbdc4485f	-0.09584116
76	0x3d98629e	0.07440685
77	0xbe909a94	-0.28242934
78	0xbcc50d5d	-0.024054224
79	0xbdd9cea0	-0.10635114
80	0x3e2d946e	0.16951153
81	0x3f1767d7	0.5914282
82	0xbc9f7580	-0.019465208
83	0xbe0723f5	-0.1319731
84	0xbe21e57d	-0.15810199
85	0x3dd0f1d0	0.10202372
86	0x3ca1ee37	0.01976691
87	0xbe3025e3	-0.17201953
88	0x3ec06afe	0.3758163
89	0x3f0c8877	0.5489573
90	0x3bb34545	0.005470904
91	0xbf022bfe	-0.50848377
92	0xbe6240bb	-0.22095005
93	0x3f2339e6	0.6376022
94	0xbc79dd83	-0.015250566
95	0xbef7edd3	-0.48423633
96	0x3e266c78	0.16252315
97	0xbd157b89	-0.036494765
98	0x3d018293	0.031618666
99	0xbe60b721	-0.21944858
100	0xbd1cf011	-0.038314883
101	0xbe0d6866	-0.13809356
102	0x3c8f8252	0.017518196
103	0xbdffeafa	-0.1249599
104	0x3f07eaa5	0.53092414
105	0x3d648a13	0.05579574
106	0xbc8314d5	-0.016001144
107	0x3c9837a7	0.018581225
108	0xbea1dadf	-0.31612298
109	0x3e0439b6	0.1291264
110	0x3daa2bb0	0.08309114
111	0xbb35147f	-0.0027630625
112	0x3f521a37	0.8207125
113	0x3ebb2a81	0.36555865
114	0xbc1c2a76	-0.009531608
115	0xbce32fc2	-0.027732734
116	0xbf22cb2a	-0.63591254
117	0xbe29921b	-0.16559641
118	0x3da56912	0.08076681
119	0x3daf9b35	0.08574525
120	0x3d56823f	0.052370306
121	0xbe53a086	-0.20666704
122	0xbd2b8efc	-0.041884407
123	0x3d7ca9e9	0.061685476
124	0x3d314081	0.043274406
125	0xbdfd97dd	-0.12382481
126	0x3d200ee3	0.039076697
127	0xbc82502b	-0.015907368
128	0x3c340585	0.010987644
129	0xbd60873f	-0.05481648
130	0xbbe543dc	-0.006996615
131	0x3d89bf28	0.06725913
132	0x3eae9d5e	0.34104437
133	0x3ddf8dde	0.10915731
134	0xbcab065e	-0.02087706
135	0x3d9adb1a	0.075613216
136	0x3e8a6b68	0.2703507
137	0x3e539d24	0.20665413
138	0xbce14525	-0.027498791
139	0xbe00a5cf	-0.12563251
140	0x3f280e06	0.656464
141	0xbe03e1a7	-0.12879048
142	0xbbd99714	-0.0066403244
143	0xbd797eab	-0.060911816
144	0x3d4ea3f7	0.050449338
145	0x3c2b6a90	0.010462418
146	0x3c9a80b6	0.018860202
147	0x3c27d755	0.01024421
148	0x3e191be1	0.14952041
149	0x3e996828	0.29962277
150	0xbc956ec7	-0.0182413
151	0x3d0b0552	0.03394062
152	0x3ccecfad	0.025245512
153	0xbd30ee07	-0.04319575
154	0xbcecbb7a	-0.02889799
155	0x3d94594d	0.07243595
156	0x3e130a1e	0.14359328
157	0xbe3ad700	-0.18246078
158	0x3cf83793	0.030299937
159	0xbd26864d	-0.040655423
160	0x3da1768a	0.07883938
161	0x3cf2787c	0.029598467
162	0x3d030f9b	0.031997304
163	0xbd2cc8c3	-0.04218365
164	0x3f50e842	0.816044
165	0xbf9ca0d8	-1.2236586
166	0xbcee406d	-0.029083455
167	0x3b5640fc	0.0032692542
168	0x3ee51d08	0.44748712
169	0x3f59bb98	0.8505187
170	0xbcace719	-0.02110629
171	0x3d24b565	0.040212054
172	0xbe3aa8aa	-0.18228403
173	0x3e558f5e	0.20855471
174	0x3c6a9796	0.0143183675
175	0x3db6f0ec	0.08932671
176	0x3f1aff80	0.6054611
177	0x3ec7a75c	0.38994873
178	0x3d9b05f3	0.07569494
179	0x3d722b7d	0.059123505
180	0xbe116b43	-0.14201073
181	0xbe1779d3	-0.14792566
182	0xbcfde999	-0.030995177
183	0x3c88cd8a	0.016699571
184	0x3f4f6ef9	0.81028706
185	0x3f043cec	0.5165546
186	0x3d1ff7e6	0.039054774
187	0x3c60f1cb	0.013729523
188	0xbf496f49	-0.7868543
189	0xbf9f497e	-1.2444303
190	0x3cd6bed0	0.026214033
191	0xbb782309	-0.003786268
192	0x3ead4fcb	0.3384994
193	0xbe125003	-0.14288335
194	0x3d40683e	0.046974413
195	0xbdc9600b	-0.09832772
196	0x3dd9d412	0.10636152
197	0x3f017027	0.50561756
198	0xbcd7a12b	-0.026321968
199	0xbdfc69bb	-0.12324854
200	0x3e76f2a3	0.24115996
201	0xbd818e28	-0.06325942
202	0xbdc4c159	-0.09607191
203	0x3d1b5624	0.037923947
204	0x3d4f50cd	0.050614167
205	0x3e0bc257	0.13648354
206	0xbdaa8673	-0.083264254
207	0x3e01e4dd	0.1268496
208	0x3e45d15a	0.19318143
209	0xbd746419	-0.059665773
210	0xbdbf4859	-0.09339971
211	0x3d0c8d82	0.03431464
212	0x3c1535c6	0.009107059
213	0xbf1aa1de	-0.6040324
214	0xbd49aeab	-0.049238842
215	0x3d27f0e0	0.0410012
216	0x3e8f0dc5	0.27940193
217	0x3d211084	0.03932239
218	0x3d8d6d17	0.06905573
219	0x3e45f05a	0.19329968
220	0xbe022980	-0.12711143
221	0x3f11f3f2	0.57012856
222	0x3d956638	0.07294887
223	0x3e54c08d	0.20776577
224	0x3e4f8c36	0.2026833
225	0x3d9d0c12	0.07668318
226	0xbd741905	-0.059594173
227	0x3d7713ea	0.060321726
228	0x3d0cd9fa	0.034387566
229	0x3d52e8ce	0.05149155
230	0x3d084679	0.033270333
231	0x3e227244	0.15863901
232	0x3e752dc3	0.23943238
233	0x3dbe3088	0.092866
234	0xba4981c3	-0.00076868775
235	0xbc1a18cf	-0.009405329
236	0x3c553cb6	0.013014963
237	0xbf2baa86	-0.67057073
238	0x3d71ccf2	0.05903334
239	0xbd8a4db7	-0.06753104
240	0xbdfa7707	-0.12229734
241	0xbe5fd1b3	-0.21857338
242	0xbd54d5ed	-0.051961828
243	0x3d92adde	0.07162069
244	0x3e4b92be	0.19880196
245	0x3c98c12c	0.018646799
246	0xbd205baf	-0.039149936
247	0x3df9f63e	0.1220517
248	0x3d7e5812	0.06209571
249	0xbe97e02b	-0.29663214
250	0xbbf337cc	-0.007422423
251	0xbe44a573	-0.19203739
252	0xbc46d287	-0.012135155
253	0xbe0ee657	-0.13955055
254	0x3c0338ec	0.008009177
255	0xbe247e6a	-0.16063848

fcs1.bias f4 [256]
0	0xbe0958a9	-0.13412727
1	0xbf1a4220	-0.6025715
2	0xbef5de37	-0.480211
3	0x3f039fa8	0.5141549
4	0x3ed4b482	0.41543967
5	0xbec72a42	-0.38899428
6	0xbe9ed4f5	-0.31021848
7	0xbe4eeaea	-0.202068
8	0xbe1ff8a1	-0.15622188
9	0xbe7033cc	-0.23457259
10	0xbf23d574	-0.6399758
11	0x3da20037	0.07910197
12	0x3de7d30e	0.11319552
13	0x3e1dd32b	0.15412585
14	0xbe6e4cc8	-0.23271477
15	0xbea26ab1	-0.31722024
16	0x3bd3edd4	0.0064675603
17	0xbea850fe	-0.32874292
18	0xbfb5e9aa	-1.4211934
19	0xbea6fab2	-0.3261314
20	0xbe2bf188	-0.16791356
21	0xbe28c36d	-0.16480799
22	0x3d6b3808	0.057426482
23	0xbe8b7db1	-0.27244332
24	0xbe66e2d8	-0.22547472
25	0xbe447d18	-0.19188344
26	0xbdf94ca8	-0.12172824
27	0xbf48ea22	-0.7848226
28	0xbe9d5833	-0.30731353
29	0xbf4b0ee8	-0.7931962
30	0xbf115c71	-0.5678168
31	0xbe634982	-0.2219601
32	0xbe5c0519	-0.2148632
33	0xbe84aa66	-0.25911254
34	0xbd0f7baa	-0.035030045
35	0xbf924eec	-1.1430335
36	0xbf1c5d01	-0.6107941
37	0x3c33bf0a	0.01097084
38	0x3c167572	0.009183275
39	0x3e45437a	0.19264022
40	0xbcfe1b66	-0.031018924
41	0x3ec82c21	0.39096168
42	0xbea8d7a2	-0.32977015
43	0xbdeaeefe	-0.114713654
44	0xbf77dae8	-0.968184
45	0xbd861130	-0.06546247
46	0x3d26a3c6	0.04068353
47	0xbf00c842	-0.5030557
48	0x3e0dabcd	0.13835068
49	0xbec7444b	-0.3891929
50	0xbf01f205	-0.5075992
51	0xbe8aa571	-0.27079347
52	0x3d470206	0.048585914
53	0xbe1044f5	-0.14088805
54	0xbdaada55	-0.08342425
55	0x3f21ca45	0.63199264
56	0xbeb08248	-0.34474397
57	0xbe742c46	-0.23845014
58	0xbf04712a	-0.51735175
59	0xbeb1431f	-0.34621522
60	0xbef6245e	-0.4807462
61	0xbdab9a90	-0.0837909
62	0xbe679b38	-0.22617805
63	0x3dc68c91	0.0969478
64	0xbe0b701f	-0.1361699
65	0xbe38ebae	-0.18058655
66	0xbec28126	-0.37989157
67	0xbef59c31	-0.47970727
68	0xbed56b80	-0.41683578
69	0x3db7c30e	0.089727506
70	0xbd0b4bb0	-0.034007728
71	0xbf1a38b0	-0.6024275
72	0xbe8108e3	-0.25202093
73	0x3e03bf03	0.12865834
74	0x3dfb009f	0.12255978
75	0x3f1be6a7	0.6089882
76	0x3d8ead68	0.06966668
77	0xbe8cd899	-0.27509
78	0xbe5962c1	-0.21229078
79	0xbeb7c384	-0.35891354
80	0xbdd9ee0a	-0.106411055
81	0x3ddbd80d	0.10734568
82	0xbe912672	-0.28349644
83	0xbea516bc	-0.32243907
84	0xbe8f2f3b	-0.2796572
85	0x3ef40099	0.47656706
86	0xbea53eb1	-0.32274392
87	0xbee0e528	-0.43924832
88	0xbe3c3e2e	-0.18383095
89	0xbd96aefd	-0.07357595
90	0xbee396d6	-0.44451016
91	0xbec3da55	-0.38252512
92	0x3e81dfd1	0.2536607
93	0x3dac3930	0.08409345
94	0xbe5f9f5c	-0.21838135
95	0xbe15a6f3	-0.14614467
96	0xbe0df4c8	-0.13862908
97	0x3ef08333	0.46975097
98	0xbe38092e	-0.17972252
99	0xbc1428d4	-0.009042937
100	0xbcfb8dbf	-0.030707238
101	0xbf26c508	-0.65144396
102	0x37aa5dca	2.0309253e-05
103	0x3f42bc1d	0.7606829
104	0x3e09472c	0.13406056
105	0xbecb2e23	-0.39683637
106	0x3d4af95e	0.04955422
107	0xbe969037	-0.29406902
108	0x3cb70152	0.022339497
109	0xbe608fd0	-0.2192986
110	0x3cbdeea4	0.023185082
111	0xbed3cf37	-0.4136903
112	0xbd8be0d3	-0.06829991
113	0x3d8bd56e	0.06827818
114	0xbed617cd	-0.41815034
115	0xbec0f439	-0.37686327
116	0xbf123246	-0.5710796
117	0x3db12c7c	0.08651063
118	0xbe8d0590	-0.27543306
119	0xbe09a790	-0.13442826
120	0xbebb3ec4	-0.36571324
121	0xbd806f76	-0.062712595
122	0xbec48787	-0.3838465
123	0xbeab97ca	-0.33514243
124	0xbea54aaf	-0.32283542
125	0xbe7cba19	-0.24680366
126	0xbeb5843d	-0.35452452
127	0xbe6812c8	-0.22663414
128	0xbf7b2853	-0.98108405
129	0xbea70bff	-0.3262634
130	0x3bd623cc	0.006535029
131	0xbf0d44a2	-0.5518285
132	0xbe9e6f13	-0.30944118
133	0xbe70395a	-0.23459378
134	0xbeb734e3	-0.35782537
135	0x3d371755	0.044699986
136	0xbeb747a6	-0.3579685
137	0xbe9661da	-0.2937153
138	0xbe363d55	-0.17796834
139	0xbed9a43d	-0.42508116
140	0xbcd84e74	-0.026404597
141	0xbf16de15	-0.5893262
142	0xbed50fa3	-0.41613492
143	0x3d17fcde	0.037106387
144	0xbe6888fa	-0.22708502
145	0xbe2810e0	-0.16412687
146	0xbf112838	-0.56701994
147	0xbd95d17f	-0.07315349
148	0xbdea16a3	-0.11430099
149	0xbeb2ecce	-0.34946293
150	0xbe05834c	-0.13038367
151	0x3e0d522b	0.13800876
152	0xbebc9a51	-0.36836484
153	0xbcf61941	-0.030041339
154	0xbe882d8c	-0.2659725
155	0xbf368b08	-0.71305895
156	0x3e60df82	0.21960261
157	0xbe563a1b	-0.20920603
158	0xbe2a0d55	-0.16606648
159	0xbedd433f	-0.43215367
160	0xbdafa96a	-0.08577235
161	0x3d55cbdc	0.05219637
162	0xbf236503	-0.63826007
163	0xbf003e82	-0.5009538
164	0xbeab99c7	-0.3351576
165	0xbed8861d	-0.4228982
166	0xbed734de	-0.42032522
167	0xbf204e04	-0.6261904
168	0xbe52c277	-0.20581995
169	0xbe0e9d0f	-0.139271
170	0x3f2ed57e	0.68294513
171	0xbded3047	-0.11581474
172	0xbeb62e14	-0.3558203
173	0xbe8c3c10	-0.27389574
174	0x3e734317	0.23756061
175	0xbe8225ef	-0.25419566
176	0xb9d674ae	-0.00040904194
177	0xbedc5433	-0.4303299
178	0xbf27cfc4	-0.655514
179	0x3d92af55	0.07162348
180	0x3d366d87	0.044538047
181	0xbf1bd3d5	-0.60870105
182	0xbdb67667	-0.08909302
183	0xbe3de99e	-0.18546149
184	0xbf09625a	-0.536657
185	0xbf00c492	-0.5029994
186	0xbda1a01a	-0.07891865
187	0xbdb766a6	-0.089551255
188	0xbe4b80a0	-0.19873285
189	0xbeb5d7aa	-0.355161
190	0xbf086082	-0.5327226
191	0xbdb6f0ef	-0.08932673
192	0xbe25cd28	-0.16191542
193	0xbb31dfaf	-0.0027141382
194	0xbe3216d8	-0.17391527
195	0xbcb18a53	-0.021672403
196	0xbf00ff64	-0.50389695
197	0xbee7934d	-0.4522957
198	0xbef7fc7b	-0.48434815
199	0xbd97e08b	-0.07415875
200	0xbd442c62	-0.04789389
201	0x3d559385	0.05214264
202	0xbd7c083d	-0.061531294
203	0x3c004091	0.007827894
204	0xbe835b42	-0.25655562
205	0xbd7072c5	-0.058703203
206	0x3dfee64e	0.12446271
207	0xbecd7ab3	-0.40132675
208	0xbec85841	-0.39129832
209	0xbe20c326	-0.15699443
210	0xbe8ce48e	-0.27518123
211	0xbef1caab	-0.47224936
212	0x3b07249e	0.002062119
213	0xbe24237f	-0.16029166
214	0xbe830c6b	-0.25595412
215	0xbe28e374	-0.16493016
216	0xbdacd9f3	-0.08440008
217	0xbd9fee8d	-0.07809172
218	0x3e9dcc72	0.30820042
219	0xbe84ea15	-0.2595984
220	0x3e63843c	0.22218412
221	0xbe867558	-0.262614
222	0xbdf4f5f8	-0.11960977
223	0xbebc3082	-0.3675576
224	0xbe1a6032	-0.15075758
225	0xbee13338	-0.4398439
226	0xbea3d869	-0.32001045
227	0xbeb1571f	-0.3463678
228	0xbb81b206	-0.0039579896
229	0xbe836a68	-0.2566712
230	0xbe01e97b	-0.12686722
231	0xbccc7f10	-0.024962932
232	0xbe5784cb	-0.2104675
233	0xbe66c127	-0.2253462
234	0xbdd43cb0	-0.10363138
235	0xbe35054f	-0.17677806
236	0xbf00f55f	-0.50374407
237	0xbdaffa56	-0.0859267
238	0x3e072405	0.13197334
239	0x3d88fc1c	0.06688711
240	0xbe18118b	-0.14850442
241	0xbde2e2ae	-0.11078392
242	0xbe85a133	-0.26099548
243	0xba7faf64	-0.0009753613
244	0xbe0fa86f	-0.14029096
245	0x3ea12bd6	0.31478757
246	0xbe8cfc9d	-0.2753648
247	0xbf23a9c7	-0.63930935
248	0xbe7bfed7	-0.24608932
249	0xbe32a7c1	-0.17446806
250	0xbebfc7f8	-0.37457252
251	0xbf498268	-0.7871461
252	0xbeb35a8c	-0.3503002
253	0xbdbf848b	-0.093514524
254	0xbd132ea7	-0.035933163
255	0xbec6a0ed	-0.38794652

fc2.weight f4 [128, 260]
0	0xbe8794e3	-0.2648078
1	0xbdcce81c	-0.10005209
2	0xbe88434f	-0.26613852
3	0xbeb2a7f2	-0.34893757
4	0x3dff3ddc	0.124629706
5	0x3bdba8a5	0.0067034536
6	0x3dfaa380	0.122382164
7	0xbdba97c0	-0.09110975
8	0x3ccc5c04	0.02494622
9	0xbc96f711	-0.018428357
10	0xbc6493ae	-0.013951225
11	0xbe6a8719	-0.22903098
12	0xbdafbcd4	-0.08580938
13	0xbda796ee	-0.081830844
14	0xbe782bd3	-0.24235468
15	0xbedab219	-0.42714003
16	0xbeccda21	-0.4001017
17	0xbd4591c2	-0.04823471
18	0xbe115e47	-0.1419612
19	0xbeb77521	-0.3583155
20	0xbe72220a	-0.23645797
21	0xbf27c13e	-0.6552924
22	0xbe2ba607	-0.16762553
23	0x3dcb444f	0.09925138
24	0x3e13fc53	0.14451723
25	0x3d483f4a	0.048888482
26	0x3e1be63f	0.1522455
27	0xbde86972	-0.11348237
28	0x3dba8149	0.091066904
29	0xbdadbac4	-0.08482888
30	0xbe846092	-0.25854927
31	0x3d85bb79	0.06529898
32	0xbddc5276	-0.10757916
33	0xbe536f41	-0.20647909
34	0x3e466dc6	0.19377813
35	0x3dfb9ea3	0.12286117
36	0xbd5f8000	-0.05456543
37	0x3d845a51	0.06462539
38	0x3d9226dc	0.07136318
39	0xbe4de5fa	-0.2010726
40	0xbde5fb46	-0.11229567
41	0xbe3369fc	-0.17520899
42	0xbd445ca5	-0.047939915
43	0x3ea36372	0.31911808
44	0xbeaab906	-0.33344287
45	0xbe0208c5	-0.12698658
46	0x3d70e510	0.0588122
47	0x3db08a70	0.08620155
48	0x3dff6ae1	0.124715574
49	0xbd44b8f8	-0.048027962
50	0x3e09859a	0.13429871
51	0x3d9dbf79	0.07702536
52	0xbdf77d80	-0.12084484
53	0xbf443129	-0.7663751
54	0x3d585413	0.052814554
55	0xbefdb2ad	-0.4955038
56	0xbea7d541	-0.32779887
57	0xbd4dc0e4	-0.050232783
58	0x3e43267d	0.19057651
59	0xbec3923e	-0.3819751
60	0xbe5b60ee	-0.21423694
61	0xbdf74af8	-0.12074846
62	0x3b5fc35a	0.0034143538
63	0x3d40513d	0.046952475
64	0xbe28b87d	-0.16476627
65	0x3d633ee5	0.055479903
66	0xbd902209	-0.07037742
67	0xbee13ce4	-0.43991768
68	0xbca4412d	-0.02005061
69	0xbdc34c87	-0.09536081
70	0xbdc0501f	-0.09390282
71	0x3da9c91b	0.08290311
72	0x3c23bd3b	0.0099938465
73	0xbda46200	-0.080265045
74	0xbdcde463	-0.10053327
75	0xbbc74985	-0.0060817623
76	0xbeaa0802	-0.33209234
77	0xbd93383a	-0.07188459
78	0xbd088c77	-0.033337083
79	0x3d4541e0	0.048158526
80	0xbd3b9d3e	-0.045804255
81	0xbe65eb1b	-0.22452967
82	0xbce3a592	-0.027788911
83	0xbe33e58a	-0.17568031
84	0x3d1885ea	0.037237085
85	0xbda90e36	-0.08254664
86	0xbd11e57c	-0.035619244
87	0x3d7d0e83	0.061781418
88	0x3d722d2f	0.05912512
89	0x3dc1ba04	0.09459308
90	0xbebe3295	-0.37147966
91	0xbd7c2922	-0.061562665
92	0xbcec6c5d	-0.028860265
93	0xbd208752	-0.03919155
94	0xbec74205	-0.38917556
95	0xbea235a2	-0.31681544
96	0xbd835fd8	-0.06414765
97	0x3e648345	0.223157
98	0xbbeee961	-0.0072910045
99	0xbea50823	-0.3223277
100	0xbd41d35c	-0.04732071
101	0xbe103322	-0.14082006
102	0xbd4cb6a9	-0.049978886
103	0xbc8f68ec	-0.017506085
104	0xbea6e24a	-0.3259452
105	0xbcb7980c	-0.022411369
106	0x3e25d658	0.16195047
107	0xbe3f459f	-0.18678902
108	0xbec81f7f	-0.3908653
109	0xbda2f40a	-0.07956703
110	0xbdf5859a	-0.11988373
111	0xbd86b642	-0.06577732
112	0xbed8e33d	-0.4236087
113	0x3d84d6d1	0.064862855
114	0x3dafca7f	0.08583545
115	0x3e18f5fe	0.14937589
116	0x3b452fa3	0.0030088208
117	0xbed5d36f	-0.41762874
118	0xbd25ac58	-0.040447563
119	0x3ca5b3c1	0.020227315
120	0x3e053639	0.13008966
121	0x3e03e2eb	0.12879531
122	0x3e22bda3	0.15892653
123	0x3dcfd96d	0.101488926
124	0xbdca7263	-0.09885099
125	0xbd6d3d24	-0.057919636
126	0xbeb80f88	-0.3594935
127	0xbda67f86	-0.08129792
128	0xbe63c684	-0.22243696
129	0x3d816a43	0.06319096
130	0x3e1f9385	0.15583618
131	0xbdcbaaed	-0.09944711
132	0x3dc41877	0.09574979
133	0xbe3a0054	-0.18164188
134	0xbea47639	-0.32121447
135	0xbe02213f	-0.12707995
136	0xbee5a632	-0.4485336
137	0xbe83b7f4	-0.25726283
138	0x3e138c67	0.14409028
139	0xbea6a3b8	-0.32546782
140	0xbe72955a	-0.23689786
141	0xbdae5063	-0.08511426
142	0xbe0f953c	-0.14021772
143	0x3cb2c0d3	0.021820461
144	0xbdcde84f	-0.10054075
145	0x3db58da7	0.08864909
146	0xbe9bf503	-0.30460367
147	0xbea94aac	-0.33064783
148	0xbf2dff54	-0.67967725
149	0x3dc36cf6	0.09542267
150	0xbe1d50d2	-0.15362862
151	0xbe85c4d1	-0.26126722
152	0xbe847838	-0.2587297
153	0xbe9cd293	-0.30629405
154	0xbd545d90	-0.05184704
155	0x3d3c02bf	0.045901056
156	0xbe136d67	-0.14397202
157	0xbe8dc10c	-0.27686346
158	0xbdf7e60b	-0.12104424
159	0x3da0fe08	0.078609526
160	0x3e12d684	0.14339644
161	0xbdb4150c	-0.08793077
162	0x3be3cdab	0.0069520078
163	0xbd333bcf	-0.04375821
164	0x3cdbbdb8	0.026823863
165	0xbde82d0c	-0.11336717
166	0xbdf99739	-0.121870466
167	0xbc93e09a	-0.018051434
168	0xbe0c55db	-0.13704626
169	0xbe623ae5	-0.22092779
170	0xbe82bb1d	-0.2553338
171	0x3e3964fa	0.18104926
172	0xbf7539f6	-0.95791566
173	0xbe7f7f61	-0.24950935
174	0xbeac847b	-0.33694825
175	0xbba1425e	-0.0049212417
176	0x3e1a8a9c	0.15091938
177	0x3de42f28	0.11141807
178	0x3dddd6ed	0.108320095
179	0xbc6d54da	-0.014485562
180	0xbdad5933	-0.08464279
181	0xbd5f7939	-0.054558966
182	0xbdabc328	-0.083868325
183	0x3ea5ba00	0.3236847
184	0x3e5f2f65	0.21795423
185	0x3cffbad1	0.03121701
186	0xbeafb991	-0.34321263
187	0x3e4a7c37	0.19773947
188	0x3dc75788	0.09733492
189	0xbc8ba52a	-0.01704653
190	0x3d8e7cac	0.06957373
191	0x3d5f3586	0.054494403
192	0xbc965aa8	-0.018353775
193	0xbe58a5ef	-0.21157049
194	0xbee09f15	-0.4387137
195	0xbeb733cf	-0.35781714
196	0xbe582e21	-0.21111347
197	0xbe9b0bde	-0.3028249
198	0xbe8e7137	-0.2782075
199	0x3e2edd9d	0.17076726
200	0xbd98c44a	-0.07459314
201	0x3d12b3bc	0.03581594
202	0x3db8b398	0.0901863
203	0xbe0b74d7	-0.1361879
204	0xbc8272ef	-0.015923945
205	0xbe21e982	-0.15811732
206	0xbe4461a1	-0.19177867
207	0xbc9f8d1e	-0.01947647
208	0xbead3f3f	-0.33837315
209	0x3e5f8aa9	0.21830238
210	0x3eaef191	0.34168676
211	0xbd14ad04	-0.036297813
212	0xbde7a004	-0.113098174
213	0xbda5c11e	-0.08093475
214	0xbd811c09	-0.063041754
215	0x3d18c2b8	0.037295073
216	0x3c1c0f0a	0.00952507
217	0xbe2ccf79	-0.1687602
218	0xbd0a0310	-0.033694327
219	0x3dc25792	0.09489359
220	0xbe8f92f8	-0.28041816
221	0xbcb33dfa	-0.021880139
222	0xbf3b4650	-0.73154163
223	0xbdd9baf5	-0.10631362
224	0xbc17baa2	-0.009260805
225	0xbcfd05fa	-0.030886639
226	0xbdc2ad28	-0.09505683
227	0x3d855160	0.06509662
228	0xbec67c83	-0.3876687
229	0x3e1cdd28	0.1531874
230	0xbee92da5	-0.45542637
231	0x3c3f5e6d	0.011680228
232	0xbe9a3604	-0.30119336
233	0xbd8486f0	-0.0647105
234	0x3d80ccdb	0.06289073
235	0xbd7676c0	-0.060171843
236	0xbc3edda3	-0.011649522
237	0x3ce7d467	0.028299524
238	0xbe110b87	-0.14164554
239	0xbb9f2351	-0.004856505
240	0x3c927458	0.017877743
241	0xbf347641	-0.7049294
242	0xbd4ecfa4	-0.05049099
243	0x3d81f809	0.06346137
244	0xbe52ed62	-0.20598367
245	0xbdd83a24	-0.105579644
246	0x3e558df8	0.20854938
247	0x3d81530b	0.06314667
248	0x3d6a2e5f	0.05717313
249	0x3e90d303	0.2828599
250	0x3dc6d7ef	0.09709155
251	0xbe58fc42	-0.21189979
252	0x3d93c893	0.07215991
253	0x3e2beeff	0.16790389
254	0xbccf39b2	-0.025296066
255	0x3b98999a	0.0046569826

fc2.bias f4 [128]
0	0xbe3d99d7	-0.18515716
1	0x3c9b4253	0.018952524
2	0x3da46c06	0.08028416
3	0xbf00dbd8	-0.50335455
4	0xbdbb40ae	-0.09143196
5	0xbdb9ca35	-0.09071771
6	0x3da31de9	0.07964689
7	0x3efb45e9	0.49076775
8	0xbb925757	-0.004465978
9	0xbe72ec1a	-0.23722878
10	0xbdd47c0e	-0.10375224
11	0x3ee5c6b8	0.44878173
12	0x3e9930e3	0.2992011
13	0xbd694b50	-0.05695659
14	0xbed7b1f4	-0.42127955
15	0x3d3d27ba	0.046180464
16	0xbed12ffb	-0.4085692
17	0xbdfd5f29	-0.12371666
18	0xbe524abb	-0.2053632
19	0x3d60e3cb	0.05490474
20	0xbf09270a	-0.53575194
21	0xbe8e79c8	-0.27827287
22	0xbe0ea9d0	-0.13931966
23	0xbe8eb862	-0.27875048
24	0xbd6892da	-0.056780674
25	0xbf1a84fd	-0.60359174
26	0xbd0019e4	-0.03127469
27	0xbdefd361	-0.11710239
28	0x3d0b3d7e	0.03399419
29	0x3e26a7ed	0.16274996
30	0xbf06cc08	-0.52655077
31	0x3ce3ae0c	0.027792953
32	0x3d761729	0.06008068
33	0xbde4f510	-0.111795545
34	0xbec22697	-0.37920067
35	0xbea34eb4	-0.31895983
36	0xbce60589	-0.028078811
37	0x3c161706	0.009160763
38	0xbe9faa17	-0.31184456
39	0xbee3fc2f	-0.44528338
40	0xbe65707d	-0.22406192
41	0x3de6e6b2	0.112744704
42	0x3cf097a7	0.029369188
43	0xbf10769a	-0.5643097
44	0xbe016801	-0.1263733
45	0xbe8998a5	-0.2687427
46	0xbd21cd23	-0.039502274
47	0x3e31d023	0.17364554
48	0xbea4c4fb	-0.32181534
49	0xbe166a8d	-0.14689083
50	0x3f884535	1.064612
51	0xbf05aca9	-0.52216583
52	0xbf17f266	-0.59354246
53	0xbe9f1ad9	-0.3107517
54	0x3ec78261	0.3896666
55	0xbed4e5a6	-0.41581458
56	0xbe998836	-0.29986733
57	0xbecf49b3	-0.40485916
58	0xbe9e827f	-0.30958936
59	0xbeb18a3a	-0.3467577
60	0x3ed11a9e	0.4084062
61	0xbebd873c	-0.37017238
62	0x3d8fdd4f	0.07024633
63	0x3dbd8455	0.09253756
64	0xbf30d0a1	-0.6906834
65	0xbcf20c41	-0.029546859
66	0xbd6d66a3	-0.05795921
67	0xbe82db73	-0.2555805
68	0xbdedcf07	-0.11611753
69	0x3cb00c24	0.021490164
70	0xbec5c6aa	-0.3862813
71	0xbf94df8d	-1.1630722
72	0xbe82dec4	-0.25560582
73	0x3c897f93	0.016784465
74	0xbf74be10	-0.9560251
75	0xbea7aa38	-0.32747054
76	0xbea1fc31	-0.3163772
77	0xbd86c138	-0.06579822
78	0x3e80bd35	0.25144354
79	0x3e99005d	0.2988309
80	0xbf22939d	-0.6350649
81	0x3eafc772	0.34331852
82	0xbe344b7d	-0.17606921
83	0xbc642af1	-0.013926254
84	0x3ed9c754	0.42534888
85	0x3d672fd1	0.056442086
86	0xbeba6843	-0.3640767
87	0xbe0746a5	-0.13210543
88	0xbeaed310	-0.34145403
89	0xbf5a5ca9	-0.8529764
90	0xbf014ca3	-0.50507563
91	0xbd582fa9	-0.052779827
92	0xbe45c3dd	-0.19312997
93	0x3da623d0	0.081122994
94	0xbdd3248b	-0.103097044
95	0x3d33fc9f	0.04394209
96	0xbb8b5914	-0.0042525623
97	0xbea8be56	-0.32957715
98	0xbf09b6e9	-0.53794724
99	0xbe8d571f	-0.2760553
100	0xbdd32de7	-0.103114896
101	0xbbbffcf7	-0.005859013
102	0xbf014c9e	-0.50507534
103	0x3eeab17c	0.45838535
104	0xbea5ce15	-0.3238379
105	0xbe749586	-0.23885164
106	0xbe6e46e6	-0.23269233
107	0x3d089152	0.033341713
108	0xbec2a4a1	-0.38016227
109	0xbe85286a	-0.26007396
110	0xbda454f0	-0.08024013
111	0x3e721952	0.23642471
112	0xbe1e3c87	-0.15452777
113	0x3e94ff90	0.2910123
114	0x3e76c470	0.24098372
115	0x3e358087	0.1772481
116	0xbd1a13fe	-0.037616722
117	0xbe36f9c7	-0.1786872
118	0xbef865e9	-0.4851525
119	0x3dd3555a	0.10319014
120	0xbe1abca7	-0.15111028
121	0xbe0b55c5	-0.13606937
122	0xbe87cf42	-0.26525313
123	0x3f3a5ad4	0.7279484
124	0xbf27303d	-0.6530798
125	0x3e378148	0.1792041
126	0x3daf3d79	0.08556647
127	0x3c339628	0.010961093

fc3.weight f4 [1, 128]
0	0xbc37b982	-0.011213662
1	0x3c7cdd5b	0.015433635
2	0x3c18c392	0.009323971
3	0xbc45bf81	-0.012069584
4	0x3c579e7e	0.013160346
5	0xbc9c9d49	-0.019117968
6	0x3c92ba5f	0.017911134
7	0x3c2e9309	0.010655173
8	0x3c3f46eb	0.011674623
9	0xbcccd2c7	-0.02500285
10	0xbc633e6e	-0.013869865
11	0xbb9817fb	-0.0046415306
12	0x3c39c365	0.01133809
13	0xbc647fac	-0.013946455
14	0xbc1b0a0e	-0.009462846
15	0x3c5623ad	0.013070029
16	0xbb894b4f	-0.0041898857
17	0x3ca69124	0.02033288
18	0xbd489072	-0.04896588
19	0xbc1f9830	-0.009740874
20	0xbc26cc53	-0.010180551
21	0xbc887621	-0.01665789
22	0x3c90bd1e	0.017668303
23	0xbd2d5c45	-0.042324323
24	0x3d12e8e2	0.035866626
25	0xbc8db5d0	-0.017298609
26	0xbbacd06c	-0.0052738693
27	0x3c707145	0.014675443
28	0xbc5be540	-0.013421357
29	0x3c1769c2	0.009241523
30	0xbc8ddb79	-0.017316567
31	0x3c64257a	0.013924951
32	0x3c3d74e4	0.011563513
33	0x3c3abc65	0.011397456
34	0xbb24f287	-0.0025168972
35	0xbc52cb19	-0.012865805
36	0xbc3c8093	-0.011505264
37	0x3b3b57e4	0.0028586322
38	0xbc0cbf9d	-0.008590606
39	0xbc0bf3c6	-0.008542007
40	0x3ca14f37	0.019691093
41	0x3c67967b	0.014134998
42	0x3be5a0b6	0.0070076836
43	0xbc3905b8	-0.011292867
44	0xb92f2141	-0.00016701689
45	0xbbfc91df	-0.007707819
46	0x3c807601	0.015681269
47	0x3c210a95	0.009829183
48	0xbc2d73fc	-0.010586735
49	0xbc2b4887	-0.010454304
50	0x3c66a6a2	0.014077814
51	0xbc168039	-0.009185844
52	0xbc2a32c4	-0.01038808
53	0xbc562a0f	-0.013071551
54	0x3c04bd75	0.008101811
55	0xbc24534f	-0.010029628
56	0xbc24bea4	-0.010055218
57	0xbc6dc18d	-0.014511478
58	0xbbb33b92	-0.005469748
59	0xbb7d774b	-0.003867584
60	0x3bb750b1	0.005594336
61	0xbc5dad64	-0.013530109
62	0x3c8bfd01	0.017088415
63	0x3c6d4dd1	0.014483885
64	0xbc252131	-0.010078714
65	0x3c568c4f	0.013094976
66	0x3be3150a	0.0069299983
67	0x3c2bdc74	0.010489572
68	0x3b5e1803	0.0033888824
69	0xbca72687	-0.020404113
70	0xbc338037	-0.010955862
71	0xbc338197	-0.01095619
72	0xbbd8e355	-0.006618897
73	0x3bb274fa	0.0054460736
74	0xbc26ffb6	-0.010192802
75	0xbc923374	-0.0178468
76	0xbbc8b2bc	-0.0061248224
77	0xbc7cc5e1	-0.015428037
78	0xbb87ebde	-0.0041479906
79	0x3c454416	0.012040159
80	0xbbd72faf	-0.0065669636
81	0x3c163359	0.009167516
82	0xbbe4f487	-0.0069871577
83	0xbc0de9c5	-0.008661692
84	0x3c460374	0.012085784
85	0x3c15b4aa	0.009137312
86	0xbc42399a	-0.011854554
87	0xbc53c6f5	-0.012925853
88	0xbc37a7c8	-0.011209436
89	0xbc1756ee	-0.009237034
90	0xbc1f2ae8	-0.0097148195
91	0x3c573358	0.0131348
92	0xbb7160aa	-0.0036831298
93	0x3c9092d5	0.01764814
94	0xbc7f4e9b	-0.015582706
95	0xbb9e69bb	-0.0048343814
96	0x3c474b09	0.012163886
97	0xbc63a8ee	-0.013895256
98	0xbc62a50d	-0.0138332965
99	0xbc4c8207	-0.012482173
100	0x3cd9f64b	0.0266067
101	0x3bc38947	0.0059672925
102	0xbc28670c	-0.010278475
103	0x3bcc0235	0.006225849
104	0xbc550efc	-0.013004061
105	0xbbfb9007	-0.0076770815
106	0xbc03fbd8	-0.00805565
107	0x3cbc2d15	0.022970716
108	0xbc232adb	-0.009958948
109	0xbbedf44c	-0.0072617885
110	0xbbb85dd3	-0.005626419
111	0x3c37400b	0.011184703
112	0xbd02dcf9	-0.031949017
113	0x3c0ac316	0.008469364
114	0x3c3249dd	0.010881868
115	0x3c32e816	0.010919591
116	0xbc955b71	-0.01823208
117	0x3c3d5a98	0.011557244
118	0xbbd997e4	-0.006640421
119	0x3bca4b1c	0.0061735045
120	0xbc9d95c3	-0.019236451
121	0xbc44ee45	-0.0120196985
122	0xbc2aaa27	-0.010416544
123	0x3c0ab96b	0.008467059
124	0xbbe86116	-0.0070916517
125	0x3bb5fb62	0.005553649
126	0x3cbb9933	0.0229002
127	0x3c3884c7	0.011262125
