agent_critic_checkpoint_1_2.pth (torch_old, 185318 bytes, 5 tensors)

fcs1.weight f4 [256, 48]
00000000: d7e2 1e3e 2270 563f abff 9dbb d4ac 5fbd
00000010: 2777 03be 0dde c1be 91e3 9cbc bb72 68bd
00000020: 86e7 923d ca19 503f 25fe 52bd 2f43 0f3e
00000030: bc7c 7dbe e002 babe a364 363d 7739 393e
00000040: 52b6 103e 2240 5e3f 0efd e0bd 0ebc e83d
00000050: 0c30 2bbc 3954 c1be 196f 69bd e13d ff3d
00000060: 7fea 4cbd 3fd9 e7bc 968c 203c 533b ccbd
00000070: 2a0d 3d3e cca9 a2be 4f3c 03bd c50f 1bbc
00000080: b1f1 3abe 1a15 17be 8d4c 0cbd f77b af3c
00000090: f377 6c3e 1a06 9ebe 06e5 a5bc 7a65 a53d
000000a0: 489a 8bbd cabc b7be 2fbd 06bd 7fe3 823e
000000b0: 2512 cbbd 43cd e5be be8f 8cbd 5e31 373e
000000c0: 9d72 9c3d 6979 cd3d 15ee c8bb 3974 a5bc
000000d0: 2d4d 6c3e 4674 a5bd 29fa 88bc 3bcb 813d
000000e0: cf97 f33d b513 163e 9e03 a63c 39fc 5bbc
000000f0: d75a c53d ba1e febe f9cd c8bc b8b1 4dbd
00000100: c518 533e d0f8 163e 7158 12bd ea7f e83d
00000110: 25ff d4be d28d 06be 39ae b33c 64f1 503d
00000120: d38d c6bd 2620 52bd 134e d0bc c47e 423f
00000130: 2650 76be b8bc f0bc 4548 39bd 27f3 4b3f
00000140: 7ae8 01bd d602 203f bff6 863b bef8 663c
00000150: 05ca 68bd dbef 03bf ef3d e0bc 9981 65bc
00000160: 7382 aa3d 6c5d 263f 89af 743d a089 53bf
00000170: 0bbf cc3e 8059 cdbd f848 30bd 382e 5abf
00000180: 851f f83d 8993 433f dfe8 adbc 87c4 913e
00000190: ddd5 493e b59f 023e 241d 413d 2388 833e
000001a0: 87ee 843e 5b8c 633f 04e3 44bd 27b2 b23d
000001b0: 9d83 b03c dfee 00be 1c9c 1c3d 7045 fb3c
000001c0: 24c9 a43e d9b2 863f cc7c 2abd a943 923e
000001d0: f553 79be 0e9d 06be d429 61bd 24cf 743e
000001e0: f66c 4bbd 0ca4 483e a967 27bd 1d4f 033e
000001f0: b791 39be 2d8d 2b3e 3320 5c3d 5d6f 803d
00000200: 9db0 b4bc 919a ac3e 337f e8bc ccef 793d
00000210: 5b4e 67bc 436e edbd 9e2f 6b3b 6581 bb3d
00000220: 1d18 983d a51a f33e c0ea 31bd fcca ae3e
00000230: eace 873e 185c a1bd bf61 f7bb 3deb bd3e
00000240: ba9e 7bbc 6762 223f a10e ecbd 7af4 3a3e
00000250: e8cd 993d 709e 72be eb92 cdbd 0c08 c73d
00000260: e444 f13c b2ac 293f ed42 4a3d f5c8 a63e
00000270: 92ef 0e3c 4436 00bf 20c5 f83c 63ba aa3e
00000280: 0cdb 963d 640c 073f 3fe6 98bd 5e7e efbe
00000290: 02bd 21bd c84d b8be cf1e cebd 272a 08bf
000002a0: c884 e43e 9282 263e a299 b3bd e194 a8be
000002b0: cea6 d3bd dcc7 54be 24ae c3bd f89e 8abe
000002c0: 94db cd3e 14c8 273e 2398 9dbd 0bd3 4f3e
000002d0: 6ad0 d33c 5e99 d1be 2eb9 5cbd 5a8d 153e
000002e0: 13af d33e 2846 223e 811c aaba 1527 eebd
000002f0: cbbd 123e 1a16 aabe 9f9e b0bd 2c51 1cbe
00000300: 3ad8 0bbd 883d e83e 5ce7 8a3b f7fa 4d3e
00000310: 2509 ca3d ac2e 3fbe 8f86 383c 3a1e 213e
00000320: 4da3 183e 78cd 2a3f 440e b73a 4156 28be
00000330: 954e c53d dd35 a63d d30e a3bc 244f 32be
00000340: bd97 293e 783c 473f f2ff c4bb b536 5c3d
00000350: 9fc5 983d cc63 5e3e 3408 8dbc 784f 0b3c
00000360: b7c5 88bd 9700 5b3f 09ef 313c b6f2 d6bc
00000370: 5bac 6dbd 4b0b 0ebe 68c2 51bd f7e3 3dbd
00000380: 5bba 083e 80c6 803f ec2c 2abc f22e 70be
00000390: 053f e0bd 6afa 143d 29e4 01bd 4059 84be
000003a0: 9ff8 133e d569 383f 910d 95bc 3b7b d9be
000003b0: 1cca adbd d0aa 8b3e 44c7 0fbd 183a 08bf
000003c0: 21ae a0bd e47f 56be c536 7d3c 00cc 323d
000003d0: 12dd 5fbe a663 6ebd 51d3 183d 6474 dd3b
000003e0: fbe1 3d3d d0bc 3abe 40ca 8f3a 8766 42bd
000003f0: 2131 0ebe da3c c8be ee2a 84bb 9c60 69bd
0.1551622 0.8376485 -0.0048217378 -0.05460818 -0.12838422 -0.37864724 -0.01915148 -0.05675004
0.07173066 0.8128935 -0.051511902 0.13990472 -0.24754614 -0.36330318 0.04452957 0.18088327
0.1413205 0.8681661 -0.10985766 0.113639936 -0.010448467 -0.3775957 -0.056990717 0.12462974
-0.05002832 -0.028301833 0.009799143 -0.09972253 0.18462053 -0.3177017 -0.032039937 -0.009464209
-0.1825626 -0.14754143 -0.034252692 0.021421416 0.23092632 -0.3086403 -0.020250808 0.08075996
-0.06816536 -0.35886222 -0.032895263 0.2556419 -0.0991557 -0.44883165 -0.06863354 0.17889926
0.07639048 0.10032923 -0.006131897 -0.02019702 0.23076315 -0.08078818 -0.016720848 0.06337591
0.118941896 0.14655955 0.020265397 -0.013426834 0.09636467 -0.49632818 -0.024512278 -0.050218314
0.20614918 0.14743352 -0.035728876 0.11352523 -0.4160091 -0.13140038 0.021933662 0.051011458
-0.096950196 -0.05130019 -0.025427854 0.7597468 -0.24054012 -0.029386863 -0.045234937 0.79667896
-0.031715848 0.6250433 0.00411877 0.014097391 -0.056833286 -0.51537865 -0.027373282 -0.014007949
0.083256625 0.649863 0.059737716 -0.82631874 0.39989504 -0.100268364 -0.04303834 -0.85226774
0.12115387 0.76396996 -0.021229206 0.2847025 0.19710489 0.12756236 0.04714693 0.25689802
0.25963232 0.8888604 -0.04806806 0.08725386 0.021547133 -0.12591122 0.038234815 0.030672759
0.32184708 1.052333 -0.04162292 0.28567246 -0.24348433 -0.13145849 -0.05497153 0.23907143
-0.04966446 0.19593829 -0.040870342 0.12823148 -0.18121992 0.16753073 0.053741645 0.06271241
-0.022056872 0.33711675 -0.028380966 0.061019704 -0.0141178025 -0.115932964 0.0035886536 0.091555394
0.07426474 0.47481266 -0.043436766 0.3413924 0.2652505 -0.078788936 -0.007549494 0.37093535
-0.015357668 0.634314 -0.11526228 0.18257323 0.075099766 -0.23693252 -0.10037788 0.09718332
0.029451795 0.6627914 0.04938023 0.32575193 0.00872411 -0.500828 0.030367434 0.33345327
0.073659986 0.5275328 -0.07465791 -0.46776098 -0.039486893 -0.35996842 -0.1006447 -0.5318932
0.44632554 0.16260746 -0.087695375 -0.32926086 -0.1033455 -0.20779365 -0.09554699 -0.2707441
0.40206587 0.16384917 -0.076950334 0.2029535 0.025856216 -0.40937322 -0.05388754 0.14604703
0.4134451 0.15847075 -0.0012978466 -0.11628548 0.14330213 -0.33219987 -0.086240046 -0.1526534
-0.034141757 0.45359445 0.004239006 0.20115267 0.098650254 -0.18670148 0.01126255 0.15734187
0.14906044 0.6671977 0.0013966043 -0.16439153 0.09634129 0.08115742 -0.01990453 -0.17413002
0.1656179 0.77826643 -0.0060119564 0.05376311 0.07459568 0.21717757 -0.017215826 0.008502834
-0.06678336 0.85547775 0.010860213 -0.02623878 -0.0580257 -0.13871495 -0.05121079 -0.046359982
0.13352339 1.0060577 -0.010386687 -0.23455408 -0.1094952 0.036371626 -0.03171173 -0.25849342
0.1445031 0.72036487 -0.018194946 -0.4247683 -0.08485815 0.27278757 -0.035102144 -0.53213644
-0.078457125 -0.20947224 0.015454953 0.04365158 -0.21861675 -0.0582005 0.037310902 0.0067582596
0.04635809 -0.18236089 0.0010970309 -0.04746106 -0.13885929 -0.39108926 -0.004033438 -0.0569769

fcs1.bias f4 [256]
00000000: c811 07bf bd8b 64bf 20c1 54bf cf04 093e
00000010: 44cd cc3e 9b74 ffbe d661 27bf 08b1 f3be
00000020: da56 33bf 00df 6cbe 7b87 88bf 5fbb ffbd
00000030: 7ea6 303d 3ffe 493d abcb 03bf 7435 bbbe
00000040: 2523 e5be a689 babe a32a eebf 5e87 26bf
00000050: d9fa cdbe ea75 a9be ed63 27be 7e5c e9be
00000060: 7dc9 babe 082e 18bf 6d80 9ebe 4c52 a1bf
00000070: c3fa d7be f74c aebf fe05 6abf 9d75 043d
00000080: 4699 23bf 85f1 27bf e509 70be 88c3 9ebf
00000090: 91c4 16bf 1ad4 aabe df97 00bf d7b4 a4bd
000000a0: 91df d1be 6721 03bf c05a 21bf 42ef d6be
000000b0: 5560 b2bf 79b0 aabd 9279 fa3d 4db2 92bf
000000c0: ca47 acbe a9e1 66bf 8815 18bf f9dd 5fbf
000000d0: 9bd0 f8bd f9df 72be 248a 9bbe 32f2 3b3f
000000e0: 18ad 2cbf 8fe2 ffbe d79d a3bf 0106 2fbf
000000f0: 39e0 40bf 4032 6fbe d9db ffbe 8aa8 03be
00000100: 678c 1fbf 3344 773d 35fd 42be 36a9 21bf
00000110: b2fa 1cbf 6095 77be 4787 efbd 6a94 7fbf
00000120: 287a a7be 511c 133e f376 2b3e 1840 923e
00000130: 91e5 f5bd 3287 30bf 770c c33e 9d12 cfbe
00000140: 64cf aebe 6400 9c3d 1a82 f3be f285 43bf
00000150: bd58 febe cc8a 5fbe 69cf 87be 82d1 35bf
00000160: bf4c bdbd 28bc bebd f7a6 5fbf b7e1 93be
00000170: bbd6 99be 5b3b 93be c17c f7be f778 8dbd
00000180: 909e 01bf 068c dd3e 5d33 9abe 4974 a73e
00000190: 0f90 ffbe 3a41 b5bf 0083 52be 168e f63e
000001a0: e2c5 2e3d 132a dfbe 3d25 b9bb 42b2 2dbf
000001b0: 497c d3be 0aea 8bbe e5a0 95be c721 67bf
000001c0: 1af2 febe 38d6 fb3d 1a6a a6be 6e9d 37bf
000001d0: 644f d2bf fed5 b9bd 525a 23bf c5e4 41be
000001e0: fd8b 1ebf fcf1 47be 2e1e f9be b6b3 febe
000001f0: 9fbd 1abf 4843 d0be 1cd5 29bf 10b7 f8be
00000200: 8ef5 abbf 6437 08bf 36f7 4ebe a980 5bbf
00000210: 5369 f1be c492 eebe 8ce5 34bf 3868 f5bd
00000220: b9a5 54bf 2b6a c3be c294 fbbe c13c 86bf
00000230: 518a d8be 3546 6dbf af92 d5bd 1b0d 9bbe
00000240: 0a9c 18bf 1ab7 c1be 61a6 26bf 1a30 05bd
00000250: 9e7e 44bf 0910 58be 7014 b2be d811 6d3d
00000260: d8e2 e1be 4251 22be 32c7 77bf 7466 48bf
00000270: b804 10bf 4fdb 31bf 7eb6 15bf 6dae 38bf
00000280: ffa9 21bf 1fe2 dcbe 068f 85bf 164d 31bf
00000290: 523c 13bf d4aa 54bf 45da 00bf 8afd 86bf
000002a0: 7b77 fabe 5022 cfbe 447e 5c3f 9cf0 31bf
000002b0: 3b7f a3be 2a8c e4be 6a8c 77be 738f 9fbe
000002c0: ecc9 bebe b11c 5dbf 60bb 02bf f653 e3bd
000002d0: cad5 a8be 8d45 90bf 036c ffbe e711 e9be
000002e0: 22c1 6abf cd2f bbbe 147c afbe 0f43 11bf
000002f0: d86f 113e 1e45 43bf b046 5fbf fc71 19bf
00000300: 278a a6be 5873 f2be c759 09bf 21fd 5ebe
00000310: d68d 88bf 0b60 62bf 4fb3 32bf dda3 17bf
00000320: f019 283c 0d01 e1bd 42dd f9be d6b5 b3be
00000330: 4598 06bf 8255 debe d0e9 38be aae5 a0bf
00000340: 7bc2 74bf 3b5c 11bf a293 09bf c6e8 39bf
00000350: aa10 01bf 7228 a4be 6ff7 083f 18d0 303f
00000360: 2774 cdbe f8b8 b9be 0f2d 9fbd 3692 f8be
00000370: f5e6 d93c c263 2bbf 3ffd 9fbe 8877 e3be
00000380: 19c6 9bbe a4b4 aebe ae70 0abf 98c1 c8be
00000390: 7b21 26bf 216d 6cbf dab0 2dbe 9ff6 8bbe
000003a0: 71b0 edbe 801f d0be 4b5b 0dbf 5671 0cbf
000003b0: 1c9f 6bbf a4da 23bf d23b dfbd 431f 83bd
000003c0: c47d b5be 2d67 33bf 0c96 04bf 74a2 19be
000003d0: 974c e9be d3f1 2b3e 0e7b 3bbf 44a7 61bf
000003e0: 2b55 45bf c4a5 33be a760 61bf 9c89 4dbf
000003f0: b100 8cbe 46f1 b6be fdfc b7be e7f7 0dbf
-0.5276151 -0.89275724 -0.83107185 0.1338074 0.40000355 -0.4989365 -0.6538366 -0.47596002
-0.700544 -0.23131943 -1.0666345 -0.1248691 0.04312753 0.049314734 -0.5148265 -0.3656422
-0.44753376 -0.36433142 -1.8606762 -0.65050304 -0.40230444 -0.33097774 -0.16346712 -0.45578378
-0.36481848 -0.5944524 -0.30957356 -1.260324 -0.42183504 -1.3617238 -0.91415393 0.032338727
-0.6390575 -0.65602905 -0.23441274 -1.2403421 -0.58893687 -0.33364946 -0.50231737 -0.08042305
-0.4099088 -0.5122284 -0.630291 -0.41979414 -1.3935648 -0.08334441 0.12230219 -1.1460663
-0.3364852 -0.9018808 -0.59407854 -0.8744808 -0.12149163 -0.23718251 -0.3037883 0.73416436
-0.6745162 -0.49977538 -1.2782544 -0.68368536 -0.75342137 -0.23359013 -0.49972418 -0.12857261
-0.6232361 0.060367774 -0.19041903 -0.6314882 -0.6132003 -0.24178076 -0.11695724 -0.99835837
-0.32710385 0.1436627 0.16744594 0.28564525 -0.12006677 -0.6895629 0.38095447 -0.40443888
-0.341426 0.07617262 -0.47560197 -0.7637626 -0.49677077 -0.2183029 -0.2652543 -0.7102281
-0.09243154 -0.09313232 -0.87364143 -0.28883144 -0.3004664 -0.28756222 -0.48337367 -0.06907838
-0.5063257 0.43270892 -0.30117312 0.32705906 -0.49914595 -1.416053 -0.20557785 0.48155278
0.042669185 -0.43586788 -0.005650191 -0.67850125 -0.4130576 -0.27326995 -0.29224315 -0.90285915
-0.49794084 0.12296718 -0.32502824 -0.71724594 -1.6430478 -0.09074019 -0.6380969 -0.18934925
-0.61932355 -0.19525903 -0.48655838 -0.49746484 -0.6044559 -0.40676332 -0.66340804 -0.48577166
-1.3434312 -0.5320952 -0.20211491 -0.85743195 -0.47150669 -0.46596348 -0.7066276 -0.11982769
-0.8306537 -0.38166937 -0.4913693 -1.0487291 -0.42293027 -0.9268525 -0.10428368 -0.30283436
-0.59613097 -0.37835008 -0.65097624 -0.032516576 -0.767557 -0.21099867 -0.34781218 0.057878345
-0.4411838 -0.1585131 -0.9678832 -0.7828133 -0.562572 -0.69475263 -0.58481586 -0.7214115
-0.6315002 -0.43141267 -1.0434272 -0.6925825 -0.57513916 -0.83073163 -0.5033305 -1.0546124
-0.4891928 -0.40455866 0.86130166 -0.69507766 -0.31933007 -0.44638187 -0.24174657 -0.3116413
-0.3726343 -0.86371905 -0.5106716 -0.11099999 -0.32975608 -1.1271225 -0.49887094 -0.4552147
-0.9170095 -0.36559907 -0.34274352 -0.5674295 0.14202821 -0.7627734 -0.87217236 -0.5993955
-0.32527277 -0.47353625 -0.53652614 -0.21776249 -1.0668285 -0.884278 -0.69804853 -0.5923441
0.01026009 -0.109865285 -0.4880162 -0.35099667 -0.52576095 -0.43424612 -0.18057942 -1.2570088
-0.95609254 -0.5678136 -0.53740895 -0.7262081 -0.5041605 -0.32062107 0.53502554 0.69067526
-0.4012768 -0.36273932 -0.07772266 -0.4854905 0.026599387 -0.66949093 -0.312479 -0.44427133
-0.30424574 -0.34122193 -0.54078186 -0.392102 -0.6489484 -0.9235402 -0.16961995 -0.27336594
-0.46423677 -0.40649033 -0.55217427 -0.54860437 -0.92039657 -0.64005494 -0.10900082 -0.06402447
-0.35447514 -0.7007931 -0.51791453 -0.15003377 -0.45566246 0.16791467 -0.7323464 -0.8814585
-0.7708308 -0.17543703 -0.88038105 -0.802881 -0.27344278 -0.35730952 -0.35935202 -0.55456394

fc2.weight f4 [128, 260]
00000000: db82 9fbe 53ed 19bc e9a5 65be 2c27 7bbe
00000010: b65b e03d 69c7 db3d 04f2 62ba a75c 633e
00000020: cc40 5dbe 35b8 f43d 07fc 363e 14c9 ea3c
00000030: 429b 66be 63be 0abe 1734 683e 4fcb a8bc
00000040: 04da 4a3d 2682 6b3d 0c27 dbbe 98b0 4f3c
00000050: d324 01bf 0e89 be3d 6be3 e03b 4227 94be
00000060: 8b4b a0be 78ef 973c 8896 253e 1958 14be
00000070: 7bbc 3c3c acf0 a83c fb7b 183b d983 683e
00000080: dfbc 00bf 3469 0cbf e6ae 39bd d19d 29be
00000090: 098b 953c f5f3 84bd 9220 9cbe c218 febc
000000a0: e1d0 e13d a6a0 9bbe 5a75 8fbc 3e98 5f3d
000000b0: 3953 1dbd 7e4e 023e 1ad7 513c f5c0 d83b
000000c0: 4668 35be 814b 0fbe 33f9 19bf f4d5 d23d
000000d0: d5b5 30bd 092f 463e 3332 95bd 4cee 96bf
000000e0: 79da 55bd 4751 0abe a308 85be 1c67 b4bd
000000f0: c44c 113e ac67 6cbc 2089 313e 0225 1fbf
00000100: eae4 b03c 666e 0abe 2201 b9bd f65a 503e
00000110: adc0 f2be 4191 143e d546 6bbe 4426 873e
00000120: f6ef 643e 15aa dbbc 9e56 68bd 80b2 0abe
00000130: 0934 20bd fbff 44bd 7572 f7be 5205 0cbd
00000140: 6314 653d 07a8 5abe 960f a9bd 01cb 323d
00000150: 84a8 343d 4516 e1bd cd63 2bbd 25e6 743c
00000160: d43d 4abe 5460 fcbe 97c2 b8be 67df a13e
00000170: 98f9 c6bd 88ea 883d 03d5 b43b 5b12 3fbd
00000180: 9d5f 1e3d 92d9 243d 0f65 673c 13fa 13bc
00000190: b279 11bf 2f97 82bf 5370 3f3c 39e2 ccbd
000001a0: 1981 73be 8eba 3abe 2c5e bfbd 4a1c 0ebd
000001b0: 7c4d e13d 86ba 29bd e483 cbba b46b 36be
000001c0: f75e 53bf 05b0 a0bf 3afe 953e b205 953d
000001d0: 72ec d0bb 55cd 3fbd 3b15 953a 8717 783e
000001e0: 1465 3fbe 84e5 0b3e 03c0 273e cc17 f8bd
000001f0: 14cc 8bbe a94b 89be c420 9abd 022c 19bf
00000200: 8c60 9a3d ee8f 323c db1d 33bb ab06 3d3d
00000210: b014 263c be5b 1b3d fe89 c8bc 298d 78bd
00000220: f81f 00be 5d12 383d fb9d 2d3d 2cc1 b3bb
00000230: 7293 4dbe 70c9 83bf 500b efbc f7f4 95bb
00000240: 8a4a ff3c 1030 2b3e de91 f53c fdc2 87bd
00000250: e364 a9bd 3555 6abf 24e2 e9be 4e5d dfbe
00000260: 4cb6 db3d 561b 303e 60c3 6b3d 76e7 bb3d
00000270: e207 2bbd 9bad 24be a8b0 f6bb ff13 f23d
00000280: ed72 e3bc 323b 31be 921c b5bc f78f 38bf
00000290: a027 ffbc 9dd2 dabd 62c6 883d ffe7 91bc
000002a0: 8bd5 cdbd 3975 623d 4c19 713e 0dff 823d
000002b0: 29be 573e 6fc1 27bf 4296 bab9 ed1d 9d3d
000002c0: 75ea 233d 1f37 10be 1e1a 2e3d 5849 a1bd
000002d0: ba97 483d 4b19 46be add5 fe3d 10fd 1cbe
000002e0: fd2e c13d e11d 61be b8a8 633e 4787 51bd
000002f0: 9a3c 833e b6b9 8abe 86f8 dcbd d85f 5bbd
00000300: 1494 26be c8e0 19bf 115e f4bc 2bcb 55bd
00000310: 800d 6d3e 6047 8c3e 6311 b7bc a150 d6bc
00000320: 816a 193e a9fa 1f3b c865 c6bd dd79 ae3d
00000330: 47e9 89be ecf0 b0bd ae63 673d e3de 02bd
00000340: e6bf 87bc 42a5 1a3d 64b9 92bd 4b91 20bd
00000350: cbc1 9e3e ca72 92be 2c74 69bc d5f8 85be
00000360: 6bc6 003e 944c afbd f4b1 c2be 90ac d3be
00000370: cf2e 1cbd 55dd b03d 5f61 02be b7c4 1ebf
00000380: a72d d7be edc6 1fbc 3cbf 35be 1d4d 45bd
00000390: 563e 40bb 954e 27be 3ca1 073e 530e 863c
000003a0: 3680 21be f996 82bd 93de 1e3d d5fa 03be
000003b0: 77c6 233e 8f3a cabe fc90 0ebe 7049 19bf
000003c0: 5ba7 1bbf 6cd9 053d 35ca 2bbe 5f84 51bc
000003d0: 3f94 17be fb20 89be 364b 03be 8a8c 7d3d
000003e0: 1499 c9be 7094 043e 9b0c 43bf c928 8fbd
000003f0: 35f0 943d 1f68 79bd d29a cc3c a711 ad3d
-0.31154522 -0.009394961 -0.22426571 -0.24526662 0.109549925 0.10731394 -0.0008657279 0.22203313
-0.2160675 0.11949197 0.17869578 0.028660335 -0.22520164 -0.1354919 0.2267612 -0.020604758
0.049524322 0.057497166 -0.42803228 0.012676381 -0.50446814 0.09303485 0.006863048 -0.289362
-0.31307635 0.018546805 0.16170704 -0.14486732 0.011519547 0.020622574 0.0023267257 0.22706546
-0.50288194 -0.5484803 -0.04533281 -0.16564108 0.018254774 -0.064918436 -0.304936 -0.031017665
0.110261686 -0.30396003 -0.017512012 0.05458855 -0.038409445 0.12725255 0.012807632 0.006614799
-0.17715558 -0.13993646 -0.6014587 0.102947146 -0.04314216 0.1935388 -0.07284965 -1.1791472
-0.052210305 -0.13507567 -0.25983152 -0.08808729 0.1418944 -0.014429014 0.17337465 -0.62165844
0.02159353 -0.13518676 -0.09033419 0.20347199 -0.47412625 0.14508535 -0.22976239 0.26396382
0.22357163 -0.0268145 -0.05672323 -0.13544655 -0.039112125 -0.048095684 -0.4832951 -0.03418476
0.055927645 -0.2135316 -0.08254926 0.04365063 0.04410602 -0.10990576 -0.041843224 0.014947449
-0.19750148 -0.49292243 -0.3608596 0.31615755 -0.09715575 0.06685358 0.005518557 -0.046648365
0.038665403 0.040246554 0.014123215 -0.00903179 -0.5682632 -1.0202388 0.011684495 -0.10004086
-0.23779716 -0.18235227 -0.09344134 -0.034694947 0.11001107 -0.04143765 -0.0015526977 -0.17814523
-0.8256678 -1.2553717 0.29295522 0.07276477 -0.0063758427 -0.04682668 0.0011374125 0.24227725
-0.18690902 0.13661772 0.1638184 -0.12113914 -0.27304137 -0.26815537 -0.07525781 -0.59832776
0.07537946 0.010898573 -0.0027331028 0.046148937 0.010136768 0.03792929 -0.024479862 -0.060681496
-0.12512195 0.044939388 0.04238699 -0.0054856744 -0.20075777 -1.0295849 -0.029180199 -0.004576321
0.031163473 0.16717553 0.029976781 -0.06628988 -0.08271196 -0.91536266 -0.45680344 -0.43625873
0.1072813 0.17197928 0.05755937 0.09175007 -0.041755565 -0.1608185 -0.0075283833 0.1182022
-0.027764762 -0.17307737 -0.02210835 -0.7209467 -0.031146824 -0.106847025 0.066784635 -0.01781082
-0.10050496 0.055287573 0.23544806 0.06396303 0.21068634 -0.6552953 -0.00035588635 0.076717235
0.040018518 -0.14083527 0.042505376 -0.07875317 0.048972823 -0.19345586 0.12443099 -0.1533091
0.094327904 -0.21984054 0.2223233 -0.0511544 0.25632173 -0.2709481 -0.107895896 -0.0535582
-0.16267425 -0.60108614 -0.02983001 -0.05219571 0.23149681 0.27398205 -0.022347158 -0.026161494
0.14982034 0.002441088 -0.09687382 0.08519337 -0.2693579 -0.08639702 0.056491546 -0.031950843
-0.016570996 0.03775526 -0.07164267 -0.039201062 0.31007227 -0.28603202 -0.014248889 -0.26166406
0.1257569 -0.08559528 -0.38026392 -0.41342592 -0.038130578 0.08635966 -0.12732457 -0.62018913
-0.42027017 -0.009752017 -0.17748731 -0.048169244 -0.002933403 -0.1633857 0.132451 0.016364252
-0.15771565 -0.06376452 0.038786482 -0.12888654 0.15993677 -0.39497802 -0.13922495 -0.5987768
-0.6080224 0.032678053 -0.16776355 -0.012787907 -0.14802645 -0.26782975 -0.1282166 0.061901607
-0.39374602 0.1294725 -0.7619111 -0.06990201 0.07272378 -0.060890313 0.024976168 0.084506325

fc2.bias f4 [128]
00000000: 16ac 903e 1efc 97be a956 ec3e ae0c 15bf
00000010: 32ae 31bf 8cd9 e43c b355 cabd 4a18 843e
00000020: f740 f4be 275e b2be 1994 c8be a17f a43e
00000030: 9717 ce3d 7c73 3b3d a15f 25bf 7843 1ebf
00000040: 72d3 19bf 0ee3 a9be 74c0 1bbe 5f21 34be
00000050: f7dd 64bf 2b75 aabe fdfc 58bf 36d0 40bf
00000060: e65a 95be 8123 7abf e426 8dbd 9973 ddbc
00000070: 83a6 2bbf 210f 513d 38de 08bf be14 053e
00000080: 5d57 afbe f024 00bf ec0e 6dbf b67e 6ebf
00000090: 9c6e 173d 8c55 9bbe 66f4 e0be 46c9 ddbe
000000a0: 5dc9 a8be 13b5 153c d454 a8be 3992 66bf
000000b0: 41c1 84be 434b aabe fae5 17bd 0b18 11be
000000c0: 8514 3bbf e4b8 6c3e fa17 713f 3e38 18bf
000000d0: 1c49 6fbf f58e cdbe e655 4fbe 30a5 03bf
000000e0: f893 c9be ad0f 3fbf 8c25 81be 178e 9c3e
000000f0: 7639 433f 8014 06bf 281c 853b e81f b0bc
00000100: 1060 23bf 7d62 91be bea3 1dbe 80d1 3bbf
00000110: a527 c6be 9402 6cbe 3236 39bf 00ec a0bf
00000120: d28f c1be b743 31bf d713 7dbf 2c8b a2be
00000130: 8297 c1bd 3db0 54be 4e43 37be 17a8 98be
00000140: 8fe6 3bbf 53a1 543d 19c7 89be eb68 fdbe
00000150: f155 093e 0163 01bf 4713 3dbf b886 09bf
00000160: 9e19 38bf d92a 99bf 1900 b1be fad7 c9be
00000170: ed99 053d 5817 70bf 73af d2be c8b6 6abe
00000180: 05eb 10bf c565 32be 39fb 90bc 5212 1abf
00000190: 1916 1cbf aa0f 29be ff21 15bf 5c0d 303f
000001a0: a52d 06bf 50f6 c8be 17a9 a6be 9eb4 b53c
000001b0: 2db5 4fbf b2c9 1cbf d3b6 1fbf c429 703e
000001c0: c51d 2fbf 2c05 2a3e 4bc0 02bf 47a7 203d
000001d0: f366 c5be 856e 25bc b9f7 45bf 2f0f 9cbe
000001e0: f295 2ebf 6f93 17bf a10e debe 32f7 3e3f
000001f0: 243d 26bf 369c 7d3e ebf6 bebe 7217 98be
0.2825629 -0.29684538 0.46159866 -0.5822247 -0.69406426 0.027935766 -0.09879627 0.2579978
-0.47705814 -0.34837458 -0.3917549 0.32128623 0.10063093 0.04576443 -0.64599043 -0.618217
-0.60088265 -0.3318104 -0.15210134 -0.17590855 -0.8940119 -0.33292517 -0.8476103 -0.75317705
-0.29170913 -0.97710425 -0.068921834 -0.02703266 -0.6705095 0.05103982 -0.5346408 0.12996194
-0.3424634 -0.5005636 -0.92600894 -0.93162096 0.03697072 -0.30338705 -0.4393646 -0.43317622
-0.32966128 0.00913741 -0.3287722 -0.9006687 -0.2592869 -0.33260545 -0.037084557 -0.14169328
-0.73078185 0.23117405 0.9417721 -0.5946082 -0.9347093 -0.4014813 -0.20247611 -0.5142393
-0.39370704 -0.74633294 -0.25223958 0.30577156 0.76259553 -0.5237503 0.0040621944 -0.02149959
-0.63818455 -0.28395453 -0.15394494 -0.73366547 -0.3870212 -0.23047858 -0.7234832 -1.2572021
-0.3780504 -0.6924395 -0.988584 -0.31746805 -0.09452726 -0.20770355 -0.17896768 -0.29815742
-0.7339868 0.051911663 -0.26909712 -0.4949411 0.1341169 -0.5054169 -0.7385754 -0.5372119
-0.7191409 -1.1966201 -0.34570387 -0.3942259 0.0326175 -0.9378562 -0.41149482 -0.22921288
-0.5660861 -0.17421634 -0.017697917 -0.60184205 -0.6097122 -0.16509882 -0.58255 0.68770385
-0.524134 -0.39250422 -0.3255088 0.022180852 -0.8113583 -0.6124526 -0.6238834 0.23453432
-0.684048 0.16603535 -0.51074666 0.039222028 -0.38555107 -0.010097151 -0.7733112 -0.30480334
-0.6819755 -0.5920934 -0.43370536 0.7459594 -0.64937043 0.24766621 -0.37297758 -0.29705387

fc3.weight f4 [1, 128]
00000000: da15 c03b c2dc e5bb 109b 533c ad03 1abc
00000010: 192c 1cbc 351d aa3c 6411 24bc 5159 93bc
00000020: 4b8f 32bc c784 84bc 363d 12bc 1c28 4a3c
00000030: 06cb adbc 46fd 413c bbdd 59bc 77a6 27bc
00000040: d29f 0ebd 5031 5f3c eb19 8b3c f768 083d
00000050: 7e9b 36bc 4eb7 d73b 29bf 0ebc 3067 87bc
00000060: 8193 c8bb 8018 90bc 3350 0f3c 543d 1cbc
00000070: d620 2cbc 476c edbb 0787 083c 67b4 483c
00000080: 34ae 6fbc f612 0ebc 4caa e4bb 489e 17bc
00000090: b6e6 cb3b d95f 57bc 8a7b a7bc 081f 743c
000000a0: 2c17 5b3c b35c de3c bf0d 32bc 394d b83c
000000b0: 4104 adbb 8907 5cbc fec5 2d3c 6b22 073c
000000c0: 45ca 00bc 73cc 763c 903d 613c 222a 6cbb
000000d0: 9a5d 4bbc 9a19 4ebc affd 43bc 7365 38bc
000000e0: 4af9 9d3d 9223 173c d399 4e3c d742 a33b
000000f0: 5489 e6bb 1b6e 843c 4eb3 ca3b f26b 3ebc
00000100: 0002 4d3c 5117 ffbb 18a7 d43b aed7 67bc
00000110: 4b4b bbbc 2ccc 7cbc ac5a c4bb f7f7 473c
00000120: d93c 04bc 26c0 e7bb 9013 1c3c c510 8b3c
00000130: f9b1 05bd 4131 57bc 203c fcbb 996e 0ebc
00000140: c687 0abd 2975 90bc e9ff 903b 8343 37bc
00000150: 7514 573c 88d3 32bc 7a45 98bc 3e45 88bc
00000160: edf4 4dbc 4f06 babc 67d1 2e3c d7a1 1dbc
00000170: 1e74 a93c 0aaa babc 7b08 f5bb 71fb ae3b
00000180: 0e4d 8bbc ff1d 353c 6b3d bf3b cf63 75bc
00000190: 8269 43bc 6235 1bbc 5233 9ebb 07b7 cc3b
000001a0: 6077 bbbc c86c a83c 71ac 72bb 5a7f ec3b
000001b0: e89a 72bc 89a1 3dbc 606e 93bb f5d4 803c
000001c0: 252c 1dbc bcbf a03c 6c97 1cbc 54a3 34bc
000001d0: 2d32 9dbc a11f 803c 2456 923c d871 babc
000001e0: a95f 1bbc a185 babc b57d dd3b 668d a83c
000001f0: ed18 853c d565 0f3c 62b4 bcbc e9f2 ccbb
0.00586198 -0.007014842 0.012915388 -0.00940029 -0.009531998 0.02076588 -0.010013912 -0.017986925
-0.0108984215 -0.016176594 -0.008925727 0.012338664 -0.021214973 0.01184017 -0.013297494 -0.010232559
-0.034820385 0.013622597 0.016980132 0.033303227 -0.011145471 0.006583131 -0.008712568 -0.016528696
-0.0061210995 -0.017589808 0.008747148 -0.009536106 -0.010505876 -0.0072455737 0.008332974 0.0122500425
-0.014628936 -0.008671513 -0.006978309 -0.009254046 0.0062225712 -0.01314541 -0.02044465 0.014899977
0.013372224 0.027143812 -0.010867535 0.02249776 -0.005280048 -0.013429531 0.010606287 0.008247952
-0.007860725 0.015063393 0.013747588 -0.0036035855 -0.012412453 -0.012579346 -0.011962338 -0.011254656
0.07713564 0.009224789 0.012609917 0.004982333 -0.0070354138 0.016165784 0.0061859256 -0.011622416
0.012512684 -0.007784762 0.0064896457 -0.014150543 -0.02286305 -0.015429538 -0.0059922542 0.0122051155
-0.008071148 -0.0070724664 0.009526148 0.01697577 -0.03264043 -0.013134302 -0.007697597 -0.008693361
-0.03382089 -0.017633991 0.004425038 -0.01118553 0.013127436 -0.010914691 -0.018587817 -0.01663458
-0.012570602 -0.022708086 0.010670043 -0.009621105 0.020685252 -0.022786159 -0.0074778176 0.0053400327
-0.017004516 0.011054515 0.005836179 -0.0149774095 -0.0119270105 -0.009473177 -0.004827895 0.0062474045
-0.02288407 0.020559683 -0.0037029053 0.00721733 -0.01480744 -0.0115741575 -0.0044992417 0.015726546
-0.009593044 0.019622676 -0.009557586 -0.011025269 -0.019188965 0.015640082 0.01786334 -0.022759363
-0.009483256 -0.022768797 0.00675937 0.020575237 0.016247237 0.008752306 -0.023035232 -0.006254543
