agent_actor_checkpoint_1_2.pth (torch_old, 183780 bytes, 6 tensors)

fc1.weight f4 [256, 48]
0	0x3e042eb7	0.12908445
1	0x3f15f0fb	0.5857083
2	0x3d2607d8	0.040534824
3	0xbea487be	-0.32134813
4	0x3d561e83	0.052275192
5	0xbf1dbf6d	-0.6162022
6	0x3b131285	0.0022441458
7	0xbea326e1	-0.318656
8	0x3dadec8b	0.084923826
9	0x3f162979	0.5865703
10	0xbe8a69af	-0.27033755
11	0x3e83e96a	0.25764018
12	0x3c580b11	0.013186232
13	0xbf9d8db4	-1.2308869
14	0xbe8291dc	-0.25501907
15	0x3e89d52f	0.2692046
16	0x3db81746	0.08988814
17	0x3f29237e	0.6606978
18	0x3cc4840e	0.02398875
19	0x3dbd0397	0.092292
20	0xbd86df87	-0.06585603
21	0xc002380d	-2.034671
22	0xbcb48347	-0.022035254
23	0x3e262ae2	0.16227296
24	0xbe057e0f	-0.13036369
25	0x3ea21e5b	0.31663784
26	0x3d175f1b	0.036955934
27	0xbe0f9c9d	-0.14024587
28	0xbd881085	-0.06643776
29	0xbf15cf50	-0.5851946
30	0x3e085819	0.13314857
31	0xbe1ca4a4	-0.1529718
32	0xbdfc83c4	-0.1232982
33	0x3e8e8189	0.27833202
34	0xbdb90779	-0.090346284
35	0x3e5826e8	0.21108592
36	0xbd17c994	-0.037057474
37	0xbf977aff	-1.183441
38	0xbc64843f	-0.013947546
39	0x3e8c6b07	0.27425405
40	0xbdb088de	-0.08619855
41	0x3f1f283f	0.62170786
42	0x3e24da37	0.16098867
43	0x3ef4d522	0.47818857
44	0x3d336b76	0.043803655
45	0xc005f1a0	-2.0928726
46	0x3e4599ef	0.19297002
47	0x3f0e7711	0.5565043
48	0x3e9bdeb5	0.3044335
49	0xbdee238c	-0.11627874
50	0xbea6ae41	-0.3255482
51	0xbd31fd86	-0.04345467
52	0x3a760a01	0.0009385646
53	0xbf3cd86c	-0.73767734
54	0xbe97c628	-0.2964337
55	0xbdc86e4d	-0.09786663
56	0x3e6ac585	0.2292691
57	0xbdb9631b	-0.09052106
58	0xbde1404c	-0.10998592
59	0xbe9f43bf	-0.31106374
60	0x3cc0aef9	0.023520933
61	0xbf56c6c3	-0.83897036
62	0xbdf4b2d1	-0.11948169
63	0xbe95f2e9	-0.29286888
64	0x3e3fee16	0.18743166
65	0xbe785ad4	-0.24253398
66	0xbea27e67	-0.31737062
67	0xbf4fa65a	-0.8111321
68	0x3e02a5dc	0.12758583
69	0xbf43a732	-0.76426995
70	0xbe8fb265	-0.28065792
71	0xbf51a126	-0.8188652
72	0x3e8de03e	0.27710146
73	0xbdea8981	-0.11452008
74	0x3e5a25af	0.21303438
75	0x3e51b496	0.20479044
76	0x3d138e0d	0.036024142
77	0xbf42ed82	-0.7614366
78	0x3e0fb853	0.14035158
79	0x3e156e44	0.14592844
80	0x3ea851a0	0.32874775
81	0xbdaab615	-0.08335511
82	0xbdaf48eb	-0.0855883
83	0xbc164f95	-0.009174247
84	0x3bd96028	0.006633777
85	0xbf5a92b6	-0.85380113
86	0xbdd80569	-0.10547907
87	0xbc32a51c	-0.010903623
88	0x3e55ca55	0.20877965
89	0xbd54f56b	-0.05199186
90	0x3d8fb776	0.07017414
91	0x3d0735f3	0.033010434
92	0xbde78e39	-0.11306424
93	0xbf4d1130	-0.8010435
94	0x3c9b53cb	0.018960854
95	0x3dae1415	0.08499924
96	0x3ecb3441	0.39688304
97	0xbf6976d1	-0.91196924
98	0x3d1fc19b	0.039002996
99	0x3db68399	0.08911819
100	0xbdfd9879	-0.123825975
101	0xbf0d667e	-0.55234516
102	0x3dd4f9f8	0.1039924
103	0x3e5684d2	0.20949104
104	0x3eb96a42	0.3621388
105	0xbf4bd351	-0.7961932
106	0xbd654153	-0.0559705
107	0x3f1b023c	0.60550284
108	0xbe2f1090	-0.17096162
109	0xbec8fef7	-0.39257023
110	0xbda0e9e7	-0.07857113
111	0x3f1bd0f4	0.6086571
112	0x3e8ad7e5	0.2711784
113	0xbf3f0e1d	-0.7463091
114	0xbd46a120	-0.048493505
115	0x3ea5738c	0.32314718
116	0xbbd32a55	-0.0064442554
117	0xbe800a9b	-0.2500809
118	0x3cbd812d	0.023132885
119	0x3ea9122b	0.33021674
120	0x3d6f1dc5	0.058378
121	0xbf658971	-0.89662844
122	0xbe812fd4	-0.25231802
123	0xbe2ae84b	-0.16690175
124	0x3e3f2096	0.18664774
125	0xbf03c46e	-0.514716
126	0xbe291476	-0.16511711
127	0xbdb11c73	-0.086480044
128	0xbc862a6b	-0.016377648
129	0xbf5e50b1	-0.86841875
130	0x3d75fb2b	0.060053986
131	0x3ee928ad	0.45538846
132	0x3ddd7573	0.10813417
133	0xbeea5544	-0.45768178
134	0x3d86bbc9	0.06578786
135	0x3ed6b762	0.41936785
136	0x3af37db8	0.0018576896
137	0xbf59f271	-0.8513556
138	0xbdf39a26	-0.11894636
139	0x3e848c78	0.2588842
140	0x3cca0e4c	0.02466502
141	0xbe3cb882	-0.18429759
142	0xbdc58edc	-0.09646389
143	0x3e501020	0.20318651
144	0xbf037d26	-0.51362836
145	0x3daf3a8e	0.0855609
146	0x3d4dddb3	0.050260257
147	0x3c483ba0	0.012221247
148	0xbbe8a50c	-0.0070997532
149	0x3e5b5bcf	0.21421741
150	0x3c9cfff6	0.01916502
151	0xbd4ab9b8	-0.04949352
152	0xbeea8717	-0.4580619
153	0x3e01ebd5	0.12687619
154	0x3d441453	0.047870945
155	0xbdf7dc19	-0.12102527
156	0x3e3c895b	0.18411772
157	0xbf0ea63f	-0.5572242
158	0x3e0b7044	0.13617045
159	0xbe711084	-0.23541456
160	0xbf00237f	-0.5005416
161	0x3de2a04e	0.11065732
162	0xbd5a5b64	-0.053309813
163	0xbe21cc23	-0.15800528
164	0x3eafe55e	0.3435468
165	0xbfac9700	-1.3483582
166	0x3d3af7b2	0.045646377
167	0xbdeefaf2	-0.11668958
168	0x3e77a5aa	0.2418429
169	0x3fe2c681	1.7716829
170	0x3dbf926b	0.09354099
171	0x3d930fe8	0.07180768
172	0x386dc931	5.6692577e-05
173	0x3e11374a	0.14181247
174	0x3ce18b07	0.027532114
175	0x3d7117cf	0.058860596
176	0x3e6dc766	0.23220596
177	0x3fec66de	1.8468893
178	0xbc29e809	-0.010370263
179	0x3e702933	0.23453216
180	0xbdc57ff0	-0.09643543
181	0xbf1a6c9d	-0.6032198
182	0x3d034884	0.03205158
183	0x3e82b53a	0.2552889
184	0x3e756e5d	0.23967882
185	0x3fe6100a	1.7973645
186	0x3d045d32	0.03231544
187	0xbe9f99c7	-0.3117201
188	0xbee025a1	-0.4377871
189	0xbfb7e4c7	-1.4366692
190	0x3d02c577	0.0319266
191	0xbec7c911	-0.3902059
192	0x3e9c4f27	0.30529138
193	0xbd483f96	-0.048888765
194	0xbded24c7	-0.1157928
195	0x3e5b565c	0.21419662
196	0x3e056ed2	0.13030556
197	0x3d0dbd6b	0.03460447
198	0xbdd77085	-0.10519508
199	0x3e9853b6	0.29751366
200	0x3e9d33a5	0.30703464
201	0xbe130b50	-0.14359784
202	0xbdaf699f	-0.085650675
203	0xbed5b778	-0.41741538
204	0xbe6085ed	-0.21926089
205	0x3f000fd0	0.5002413
206	0xbdbf622b	-0.09344896
207	0xbee96d24	-0.4559108
208	0x3ec960e6	0.3933174
209	0xbdd46521	-0.10370851
210	0x3dd0b74d	0.10191212
211	0x3e716d39	0.23576821
212	0xbf08fc4c	-0.53509974
213	0x3f47f44a	0.7810713
214	0x3e30bf20	0.17260408
215	0x3e1f4197	0.15552364
216	0x3dd34ea3	0.10317733
217	0x3f1ee9ac	0.62075305
218	0x3d24ea27	0.040262368
219	0x3eec5abe	0.4616298
220	0xbe1c0d46	-0.15239438
221	0x3dc377c8	0.09544331
222	0x3c323256	0.010876259
223	0x3f0217df	0.50817674
224	0x3cbc551f	0.022989808
225	0x3f1557f7	0.5833735
226	0xbd22d074	-0.039749578
227	0xbe7607c3	-0.24026398
228	0x3e4cd091	0.20001437
229	0x3ef079b4	0.46967852
230	0x3d083890	0.033257067
231	0xbe64d922	-0.22348455
232	0x3cacea75	0.021107892
233	0x3f1779f5	0.59170467
234	0xbe073f90	-0.13207841
235	0xbec206f9	-0.37895945
236	0x3f059ac6	0.5218929
237	0x3f424251	0.7588244
238	0xbd9b07d5	-0.07569853
239	0xbeddfd62	-0.43357378
240	0x3de2233d	0.110418774
241	0x3f65ea9d	0.89811116
242	0xbcf1eb7e	-0.029531237
243	0x3dc97300	0.09836388
244	0x3e2c3a1b	0.1681904
245	0xbea0cfaf	-0.3140845
246	0x3d912d5b	0.07088729
247	0x3e011b35	0.12608035
248	0x3e11e96c	0.142492
249	0x3f6c744b	0.9236495
250	0xbdfc5fde	-0.12322973
251	0xbe0b25ed	-0.13588686
252	0xbdb13646	-0.0865293
253	0xbea98069	-0.33105782
254	0xbe1bc16a	-0.152105
255	0xbe73dc8b	-0.23814599

fc1.bias f4 [256]
0	0xbd7b0c33	-0.06129093
1	0xbe96240d	-0.2932438
2	0xbe8ffb60	-0.2812147
3	0x3e838eaf	0.25694796
4	0xbf336ca6	-0.7008766
5	0xbf2e8fcb	-0.6818816
6	0xbf2193a7	-0.63115925
7	0xbea26d45	-0.3172399
8	0xbed65134	-0.41858828
9	0xbec9a5b1	-0.39384225
10	0xbf218a40	-0.6310158
11	0x3e2acf67	0.1668068
12	0xbee880f1	-0.45410874
13	0xbf048582	-0.51766217
14	0xbe8da800	-0.27667236
15	0xbf3d65ce	-0.73983467
16	0xbeb3c9cc	-0.35114896
17	0xbe9f49f8	-0.3111112
18	0xbf7f484e	-0.99719703
19	0xbe9f3663	-0.3109618
20	0xbed326c3	-0.4124051
21	0xbf13a922	-0.5767995
22	0xbf0963c7	-0.53667873
23	0xbf486916	-0.7828535
24	0xbd5a1c32	-0.053249545
25	0xbed8ab5e	-0.42318243
26	0xbee2abcd	-0.442717
27	0xbf474779	-0.77843434
28	0xbf374a81	-0.7159806
29	0xbf5abcd9	-0.8544441
30	0xbf4992fa	-0.78739893
31	0xbe0e9318	-0.139233
32	0xbdde261c	-0.108471125
33	0xbeab50b1	-0.3346
34	0xbed5cd8b	-0.4175838
35	0xbf3e4a78	-0.7433238
36	0xbee3efbc	-0.4451884
37	0xbe21547b	-0.15754883
38	0xbf475cfc	-0.7787626
39	0xbf4f3074	-0.8093331
40	0xbf4690dd	-0.77564794
41	0xbed04058	-0.4067409
42	0xbeef639a	-0.46755677
43	0xbea41943	-0.32050523
44	0xbe249509	-0.16072477
45	0xbf5ba9ed	-0.8580616
46	0xbed5593a	-0.41669637
47	0xbebd5a11	-0.36982778
48	0xbed4594e	-0.41474384
49	0x3e47c2ad	0.19507857
50	0xbe18c30b	-0.14918153
51	0xbf1a284c	-0.6021774
52	0x3e433bbe	0.19065759
53	0x3e3f4643	0.18679146
54	0xbea1677c	-0.31524265
55	0xbedc1003	-0.42980966
56	0xbe4989ba	-0.19681445
57	0xbc0b0b05	-0.008486514
58	0xbc98ccb5	-0.0186523
59	0xbedc7f34	-0.43065798
60	0xbe237069	-0.1596085
61	0xbedcdedc	-0.43138778
62	0xbe67a2b2	-0.22620657
63	0xbebac58c	-0.3647884
64	0xbea519b5	-0.32246175
65	0xbf157211	-0.58377177
66	0xbe9fe574	-0.31229746
67	0xbf0f74ae	-0.56037414
68	0xbeca4daf	-0.39512393
69	0xbf0db992	-0.5536128
70	0xbe9c4452	-0.30520874
71	0xbf49e150	-0.78859425
72	0xbf46e8c5	-0.7769893
73	0xbe707f00	-0.23485947
74	0xbea65da2	-0.3249331
75	0xbee44065	-0.4458038
76	0xbf0cb5d4	-0.5496495
77	0xbe21994a	-0.15781131
78	0xbf4b325f	-0.79373735
79	0xbe12ab8e	-0.14323255
80	0xbe930ddf	-0.2872152
81	0xbee212e1	-0.44155028
82	0xbe91694d	-0.2840065
83	0xbed3b290	-0.4134717
84	0xbeb7a835	-0.3587052
85	0xbf1a8282	-0.6035539
86	0xbef24238	-0.47316146
87	0xbe7dc99f	-0.24783944
88	0xbe84466a	-0.25834972
89	0xbf245ea7	-0.6420693
90	0xbd6f4832	-0.05841846
91	0xbf12f493	-0.5740444
92	0xbebed593	-0.3727232
93	0xbe9a1767	-0.3009598
94	0xbe9c52b1	-0.3053184
95	0xbed99b9b	-0.4250153
96	0xbe090921	-0.13382389
97	0xbedb4dd5	-0.4283282
98	0xbcdca2ce	-0.0269331
99	0xbea36d86	-0.31919497
100	0xbec4c9e5	-0.38435283
101	0xbede75b9	-0.4344919
102	0xbe8dc9cc	-0.2769302
103	0xbe181627	-0.148522
104	0xbd5ec461	-0.0543865
105	0xbea7f400	-0.32803345
106	0xbf19bdf0	-0.60055447
107	0xbf327d69	-0.6972261
108	0xbe833406	-0.25625628
109	0xbea8676f	-0.32891414
110	0xbed21e17	-0.41038582
111	0xbee10489	-0.43948773
112	0xbf2376b0	-0.6385298
113	0xbf16b093	-0.5886318
114	0xbf203881	-0.6258622
115	0xbec4a88d	-0.38409844
116	0xbf1c24da	-0.6099373
117	0xbefb16af	-0.49040744
118	0xbf1fc8f7	-0.62416023
119	0xbf43f3ad	-0.76543695
120	0xbe090a66	-0.13382873
121	0xbed4e626	-0.4158184
122	0xbf6320c5	-0.8872188
123	0xbf26bf84	-0.6513598
124	0xbebd04ff	-0.36917874
125	0xbf21e573	-0.63240737
126	0xbe91d99b	-0.28486332
127	0xbe00a163	-0.12561564
128	0xbda2aa56	-0.07942645
129	0xbeacaff5	-0.33727995
130	0xbf0c0823	-0.54699916
131	0xbf03c351	-0.51469904
132	0xbebf536c	-0.37368333
133	0xbf089bd9	-0.53362805
134	0xbe3d936d	-0.1851327
135	0xbe3b9bca	-0.18321148
136	0xbe6b21e5	-0.22962148
137	0xbf1413cd	-0.57842714
138	0xbecc3507	-0.39884207
139	0xbf6d9284	-0.9280169
140	0xbf106c39	-0.56415135
141	0xbec47f83	-0.38378534
142	0xbf39a9d7	-0.7252478
143	0xbed44861	-0.4146147
144	0xbeb4c787	-0.35308477
145	0xbec3534a	-0.38149482
146	0xbe9d2155	-0.30689493
147	0xbefca6da	-0.49346048
148	0xbe9f12ef	-0.31069133
149	0xbe90b1b1	-0.28260568
150	0xbe2719ab	-0.16318385
151	0xbeee404c	-0.4653343
152	0xbad5aa04	-0.0016301279
153	0xbdcc0bbe	-0.09963177
154	0xbea76195	-0.32691637
155	0xbf19f439	-0.6013828
156	0xbebba619	-0.3665016
157	0xbed4b222	-0.41542155
158	0xbe3b1088	-0.18268025
159	0xbf1e3ec6	-0.61814535
160	0xbf1b22c8	-0.60599947
161	0xbec5c831	-0.38629296
162	0xbf255321	-0.6457997
163	0xbf2c752b	-0.67366284
164	0xbf0bf7d9	-0.5467506
165	0xbe2af1f4	-0.1669386
166	0xbec40cc9	-0.38291004
167	0xbf1f183d	-0.6214636
168	0x3b8aab8e	0.0042318767
169	0xbed89fcb	-0.42309412
170	0xbba3efe4	-0.0050029624
171	0xbee60d5b	-0.44932064
172	0xbecab9b5	-0.39594808
173	0xbe3bb396	-0.18330225
174	0xbdec267d	-0.115307786
175	0xbf466193	-0.77492636
176	0xbeceddd0	-0.40403605
177	0xbf4f074c	-0.8087051
178	0xbe8b7a29	-0.27241638
179	0xbe20756b	-0.15669791
180	0xbe984b55	-0.29744974
181	0xbf37aa14	-0.71743894
182	0xbbdd3c42	-0.006751568
183	0xbea362f7	-0.31911442
184	0xbf088a6a	-0.53336203
185	0xbf1da934	-0.6158631
186	0xbdf97998	-0.12181395
187	0xbec5d404	-0.38638318
188	0xbedddfc7	-0.4333479
189	0xbeb7a4e8	-0.35868
190	0xbf15e8dc	-0.5855844
191	0xbee1775c	-0.44036376
192	0xbe3e17d9	-0.18563785
193	0xbeb7c1b3	-0.35889968
194	0xbe2b9ed0	-0.16759801
195	0xbf1969cd	-0.59927064
196	0xbf0bd211	-0.5461741
197	0xbf1b0e4a	-0.6056868
198	0xbf1ab72d	-0.60435754
199	0xbf32c872	-0.69837105
200	0xbf1ff04d	-0.62476045
201	0xbf259b67	-0.6469025
202	0xbec2217f	-0.3791618
203	0xbe9c4120	-0.30518436
204	0xbe21f4fa	-0.15816107
205	0xbe415fd7	-0.18884216
206	0xbf188459	-0.59576946
207	0xbf3c0fe6	-0.7346176
208	0x3dad9a91	0.08476747
209	0x3d678b6d	0.05652945
210	0xbf4ddc28	-0.80414057
211	0xbf13fdb7	-0.57809013
212	0xbe964b76	-0.29354447
213	0x3d173c9e	0.036923043
214	0xbf2fbd0b	-0.6864783
215	0xbde77216	-0.11301057
216	0xbe774e10	-0.24150872
217	0xbf0e5227	-0.55594105
218	0xbf1bc91a	-0.6085373
219	0xbf47a106	-0.7798008
220	0xbf046680	-0.517189
221	0xbe5c637b	-0.21522324
222	0xbf125693	-0.5716335
223	0xbf2d8e14	-0.6779492
224	0xbebd80b4	-0.37012255
225	0xbe4e6c40	-0.20158482
226	0xbf445604	-0.7669375
227	0xbc390ff1	-0.011295305
228	0xbea423f3	-0.32058677
229	0xbf68b426	-0.90899885
230	0xbf0b5540	-0.54426956
231	0xbe4309fb	-0.19046776
232	0xbf2cb0fc	-0.67457557
233	0x3c7a0d21	0.015261919
234	0xbe858ba6	-0.26083106
235	0xbec32ca1	-0.38119987
236	0xbee16846	-0.44024867
237	0x3efe639d	0.49685374
238	0xbef09f85	-0.46996704
239	0xbe25d561	-0.16194679
240	0xbf1bfe7d	-0.60935193
241	0xbe090c3a	-0.1338357
242	0xbf657ef8	-0.89646864
243	0xbf13b1db	-0.5769326
244	0xbaffd3f6	-0.0019518125
245	0xbedb44c8	-0.42825913
246	0xbea26fcc	-0.3172592
247	0xbf0ff756	-0.5623678
248	0xbeb93b61	-0.36178115
249	0x3d123c7d	0.035702217
250	0xbee75626	-0.45182914
251	0xbf0b5613	-0.54428214
252	0xbec0e61e	-0.37675565
253	0xbf512f39	-0.8171268
254	0xbf192558	-0.5982261
255	0xbf60a2a7	-0.8774819

fc2.weight f4 [128, 256]
0	0x3e0fce56	0.14043555
1	0x3dfe67b9	0.12422127
2	0x3c97cae1	0.018529357
3	0x3e8fe686	0.28105563
4	0xbef4c322	-0.47805125
5	0x3eb7991f	0.3585901
6	0xbd47dbb6	-0.048793517
7	0x3db161fe	0.08661269
8	0xbe6a7225	-0.22895105
9	0xbe80bb80	-0.2514305
10	0x3dbfbcc7	0.09362178
11	0xbe340698	-0.1758064
12	0xbe919055	-0.2843043
13	0xbe3488aa	-0.17630258
14	0x3dc80c91	0.09768022
15	0x3e8b8e2c	0.27256906
16	0xbe5aee69	-0.21380009
17	0x3dca02eb	0.09863838
18	0xbed72a25	-0.4202434
19	0x3e2b64c4	0.16737658
20	0x3e39f85e	0.18161151
21	0xbde4d2e3	-0.11173036
22	0x3e4e0a8c	0.20121211
23	0x3d2cca87	0.042185333
24	0x3e99d4d0	0.30045176
25	0x3e279167	0.1636406
26	0x3ea24679	0.3169439
27	0xbdf135d1	-0.11777843
28	0x3e890eeb	0.26769194
29	0xbdbb7a4b	-0.09154185
30	0xbe8a7e2d	-0.2704939
31	0xbbd2d1f9	-0.006433722
32	0x3ddfde23	0.10931041
33	0xbd7fa4f8	-0.062413186
34	0xbe35b3d2	-0.17744377
35	0x3ee0f4ad	0.43936673
36	0xbeb7d002	-0.35900885
37	0xbce3f629	-0.02782734
38	0x3e9f6476	0.31131333
39	0xbe5bae43	-0.21453194
40	0xbe1d915c	-0.15387481
41	0x3e1e7702	0.15475085
42	0x3e3aeafb	0.182537
43	0x3dd5db0d	0.10442171
44	0x3e22ffdf	0.1591792
45	0x3d711cde	0.05886542
46	0xbdc6ba10	-0.09703457
47	0x3ee9f410	0.45694017
48	0xbd6d8765	-0.05799045
49	0xbef9d966	-0.48798674
50	0xbf2ca01e	-0.6743182
51	0xbecef56e	-0.40421623
52	0xbca10afc	-0.019658558
53	0x3d7191f3	0.05897708
54	0x3e514d6b	0.20439689
55	0xbc89a50f	-0.016802339
56	0xbe94dc1a	-0.29074174
57	0x3eab3723	0.33440503
58	0xbcdc738e	-0.02691057
59	0x3e818348	0.25295472
60	0xbe11c1aa	-0.14234033
61	0xbe9c8f4f	-0.30578086
62	0x3d800ef3	0.06252851
63	0xbe811b7d	-0.25216284
64	0xbd1b6402	-0.03793717
65	0xbda07d72	-0.07836427
66	0x3e17bd06	0.148182
67	0xbe2e7a8e	-0.17038938
68	0x3ea5f6f4	0.32414973
69	0xbf7a2f5b	-0.9772851
70	0xbe3e6623	-0.1859365
71	0x3e269632	0.16268232
72	0x3e0635ed	0.13106509
73	0xbeaf850c	-0.34281194
74	0x3ea691ca	0.32533103
75	0x3d26701b	0.040634256
76	0x3f050d21	0.5197316
77	0x3ef09555	0.4698893
78	0x3d907fe7	0.070556454
79	0xbf26db58	-0.6517844
80	0x3ce96c27	0.028493954
81	0xbe846d6b	-0.2586473
82	0xbec600de	-0.38672537
83	0xbe874239	-0.2641771
84	0x3ca420f0	0.020035237
85	0x3c2b6b73	0.01046263
86	0xbe782924	-0.24234444
87	0xbecd8172	-0.4013782
88	0xbc7bdbd5	-0.015372236
89	0x3e875eec	0.26439607
90	0xbe84a394	-0.2590605
91	0xbd8e3304	-0.06943324
92	0xbe62a8cb	-0.22134702
93	0xbb6e7215	-0.0036383916
94	0x3d11cbfa	0.035594918
95	0xbf3c061d	-0.7344683
96	0xbec53ab3	-0.38521346
97	0xbe795aff	-0.24351119
98	0xbe454eaf	-0.19268297
99	0xbed9c6b0	-0.425344
100	0xbf975878	-1.1823874
101	0x3d47e81b	0.048805337
102	0xbf3e0fdc	-0.7424295
103	0xbd4f32af	-0.050585445
104	0x3efc0ad1	0.49227002
105	0xbf6b8ce4	-0.9201186
106	0x3ea238cf	0.31683967
107	0x3e1c9b40	0.15293598
108	0x3dc1f380	0.09470272
109	0xbe6bd17f	-0.23029135
110	0x3eeb0b20	0.45906925
111	0x3e491b58	0.19639337
112	0x3d141ef7	0.036162343
113	0x3dad9d53	0.08477273
114	0xbd5422aa	-0.05179087
115	0xbf45c608	-0.77255297
116	0xbe0b6788	-0.13613713
117	0x3ea2c706	0.31792468
118	0xbf09295b	-0.5357873
119	0xbd760aa1	-0.06006873
120	0xbf20ca45	-0.6280864
121	0x3dea4879	0.11439604
122	0xbddcb699	-0.10777015
123	0xbe32a18e	-0.1744444
124	0x3e43bc9b	0.19114916
125	0x3ea1c095	0.3159224
126	0xbcf3e023	-0.029769963
127	0x3d5188d5	0.051155884
128	0x3e368161	0.17822792
129	0xbf157a9e	-0.58390224
130	0x3e79e6a5	0.2440439
131	0x3c6f82ee	0.014618618
132	0xbe03f43d	-0.12886138
133	0xbe183c1f	-0.14866684
134	0x3ed14937	0.4087617
135	0xbd58d2a8	-0.052935272
136	0xbec22e1a	-0.37925798
137	0x3e46d949	0.19418825
138	0x3dd919ba	0.1060061
139	0x3e124f9a	0.14288178
140	0x3e73ffe9	0.2382809
141	0xbe041328	-0.12897933
142	0xbf179697	-0.59214157
143	0x3e4bb727	0.19894086
144	0xbf792318	-0.97319174
145	0xbe43dbf6	-0.19126877
146	0xbe87bf85	-0.26513305
147	0xbe9c16b1	-0.30486062
148	0xbdd0ecbf	-0.10201406
149	0xbe5d4043	-0.21606545
150	0xbf142266	-0.5786499
151	0x3cd4bc90	0.02596882
152	0xbe1034a9	-0.14082588
153	0xbdbfad74	-0.093592554
154	0xbe29a58a	-0.16567054
155	0xbd4ae411	-0.049533907
156	0x3ea74a21	0.32673743
157	0xbd3cf94a	-0.046136178
158	0x3d293c3a	0.041317202
159	0xbdafcb01	-0.08583642
160	0x3d087d76	0.033322774
161	0x3eefc4f0	0.4682994
162	0x3dd1fdf0	0.10253513
163	0xbe2ed6a3	-0.17074065
164	0xbf2d77d2	-0.67760956
165	0xbdb49da0	-0.08819127
166	0x3e9e36b1	0.309011
167	0xbe956d9a	-0.29185182
168	0x3d3818e0	0.044945598
169	0xbe01939e	-0.12653968
170	0xbcb11cbd	-0.021620149
171	0xbe533669	-0.20626225
172	0xbd106f4c	-0.03526239
173	0x3e39a1ed	0.18128176
174	0x3eae230a	0.34011108
175	0x3e344289	0.17603506
176	0xbb524e14	-0.0032089995
177	0xbe862c69	-0.26205757
178	0x3db7a19d	0.08966372
179	0xbdfe2f16	-0.12411325
180	0x3d819c34	0.063286215
181	0x3c3118cd	0.010809136
182	0x3e7b1f40	0.2452364
183	0xbca31035	-0.019905189
184	0xbec3cf9a	-0.38244325
185	0xbf299362	-0.66240513
186	0x3e552c79	0.20817746
187	0x3f1627ef	0.58654684
188	0x3e8a87f0	0.27056837
189	0xbe6e4469	-0.23268284
190	0xbe14010a	-0.14453521
191	0x3e8670b8	0.26257873
192	0x3e6adad5	0.2293504
193	0x3dac6694	0.08418003
194	0x3d71a389	0.05899385
195	0x3e4cfc1d	0.20018049
196	0xbe3a401d	-0.1818852
197	0xbeb2781c	-0.3485726
198	0x3e42cc47	0.19023238
199	0x3e0c1552	0.13680008
200	0x3eb96760	0.3621168
201	0xbec556db	-0.38542828
202	0xbe31bafe	-0.17356488
203	0xbe4b3a28	-0.19846404
204	0xbe240ec5	-0.16021259
205	0x3df3073e	0.11866616
206	0xbe92d9b5	-0.28681722
207	0x3e47e959	0.19522609
208	0x3e12a22b	0.14319675
209	0xbf5fc0fb	-0.8740384
210	0xbea5600a	-0.32299834
211	0xbd829bae	-0.0637735
212	0x3e24dc1d	0.16099592
213	0xbd388847	-0.04505184
214	0xbe663f62	-0.22485116
215	0x3eaa58aa	0.3327077
216	0xbeca8eb5	-0.39562002
217	0x3e06fbca	0.13181987
218	0x3e29d7a3	0.16586165
219	0x3b960a2d	0.0045788498
220	0xbec684d8	-0.38773227
221	0xbcce0b08	-0.025151744
222	0x3e887d83	0.26658258
223	0xbd6dc296	-0.0580469
224	0x3ed615df	0.4181356
225	0xbe807dad	-0.25095883
226	0x3e8fcd5c	0.28086364
227	0x3f34f3e9	0.7068468
228	0xbe70801b	-0.23486368
229	0x3eb71a7e	0.357624
230	0xbcecfbba	-0.028928626
231	0x3e864e46	0.26231593
232	0xbd32ca62	-0.04365004
233	0xbcb8225c	-0.022477321
234	0x3d60c610	0.054876387
235	0xbd449817	-0.047996607
236	0x3e93f79d	0.2889985
237	0x3dc0517a	0.093905404
238	0xbe87f610	-0.26554918
239	0x3ea694b5	0.3253533
240	0xbcfb01f3	-0.030640578
241	0xbe3ffcbe	-0.18748757
242	0xbdb5b87d	-0.08873079
243	0x3d90513e	0.07046746
244	0x3f25bc8e	0.64740837
245	0xbdc38736	-0.09547274
246	0xbebedb46	-0.37276667
247	0x3dc318ed	0.095262386
248	0x3ec9ff26	0.39452475
249	0x3e1a1b0d	0.15049382
250	0xbeccd3a1	-0.4000521
251	0x3cc03dc3	0.02346695
252	0xbebbb8e8	-0.3666451
253	0xbe31a9c7	-0.17349921
254	0xbd9eb6e8	-0.0774973
255	0x3c566cee	0.013087494

fc2.bias f4 [128]
0	0xbf8b79ba	-1.0896523
1	0xbeac342a	-0.33633548
2	0xbf60e35c	-0.8784692
3	0xbee12861	-0.4397612
4	0xbf0d4e2a	-0.55197394
5	0xbee65932	-0.44989926
6	0xbe2404c5	-0.16017444
7	0xbece8ed9	-0.4034336
8	0xbe685f90	-0.22692704
9	0xbe216a30	-0.15763164
10	0xbe94cb05	-0.29061142
11	0xbe474d43	-0.19463067
12	0xbeb5bd99	-0.35496214
13	0xbeba4f10	-0.36388445
14	0xbe327bc0	-0.1743002
15	0xbc382c38	-0.011241011
16	0xbf2b6c80	-0.6696243
17	0xbf1ff7a6	-0.62487257
18	0x3e37d191	0.17951037
19	0xbe70fab9	-0.23533143
20	0xbe84f24b	-0.25966105
21	0xbf33bfe2	-0.70214665
22	0xbeb3bd66	-0.35105437
23	0xbe92ea85	-0.2869455
24	0xbeb9dd20	-0.36301517
25	0xbe29a1fd	-0.165657
26	0xbef1d926	-0.47235984
27	0xbe5ef395	-0.21772607
28	0xbe0eb4fe	-0.1393623
29	0xbdd14a15	-0.10219208
30	0xbec9d033	-0.39416656
31	0xbecbe929	-0.39826325
32	0xbef3d1f3	-0.47621116
33	0xbf1b880e	-0.6075448
34	0xbf4581e7	-0.7715134
35	0xbf357495	-0.70881015
36	0xbed45f77	-0.41479084
37	0x3e1f67d7	0.15566956
38	0xbeb5b2c3	-0.35487947
39	0xbeae8b69	-0.34090737
40	0xbf1c48b3	-0.6104843
41	0xbf095dd6	-0.5365881
42	0xbe9341ac	-0.2876104
43	0xbea411af	-0.32044742
44	0xbd940769	-0.07227976
45	0xbefeb316	-0.49746007
46	0x3e5dffba	0.21679583
47	0xbd33ae1f	-0.043867227
48	0xbefc1cfd	-0.49240866
49	0xbf45bfba	-0.77245677
50	0x3e6abc85	0.22923477
51	0xbebb85b9	-0.3662546
52	0xbeb6a349	-0.35671452
53	0xbe00a922	-0.12564519
54	0xbf343446	-0.7039226
55	0xbe665b1f	-0.22495697
56	0xbd86b3ac	-0.065772384
57	0xbe610bf0	-0.2197721
58	0xbe95cbbc	-0.29257
59	0xbf133173	-0.5749733
60	0xbe8f3fa0	-0.2797823
61	0xbf0b0eb0	-0.54319286
62	0xbdc9265c	-0.098217696
63	0xbdba7cd7	-0.091058426
64	0xbe9178c2	-0.28412443
65	0xbe6da134	-0.23206025
66	0x3b68e481	0.003553659
67	0xbdc749d1	-0.09730876
68	0xbe7d9525	-0.24763925
69	0x3e2353bd	0.15949912
70	0x3eada237	0.33912823
71	0xbef1839d	-0.47170725
72	0xbe833779	-0.2562826
73	0x3e2e88e5	0.17044409
74	0x3e02f964	0.12790447
75	0x3db38262	0.08765103
76	0xbea8ac37	-0.3294389
77	0xbe81b85b	-0.25335965
78	0xbecc4a88	-0.39900613
79	0xbe065362	-0.13117746
80	0xbeae8282	-0.34083945
81	0xbe973b57	-0.2953746
82	0xbf0b1011	-0.5432139
83	0xbeff7816	-0.49896306
84	0x3d1d1a7a	0.03835533
85	0xbdbc07b4	-0.09181157
86	0xbf529aec	-0.8226764
87	0xbeeefae0	-0.46675777
88	0xbeb27dbd	-0.34861556
89	0x3d91ca14	0.071186215
90	0xbe3461be	-0.1761541
91	0xbe261d24	-0.16222054
92	0x3c34ca20	0.0110345185
93	0xbf03dac7	-0.515057
94	0xbeb0d799	-0.34539488
95	0xbef68026	-0.48144644
96	0xbefdaa65	-0.49544063
97	0xbf29d6fa	-0.66343653
98	0xbdcec982	-0.10097028
99	0xbebcb705	-0.36858383
100	0xbedb8ef1	-0.42882493
101	0xbe7c4585	-0.24635895
102	0xbf043c73	-0.5165474
103	0xbe9acfa6	-0.30236548
104	0xbc630feb	-0.013858776
105	0xbd6edb3d	-0.05831455
106	0xbe847f28	-0.25878263
107	0xbecb7bc5	-0.39742866
108	0xbe98a9d1	-0.2981706
109	0x3e1fb82d	0.15597601
110	0xbefd3123	-0.4945155
111	0xbf2c7228	-0.6736169
112	0xbe7d4c04	-0.24736029
113	0xbedde82e	-0.43341202
114	0xbefa0d28	-0.48838162
115	0xbe8b5704	-0.27214825
116	0xbe600ed0	-0.2188065
117	0xbf0d57c7	-0.5521206
118	0xbe236b43	-0.15958886
119	0xbf1854e4	-0.5950453
120	0xbf403250	-0.7507677
121	0xbe958430	-0.29202414
122	0xbf03431d	-0.5127428
123	0xbf37ac73	-0.7174751
124	0x3e7f2911	0.2491801
125	0xbe3dce2b	-0.18535678
126	0xbeaed367	-0.34145662
127	0xbed75122	-0.42054087

fc3.weight f4 [2, 128]
0	0xbf174b2e	-0.5909909
1	0xbea833a5	-0.32851902
2	0x3e8d029d	0.27541056
3	0xbeaeb001	-0.34118655
4	0xbe00e5c0	-0.12587643
5	0x3dc0320f	0.09384548
6	0xbd6bf4a5	-0.057606358
7	0x3ec0bd36	0.37644356
8	0x3eab9b1b	0.33516774
9	0xbd89370a	-0.06699951
10	0xbdb65775	-0.089034
11	0x3dcb2605	0.09919361
12	0x3ded666c	0.11591801
13	0xbeb56d30	-0.35434866
14	0x3eb067a7	0.3445408
15	0xbd89de5b	-0.06731864
16	0xbde4b4e1	-0.111673124
17	0x3d68fa55	0.05687936
18	0xbdcce6df	-0.10004973
19	0x3d0f1250	0.034929574
20	0x3e068670	0.13137221
21	0xbd1d30ef	-0.038376745
22	0x3e32cfe6	0.1746212
23	0xbe7957d1	-0.24349906
24	0xbda7dd59	-0.081965156
25	0x3df8baf2	0.12145032
26	0x3e3dc969	0.18533863
27	0xbc4996ba	-0.012304002
28	0xbc4ca1ac	-0.012489717
29	0x3cbe8343	0.02325595
30	0xbd87cccf	-0.06630861
31	0x3e4f1c04	0.20225531
32	0xbcb6a355	-0.02229468
33	0xbe157f27	-0.14599286
34	0xbd1e13fe	-0.038593285
35	0x3d41bd2f	0.04729956
36	0x3bd94d8c	0.0066315588
37	0xbdc1ae5d	-0.09457085
38	0x3ec579f7	0.38569614
39	0x3c8ebf96	0.01742534
40	0xbd5c5052	-0.053787537
41	0x3d84f100	0.064912796
42	0xbea880b2	-0.32910687
43	0xbd69a1c0	-0.057039022
44	0x3dc429d7	0.09578293
45	0xbd24a56f	-0.040196832
46	0xbd009e07	-0.031400707
47	0xbd87b1cd	-0.0662571
48	0x3de95158	0.11392468
49	0xbd849ca9	-0.06475193
50	0x3caaea66	0.020863723
51	0x3dc6fb73	0.09715929
52	0xbdccefa0	-0.10006642
53	0x3e1bc068	0.15210116
54	0x3d1729dc	0.036905155
55	0x3e05274a	0.13003269
56	0x3e8f3633	0.27971038
57	0xbd95fea2	-0.07323958
58	0x3d8eec85	0.06978706
59	0xbd678e16	-0.056531988
60	0x3d6570f2	0.056015916
61	0x3e1368bb	0.1439542
62	0x3e6472ad	0.2230937
63	0x3dd24189	0.10266406
64	0xbe3dcfaa	-0.18536249
65	0x3df0ac94	0.11751667
66	0xbcf6de18	-0.0301352
67	0xbd19878d	-0.037482787
68	0xbd57e175	-0.052705247
69	0xbd037b67	-0.032100108
70	0x3e973c7c	0.29538333
71	0xbd8b31a2	-0.06796576
72	0xbde59c21	-0.1121142
73	0x3d98304a	0.074310854
74	0x3d2d17a2	0.042258866
75	0x3dea16b3	0.11430111
76	0xbc9bd0f0	-0.019020528
77	0x3e5fc0d6	0.21850905
78	0xbd2ce6ec	-0.04221241
79	0x3e772f81	0.24139215
80	0xbe16cf3e	-0.14727494
81	0x3e8e53c0	0.2779827
82	0xbe8cc256	-0.27492017
83	0x3d15e71a	0.03659735
84	0xbe3d6734	-0.184964
85	0xbcafd680	-0.021464586
86	0x3e15b22b	0.14618747
87	0xbde91fe6	-0.11383037
88	0x3ac17754	0.0014760294
89	0x3ecb07bd	0.3965434
90	0x3e07ca22	0.13260701
91	0x3e877432	0.26455837
92	0x3d6f34ea	0.058400072
93	0xbcc629d2	-0.024189863
94	0x3e106bdb	0.14103644
95	0x3ef8f9f0	0.48628187
96	0xbdd1a8a1	-0.102372415
97	0xbd0a7503	-0.033802997
98	0xbddb5ca6	-0.10711031
99	0xbdaeaae2	-0.08528687
100	0xbdccd03c	-0.10000655
101	0x3e027426	0.1273962
102	0x3dc68a61	0.096943624
103	0x3e808118	0.2509849
104	0x3e1f5974	0.15561467
105	0x3c0ae5cf	0.008477642
106	0x3e5ce66c	0.21572274
107	0xbde6e243	-0.11273625
108	0x3df9370d	0.12168703
109	0xbe9a3331	-0.3011718
110	0xbd02fb83	-0.03197814
111	0x3af181ad	0.0018425487
112	0x3d94a5da	0.07258196
113	0xbd5d76d5	-0.054068405
114	0x3e173261	0.14765312
115	0x3a0c813f	0.00053598353
116	0x3de54e0b	0.11196526
117	0x3d90e183	0.07074263
118	0x3e27e53f	0.16396044
119	0x3d07123c	0.032976374
120	0x3e362bfc	0.17790216
121	0x3d36d3b3	0.044635486
122	0x3d0bf3c7	0.03416803
123	0x3daa6214	0.08319488
124	0x3e9ffa9f	0.31245896
125	0x3e72a336	0.23695073
126	0xbc920e24	-0.017829008
127	0xbd8ebc4d	-0.06969509
128	0xbed73a71	-0.42036775
129	0xbdfa50a1	-0.1222241
130	0x3e278c5b	0.16362135
131	0xbdc05061	-0.09390331
132	0x3e3eb3ee	0.18623325
133	0xbe926ab9	-0.28597048
134	0x3e1e4e77	0.1545962
135	0x3e9f940e	0.31167644
136	0x3e2eb743	0.17062096
137	0x3da13f0b	0.078733526
138	0x3ca6d614	0.020365752
139	0xbe8bd9fa	-0.2731474
140	0xbe61beec	-0.22045487
141	0xbda4028d	-0.08008299
142	0x3c89395d	0.016750986
143	0xbe6865c4	-0.2269507
144	0xbd0e5346	-0.034747384
145	0xbed92834	-0.42413485
146	0xbcd9c188	-0.02658154
147	0xbf21213e	-0.6294135
148	0xbe523f33	-0.20531921
149	0x3e01c231	0.12671734
150	0xbd557711	-0.052115504
151	0x3e7f609e	0.249392
152	0xbeaf42f4	-0.3423077
153	0x3e587a1d	0.21140333
154	0xbe0a2e2d	-0.13494177
155	0x3e8708a6	0.26373786
156	0x3e9be82b	0.30450568
157	0x3e97c418	0.29641795
158	0xbe700e39	-0.23442926
159	0xbe40558a	-0.1878263
160	0xbeb5a93f	-0.35480687
161	0x3e01cf19	0.12676658
162	0xbe8ee014	-0.27905333
163	0x3dd88d44	0.10573819
164	0xbea4b75a	-0.32171136
165	0xbd29ef46	-0.041487955
166	0xbdcb497d	-0.09926126
167	0x3ee811e7	0.45326158
168	0xbea6ca70	-0.32576323
169	0xbeb1118c	-0.345837
170	0xbb54403b	-0.0032386917
171	0xbeafcc17	-0.34335396
172	0x3cf54603	0.02994061
173	0xbeb28634	-0.34868014
174	0x3e9fd6f1	0.31218675
175	0xbd373aaa	-0.04473368
176	0x3e2b060b	0.16701524
177	0xbf02a6bb	-0.5103566
178	0x3ed954cf	0.42447516
179	0xbe92f773	-0.28704414
180	0xbeb26831	-0.34845117
181	0x3e9012b9	0.28139284
182	0xbeac51f3	-0.33656272
183	0x3e40c84a	0.18826404
184	0x3c75aeeb	0.014995317
185	0xbe29da8a	-0.16587272
186	0xbef20708	-0.4727099
187	0xbb89ba9d	-0.0042031542
188	0xbf61af59	-0.88158184
189	0x3dac4650	0.084118485
190	0xbd04ccc9	-0.03242186
191	0x3e2fbf48	0.17162812
192	0x3f001e3b	0.5004613
193	0x3e58e3da	0.21180668
194	0xbed38850	-0.41314936
195	0xbdc6a057	-0.09698551
196	0xbe35394c	-0.17697638
197	0x3e78e769	0.24307026
198	0x3e83fd03	0.2577897
199	0xbef4b355	-0.4779307
200	0x3e3f60fe	0.18689343
201	0xbece7591	-0.4032407
202	0xbed4bd41	-0.4155064
203	0x3dc2b02d	0.09506259
204	0xbe9effd2	-0.3105455
205	0x3e9ce693	0.30644664
206	0x3d89b2f4	0.06723586
207	0x3e827c0d	0.25485268
208	0x3e4a12fa	0.19733801
209	0xbe9e04f9	-0.3086317
210	0xbec046ab	-0.37553915
211	0xbe8f02f4	-0.2793194
212	0xbe3ab613	-0.18233518
213	0xbe755f12	-0.23962048
214	0x3f0457a8	0.5169625
215	0xbf0bc4e1	-0.5459729
216	0x3eb2510a	0.34827453
217	0x3d66d61e	0.05635654
218	0xbe89fa0a	-0.26948577
219	0xbd9e039c	-0.07715532
220	0xbef639a9	-0.48090866
221	0x3e9566d4	0.29180014
222	0x3ea03cbe	0.31296343
223	0x3f5de3e1	0.8667584
224	0x3d768212	0.06018264
225	0xbf073f51	-0.5283099
226	0xbabe7f19	-0.0014533728
227	0xbc929f99	-0.017898368
228	0xbd5661d7	-0.0523394
229	0xbdb3f9b8	-0.087878644
230	0xbeb01d94	-0.34397566
231	0xbb92f72d	-0.004485032
232	0xbedf1161	-0.43567947
233	0xbef3f544	-0.4764806
234	0xbdddcc7d	-0.10830019
235	0xbe569385	-0.20954712
236	0x3e691f4b	0.22765844
237	0x3eb91e2f	0.3615584
238	0xbe595204	-0.21222693
239	0x3f0c85df	0.5489177
240	0x3e35db12	0.1775935
241	0xbec45390	-0.38345003
242	0xbe8dc4a7	-0.27689096
243	0xbee8b2eb	-0.45449004
244	0xbe3b3a85	-0.18284042
245	0xbece0518	-0.4023826
246	0x3e8acde6	0.27110213
247	0xbe921c2d	-0.2853712
248	0x3e66c4f3	0.22536068
249	0x3d80ace6	0.06282978
250	0xbeabfc3f	-0.33590886
251	0x3e98431d	0.29738703
252	0xbaa64f92	-0.0012688509
253	0x3ebbbabf	0.36665913
254	0xbed475c3	-0.41496095
255	0xbee2a278	-0.4426458

fc3.bias f4 [2]
0	0x3d682369	0.056674395
1	0xbe6787e0	-0.22610426
