agent_actor_checkpoint_2_1.pth (torch_old, 183788 bytes, 6 tensors)

fc1.weight f4 [256, 48]
000000 a6 e4 41 3e c1 74 41 3f 64 03 3b 3e b5 7d 65 be
       0.18934879 0.7556878 0.18263012 -0.22411235
000010 d5 21 65 3e fc ac 06 bf b5 30 40 3e 31 dd 2e be
       0.22376187 -0.52607703 0.1876858 -0.17076565
000020 11 5f 85 3e 9a c8 62 3f 42 ab 74 be cd 37 fe be
       0.26049092 0.88587344 -0.23893455 -0.49651948
000030 a0 02 52 be 17 e4 17 bf 42 5d 35 be b6 c3 cf be
       -0.20508814 -0.5933241 -0.17711356 -0.40579003
000040 17 c0 8b 3e a7 c2 55 3f d9 4f 29 3d 14 89 06 3e
       0.2729499 0.8350014 0.041335914 0.13138229
000050 ce 9a eb be 16 40 da be ff 9e a3 3d 52 52 4e 3e
       -0.46016544 -0.4262702 0.079893105 0.2014859
000060 dc 1a 1f 3e 5f 97 d3 be bf 38 cd bd ce cf 79 bd
       0.1553759 -0.41326424 -0.10020589 -0.060989194
000070 5c 81 67 be c9 37 14 bf 23 3d b1 bb a8 3c 63 bd
       -0.2260794 -0.5789762 -0.0054088994 -0.05547777
000080 39 dd c5 3e ff 87 7f be a6 57 61 3e f1 ca 15 be
       0.38645342 -0.24954222 0.22006091 -0.14628197
000090 6c 97 3d 3e 91 72 17 bf 0a b4 3f 3e 54 3f cb bd
       0.18514794 -0.5915919 0.18721023 -0.09924188
0000a0 7e 8c ba 3e 51 ab b7 be ff a0 80 bd 94 3e 08 be
       0.36435312 -0.35872892 -0.062807076 -0.13305122
0000b0 50 4c f0 3e 66 b0 d7 be f7 58 84 bc 1f 68 ce bd
       0.46933222 -0.4212677 -0.016155703 -0.10078453
0000c0 85 f6 b0 3e bd bb 39 3d 47 4b 33 be 42 c2 dc be
       0.3456308 0.045345057 -0.17509185 -0.43116957
0000d0 31 cb 27 bd 09 d1 17 bf f1 88 11 be a5 86 d0 be
       -0.040965263 -0.5930334 -0.14212395 -0.40727726
0000e0 02 dd ae 3e 8e 63 eb bb 90 07 ee bd 59 bf 1c bf
       0.3415299 -0.0071834987 -0.11622536 -0.61229473
0000f0 ae c6 81 bd ee 93 48 bf c8 7c dd bc 74 ca 12 bf
       -0.06336723 -0.7835072 -0.02703704 -0.5734017
000100 a6 11 69 3e e4 7e bc bd ae f6 46 3d 63 dc 22 be
       0.22760639 -0.0920389 0.048575096 -0.15904383
000110 ed aa 0b 3d 18 63 88 bf c2 04 0c 3d 31 c4 50 be
       0.034098554 -1.0655241 0.034184225 -0.20387341
000120 0a 76 bf 3e ac 13 80 3d 03 69 9b 3d 59 d1 9c 3e
       0.37394744 0.06253752 0.07588389 0.3062847
000130 af 75 d4 bb dd 30 19 bf 08 7a 93 3d 48 79 83 3e
       -0.0064837555 -0.59840184 0.0720101 0.25678468
000140 75 bd c8 3e 1e f1 7a 3d 57 8e 85 bd 12 04 a9 bd
       0.39207044 0.061265104 -0.0652129 -0.082527295
000150 8e b2 6e 3d b9 44 64 bf c0 98 bc bd ea a3 17 be
       0.05827575 -0.8916736 -0.09208822 -0.14808622
000160 4e 08 8c 3e c6 86 83 3d 61 f2 1c bd 8c a5 00 3e
       0.27350086 0.0642219 -0.038317088 0.12563151
000170 47 a7 0c be b2 37 85 bf 25 78 df bd 34 5f 29 3e
       -0.13735686 -1.0407622 -0.109115876 0.16540223
000180 ff 69 21 3f 40 00 24 3f 0e 7f d0 bc bb 36 8c be
       0.6305236 0.6406288 -0.02545121 -0.27385506
000190 ef 42 1d be 34 37 9b bd e2 1b 5a bd 2b 63 39 be
       -0.15357564 -0.075788885 -0.053249247 -0.18104236
0001a0 f2 3b 05 3f e7 68 24 3f 01 52 9b be 36 30 d1 be
       0.52044594 0.6422257 -0.30336002 -0.40857095
0001b0 0c 94 32 be f3 d9 87 bd 93 0c ab be 4c 34 fb be
       -0.17439288 -0.066333674 -0.3340803 -0.49063337
0001c0 58 33 cc 3e 97 e5 ef 3e fd 37 43 be 3a 4f fb be
       0.39882922 0.4685485 -0.19064327 -0.49083883
0001d0 de ad dd 3c 1c 2b 06 3e a1 4b 53 be 23 b9 f3 be
       0.027060445 0.13102382 -0.20634319 -0.47602186
0001e0 d4 b3 09 3f 00 fe 51 bf a1 cb b5 bc 3a ff 39 be
       0.5379002 -0.820282 -0.022191824 -0.18163767
0001f0 36 aa f1 3d 3a 91 9c bd 14 44 3c 3d bc fb 51 be
       0.11800043 -0.07644887 0.04596336 -0.20506185
000200 48 47 e0 3e 4f 7b 31 bf 98 f1 77 be 7d 98 ba be
       0.43804383 -0.6932878 -0.24213254 -0.36444464
000210 84 ec 03 3e ae b9 4a bd 2a b0 38 be 8c fa ec be
       0.12883192 -0.049493484 -0.18035951 -0.46284902
000220 45 13 eb 3e 2e d9 4e bf f2 88 b6 bc 4e 70 2f bd
       0.4591314 -0.8080014 -0.022282097 -0.04283171
000230 b2 ff 2e bd cd b6 c6 3d e2 a8 ac 3d c5 bb 98 bd
       -0.04272432 0.09702835 0.08430649 -0.07457689
000240 1d b3 ee 3e c6 bf 83 be 4b 80 8b 3c a2 af 9c bf
       0.46621028 -0.2573225 0.017028948 -1.2241099
000250 68 22 ac bd a8 41 ea be 06 aa 84 3d 4e 17 a5 bf
       -0.08405 -0.45753217 0.06477742 -1.2897737
000260 ea cc c9 3e fc 56 16 bf ee e5 3d bd df fc 5b be
       0.3941415 -0.5872648 -0.046361856 -0.21483181
000270 95 48 89 bd fc af c9 be d1 e4 8c bd 79 bf 44 be
       -0.06703297 -0.39392078 -0.06879581 -0.19213666
000280 8e 7e 0e 3f b5 5f 34 bf f3 4e 89 3d 19 fc d8 be
       0.5566186 -0.7045854 0.067045115 -0.42379835
000290 fd 2a a2 3d d8 24 20 bf 86 9a dd bc 33 3e ce be
       0.079183556 -0.6255622 -0.027051222 -0.4028183
0002a0 a2 be 39 3e a0 7e b4 3e 8a 98 89 bb 42 77 13 be
       0.18139127 0.35252857 -0.0041990923 -0.14400962
0002b0 9a de 6a bc 9e 9e fd be f5 b9 be 3c f6 3b 16 be
       -0.014335299 -0.49535078 0.02328203 -0.14671311
0002c0 d2 d0 28 3e c9 80 61 3e ac d2 2b bc ee 95 41 be
       0.16485909 0.22021784 -0.01048724 -0.1890485
0002d0 6f b2 c7 3d 85 7c e0 be da 67 c3 3c 70 38 82 be
       0.097508304 -0.43845 0.023853231 -0.25433683
0002e0 bb 5f 8a 3e f0 8b a7 3e 88 a3 0d 3d a2 85 af 3e
       0.27026162 0.3272395 0.034579784 0.3428164
0002f0 eb 05 a3 bc f1 c2 03 bf 95 95 4a bd 33 0e a9 3e
       -0.019900283 -0.5146933 -0.04945906 0.33018646
000300 bf f1 e9 3e 21 9f 18 3f 1c c6 a2 be 0f 14 95 3e
       0.4569225 0.5961781 -0.3179177 0.29116866
000310 33 8e 9a 3e 99 9e 00 bf b1 9a 80 be 47 bd 87 3e
       0.30186614 -0.50242 -0.2511802 0.26511595
000320 50 57 07 3f d3 a5 14 3f 71 36 c8 3d d1 31 23 3e
       0.52867603 0.5806553 0.09776009 0.15936972
000330 7c 06 b8 3c 0e 63 c2 be 5c 6d fa 3c 8f a3 4c 3e
       0.02246403 -0.37966198 0.030569725 0.19984268
000340 dd 7d d3 3e 99 3c 13 3f e1 5b 61 be 07 92 5e be
       0.41306964 0.5751434 -0.22007705 -0.21735393
000350 31 89 ae be c5 d6 10 be c0 ec 35 be 3d 2d 91 be
       -0.34089044 -0.14144428 -0.17766094 -0.28354827
000360 3f 51 a3 3e 64 22 7c 3c 94 8a 7f 3d 28 e4 a6 be
       0.31897923 0.015389059 0.062388018 -0.32595944
000370 f9 b5 be be 7e 4c ee be 09 a2 f9 3d 62 98 52 be
       -0.3724821 -0.46542734 0.12189109 -0.20565942
000380 84 ae b1 3e da 69 a3 3c 46 6c 3f 3e f7 e1 a4 3e
       0.34703457 0.019947935 0.18693647 0.32203647
000390 f0 9c ee bc 34 63 e8 be ed d1 76 3e f2 1e 85 3e
       -0.029127568 -0.45388186 0.24103518 0.26000172
0003a0 ef 76 9e 3e 6a be ab bd 80 e5 da bd 46 03 19 3d
       0.30950114 -0.08385928 -0.10688305 0.037356637
0003b0 ba 3e cc 3e 00 f6 2a be 6f c9 36 bd 09 81 85 bc
       0.39891607 -0.16695404 -0.044625696 -0.01629688
0003c0 ed bf 17 3e e2 95 9b bf 87 74 a7 bd d8 46 0b bf
       0.14819308 -1.2155116 -0.08176523 -0.54404974
0003d0 27 bd 3e be 29 d1 d0 3d 3f 4b 84 bd 11 a7 0b bf
       -0.18626843 0.10196144 -0.064596646 -0.545518
0003e0 05 df c3 3e 14 c5 87 bf cf 5c 4e 3e bc 3a 09 bf
       0.38256088 -1.0607018 0.20152591 -0.53605247
0003f0 7f 97 a2 be 56 f3 de be df 73 39 3e ef 46 0a bf
       -0.31756207 -0.43545026 0.18110608 -0.54014486

fc1.bias f4 [256]
000000 aa 23 7f be cc 87 ad be cf c7 ae be 4c 27 bd be
       -0.24915949 -0.33892667 -0.34136817 -0.36944044
000010 f8 f2 9d be d1 06 04 bf d5 12 c6 be 5b 9e 52 3d
       -0.30849433 -0.515729 -0.38686243 0.05142055
000020 08 7b 65 be b7 15 a6 be 4c 8b a5 be 41 53 a6 3e
       -0.22410214 -0.32438442 -0.32332838 0.32485393
000030 42 36 8a be e0 20 1f bd ff 1e df be 4d 3d 92 bd
       -0.2699452 -0.03884971 -0.43578336 -0.071405984
000040 a5 ab b9 be 40 e1 13 bf fa 3d 0c bf 4c a8 83 3e
       -0.36263767 -0.5776558 -0.5478207 0.25714338
000050 c0 1d 4c 3d b5 c8 97 be f9 9d 88 be 59 3f 7e be
       0.04983306 -0.29645315 -0.26683024 -0.24828853
000060 86 42 e9 bd e9 16 b9 be 39 f8 b2 be a2 79 41 be
       -0.113896415 -0.36150292 -0.34955004 -0.18894055
000070 3d 3d c8 be c5 54 32 be ba fe b5 be 48 29 98 bc
       -0.3910922 -0.1741515 -0.35545903 -0.018574372
000080 a8 7c 80 be d3 f0 a8 3d a0 28 92 bd ae ba 0e bf
       -0.25095105 0.082490586 -0.07136655 -0.557536
000090 7c dd dd be 8f 53 c1 3d 6a 4a 43 be a2 fe 16 be
       -0.43333042 0.09439766 -0.19071355 -0.14745572
0000a0 86 64 37 be 60 8d 93 be 4d b8 10 be 96 47 c3 3d
       -0.1790944 -0.28818798 -0.14132805 0.09535138
0000b0 c0 8c c9 be 2e 69 32 bd 99 f1 41 be 78 a5 3c be
       -0.39365196 -0.04355734 -0.18939818 -0.18422496
0000c0 e2 c5 f2 bd 8a 54 f4 3d fc 76 89 be ef dc b3 bc
       -0.118541494 0.11930187 -0.2684859 -0.021955935
0000d0 6c 72 87 be cd 0f b6 be 54 57 7c be e6 93 c1 be
       -0.26454484 -0.3555893 -0.24642688 -0.3780815
0000e0 f2 a7 cf 3c 7b 1a a1 be 06 1d 5a be 6c 0f 6c 3e
       0.025348637 -0.31465515 -0.21300134 0.23052758
0000f0 da 1d fa bd 24 cf 76 be 60 fd c9 be 28 0b a2 be
       -0.12212725 -0.24102455 -0.39451122 -0.31649137
000100 37 eb 88 be 57 e3 88 be 73 b5 fc be d7 e6 62 3d
       -0.26741955 -0.26735947 -0.49357185 0.055395927
000110 0f db 03 bf 0d d9 07 bd 51 33 0d 3d ab 4f e9 bd
       -0.5150613 -0.03316598 0.034472767 -0.113921486
000120 27 07 5a be aa b1 d0 3c 4b 6e 84 3c 0e 7e 50 be
       -0.21291791 0.025475342 0.016165873 -0.20360586
000130 e4 89 b4 bd 92 5a 64 be 6a 81 9d be 83 7c a6 be
       -0.08815363 -0.22300175 -0.30762798 -0.3251687
000140 02 bc 8f 3e 94 45 3b bd 35 87 00 be 55 4f c1 be
       0.28073126 -0.04572065 -0.12551577 -0.37755838
000150 99 ac a6 be 28 af 02 be 49 f4 5e be f0 e4 a2 be
       -0.32553557 -0.1276213 -0.21772875 -0.3181529
000160 3c 85 4b be dc 21 40 3d b0 3e d6 be 58 38 fe bc
       -0.19875044 0.04690729 -0.41844702 -0.031032726
000170 06 50 2c be 53 87 8e be 03 ef 40 3d ff c9 6d be
       -0.16827402 -0.2783762 0.04710294 -0.23221587
000180 93 f8 e8 3d ab 76 74 be 4e 31 10 be 13 bb af bd
       0.11375537 -0.23873393 -0.14081308 -0.085806035
000190 0a 35 0e bf 05 90 f8 be 7e dd 15 ba ac 06 a2 bb
       -0.5554968 -0.48547378 -0.0005716904 -0.004944643
0001a0 16 e2 c9 be 8d 22 cd bd 40 60 1b be 8c 23 b5 be
       -0.39430302 -0.10016356 -0.15173435 -0.35378683
0001b0 56 d6 27 be 0d 69 9e bd 84 03 e6 be 16 67 17 be
       -0.16390356 -0.077348806 -0.44924557 -0.14785418
0001c0 c7 9d c7 be 2a 54 d3 be e9 de 04 bf 4a 3f a6 3d
       -0.38987562 -0.4127515 -0.51902634 0.0811754
0001d0 02 2e aa be 70 dd 33 bd 38 ef f1 be 19 94 f9 be
       -0.33238226 -0.04391235 -0.47252822 -0.48745802
0001e0 27 33 a0 be 12 95 b4 be 04 48 a8 be 5a 50 98 be
       -0.31289026 -0.35269982 -0.32867444 -0.29748803
0001f0 cd 1b 99 be 72 a3 a9 3d aa d0 e1 be 0a dd 37 be
       -0.29904023 0.08283128 -0.4410451 -0.17955413
000200 4f 93 38 3e a4 14 85 be 14 11 98 be 22 fc b0 be
       0.18024944 -0.2599231 -0.2970053 -0.34567362
000210 af 11 c2 be 03 8e bd be ac 4f c8 bd 77 32 c3 bd
       -0.37904117 -0.3702241 -0.09780821 -0.0953111
000220 64 a4 34 3e 13 f1 9c bd 41 65 b3 bd 22 d9 c9 be
       0.17640835 -0.07663169 -0.08759547 -0.39423472
000230 4e cf ab 3e 26 8f d1 be 28 f1 48 be f1 37 b5 be
       0.33556598 -0.40929526 -0.19623244 -0.35394242
000240 17 3c 79 be d3 9d 88 3e 22 9f df bd 54 c7 59 3c
       -0.24339329 0.2668291 -0.10919024 0.013292152
000250 b8 9b 52 3e ac 72 fc be 35 0c 92 be 3e d1 4e be
       0.20567214 -0.49306238 -0.28524938 -0.20197007
000260 4b 14 7d be 6d f4 3c be a9 14 22 be cf 7c 9d be
       -0.24714772 -0.18452616 -0.15828194 -0.30759284
000270 09 a9 aa bd 63 a8 94 be 0e 24 22 be ff 83 30 be
       -0.08333022 -0.2903472 -0.15834066 -0.17237853
000280 98 cc e1 bd 76 ac 64 bc d9 89 7d be 7f 6e 6a 3e
       -0.11025351 -0.0139571335 -0.24759616 0.22893713
000290 28 f8 1a 3e 17 1c 82 be ec 4e 0e bf 66 a6 3e be
       0.15133727 -0.25412056 -0.55589175 -0.18618163
0002a0 1b 97 a6 be 19 7b 41 be 1d 16 d1 3e 14 1a 0a bd
       -0.3253716 -0.18894614 0.40837184 -0.033716276
0002b0 8f fe b4 be de 0e 1b bd e1 5d b2 be e4 df 00 bf
       -0.35350463 -0.037855975 -0.3483725 -0.5034163
0002c0 d3 14 32 be ce e7 c9 be af 7b 6b be 60 7b b5 be
       -0.17390756 -0.39434665 -0.229964 -0.3544569
0002d0 76 1b d7 be fa 96 71 be 66 7c 15 be d9 43 3a be
       -0.4201314 -0.23592749 -0.14598235 -0.18189944
0002e0 94 ab 3e be 3f 38 a7 3d 45 f6 ec be a9 aa bf 3d
       -0.1862014 0.08165025 -0.4628164 0.09358723
0002f0 e1 05 20 be c9 09 0b be 01 18 61 be 52 5e e1 be
       -0.15627243 -0.13577951 -0.21981813 -0.44017273
000300 5a 5f 7c be e5 1b 8b be 5d 98 75 be b4 b4 8d be
       -0.24645749 -0.2716972 -0.23983903 -0.27676928
000310 4c 90 41 be d0 1b 4a 3e ee 4f 1d be 9b 91 0f be
       -0.18902701 0.19737172 -0.15362522 -0.14020388
000320 d1 a4 73 3e 69 0f 7c be 47 fe c8 3e 13 9e 08 bf
       0.23793341 -0.24615254 0.39256498 -0.533662
000330 4a 0e 91 bc 23 a2 ec bd e2 0d 9a 3d e3 7f 63 be
       -0.017707009 -0.115543626 0.07522179 -0.22216754
000340 8c e7 e8 bd 72 e7 27 3d de be 7b be 8f 12 c7 be
       -0.11372289 0.040992208 -0.24584529 -0.38881347
000350 42 03 ad bd 4b eb c5 3d 50 e8 8a be 62 1b 82 bd
       -0.08447887 0.09664019 -0.27130365 -0.06352879
000360 72 32 86 be f5 4b 57 be 05 4c 08 bf ed 64 7a be
       -0.26210362 -0.21025069 -0.53240997 -0.24452563
000370 22 1b da 3d ad 57 69 be bd 2e 5b bd 81 50 48 be
       0.106497064 -0.22787352 -0.05351137 -0.1956196
000380 fe f9 54 3d 13 19 9a be a7 7a f9 be 88 b4 b8 be
       0.051996224 -0.30097255 -0.4872639 -0.36075234
000390 ed 13 33 3d d3 bd 7c be 0e 4e 09 bf 3a cc 6c be
       0.043720175 -0.24681787 -0.53634727 -0.23124781
0003a0 fa fc 00 be 14 f7 e8 be e7 a8 e6 be 0b d6 ad be
       -0.12596503 -0.45501006 -0.45050737 -0.33952364
0003b0 9c 95 d8 3d 34 47 32 bd e0 e1 c9 3c 3b 7e ae 3c
       0.10575411 -0.043524936 0.024643838 0.021300426
0003c0 7c ff d7 bc 32 68 fe be f1 29 34 bd 1d 6f a9 be
       -0.026366942 -0.4968887 -0.04398531 -0.33092585
0003d0 1d 4d 9a be 99 f4 14 be 13 67 0b be 53 2b 37 be
       -0.30136958 -0.14546432 -0.13613538 -0.1788762
0003e0 8d c9 cf be cb 5a ce bd a3 09 fd be c0 98 c8 be
       -0.4058346 -0.10075911 -0.49421415 -0.3917904
0003f0 7f ef 2c 3c bd 4b ba 3d 0d 2c 85 bd 37 1d d1 bd
       0.010555147 0.09096477 -0.06502543 -0.102106504

fc2.weight f4 [128, 256]
000000 b0 56 1d be 70 7b aa bd 71 6a d3 bc 01 4a c3 3e
       -0.153651 -0.08324325 -0.025807591 0.38142398
000010 e6 71 32 bd 77 96 b5 be 78 2c 80 bc 47 72 89 3e
       -0.043565653 -0.35466358 -0.015646204 0.26845
000020 b4 02 1b be 26 2f 09 be 17 12 4d 3e 29 4f 01 3f
       -0.1513775 -0.13396892 0.20026432 0.50511414
000030 59 a3 73 be c8 4f 25 be c2 d8 e1 be 60 7e d5 bd
       -0.23792781 -0.16143715 -0.44110686 -0.10424495
000040 61 22 14 be 22 72 94 bd 7a 03 c8 3d 19 0b e0 bd
       -0.1446624 -0.072483316 0.09766288 -0.10939617
000050 67 2d e6 3d 0f 3d 19 3e 5a 87 7f be 94 57 eb be
       0.112391286 0.14964698 -0.24953976 -0.45965254
000060 4b b6 1c be 61 ee 36 bf 3f bb d6 be 5a 9e 41 bf
       -0.15303914 -0.7145749 -0.41939732 -0.7563225
000070 ce 22 f0 3d 1c da d1 bd 53 e5 09 be f4 32 71 3e
       0.117253885 -0.10246679 -0.13466386 0.23554593
000080 2b 80 b1 bb af bc fd 3e 40 32 b2 bd a9 ec 0b bf
       -0.00541689 0.49558017 -0.08700991 -0.5465799
000090 57 07 47 3d dd 31 58 3e be a0 83 be 9e cb 62 3e
       0.048590984 0.21112771 -0.25708574 0.22147986
0000a0 ff 2a 20 3d cc 45 d3 be ac 75 c2 be 21 6d 1b 3e
       0.039103504 -0.41264188 -0.37980402 0.15178348
0000b0 f6 5a a7 be 4b 6b b6 be 3f df d4 bd 66 8c 75 bc
       -0.32686585 -0.35628733 -0.10394143 -0.014987087
0000c0 0e bb fa bd c2 55 97 be 08 ac 25 3e f9 e0 49 3e
       -0.12242709 -0.29557616 0.16178906 0.19714727
0000d0 a4 5e 13 3e 73 58 49 3e a6 0d d5 bc 7d 4e 86 be
       0.14391571 0.19662647 -0.026007485 -0.26231757
0000e0 72 a4 00 c0 99 07 75 be 2e 1c 9c bc 81 80 07 3f
       -2.010037 -0.2392868 -0.019056406 0.52930456
0000f0 8e f3 04 be ce e7 14 3e 11 1e 8f be 28 b6 44 bd
       -0.12983534 0.14541551 -0.27952626 -0.04802528
000100 2b 15 e5 bd 6d d0 76 3e 95 99 ec 3c 75 61 72 3e
       -0.11185678 0.24102946 0.028881827 0.2366999
000110 7b 6a 93 bd db ce 63 3e 30 e5 5c 3e 74 6b 46 3e
       -0.07198044 0.22246878 0.21571803 0.19376928
000120 03 76 90 3d 1b b0 c4 be 7d 67 24 3e 80 76 8c 3e
       0.07053759 -0.38415608 0.16055103 0.27434158
000130 f9 60 44 3e 81 66 21 be 93 91 35 3d e3 01 11 3c
       0.19177617 -0.15761758 0.044328284 0.0088505475
000140 ee c2 4b bf 07 b8 01 be 78 ef 85 3e ee 6b c7 3e
       -0.79594314 -0.12667857 0.26159263 0.3894953
000150 3a 08 03 be 59 82 ba 3e ac 91 a5 3e d4 df 44 bd
       -0.12796107 0.36427572 0.323377 -0.04806502
000160 ce 64 b1 bd e8 65 21 bf 9d 8e 3e be 71 09 33 bf
       -0.08661805 -0.6304612 -0.1860909 -0.6993628
000170 ed 70 ac be ad 54 ea be 9c 31 5e 3e a9 2f 43 3e
       -0.33679906 -0.45767727 0.21698612 0.1906115
000180 1e 6b fc 3d ec b7 94 be bb 82 45 3e 6a 4b 0c 3f
       0.123251185 -0.2904657 0.19288151 0.5480257
000190 d8 05 be 3d 3c a0 25 be 18 26 c2 bd b1 b4 c3 bd
       0.09278458 -0.16174406 -0.09479922 -0.095559485
0001a0 74 93 3a 3d 48 90 94 be 77 56 89 3e 55 66 a2 bc
       0.04555078 -0.29016328 0.2682378 -0.019824186
0001b0 82 6c 20 bd 94 ba ca bd 25 8f 03 3f 2c 6b 1d 3e
       -0.03916598 -0.09898868 0.51390296 0.15372914
0001c0 37 f1 ca be 00 3b 93 3d b8 50 8e be b7 e1 6d 3e
       -0.39637157 0.07188988 -0.2779596 0.23230635
0001d0 43 01 25 bf 0c ba cb 3d b5 ed 1a bd 47 8b 4d be
       -0.6445505 0.09947595 -0.03782435 -0.20072661
0001e0 e3 8e dd be c9 51 d3 3c b3 ed 1f be 3a 60 e8 bd
       -0.43273076 0.025795834 -0.15618019 -0.11346479
0001f0 74 7f b1 3d 73 5c 87 3e 53 a9 9d bb 68 47 7f bf
       0.08666888 0.2643772 -0.004811445 -0.9971833
000200 9f 77 87 bf ef 8e d3 bd bd 23 fb bc fc 70 41 be
       -1.058338 -0.10329997 -0.03065669 -0.18890756
000210 e9 a6 86 3d 76 5b 9f 3d 1c 3f 34 3e 9a 00 29 3c
       0.06574804 0.07781117 0.176022 0.010315085
000220 96 87 d8 3e d2 8a 1e bd f7 01 a4 3e 88 6a 61 3e
       0.42290944 -0.038706608 0.3203275 0.22013295
000230 94 80 3f 3f 47 62 5b bd 6b 9e e3 bd a4 5b 8f 3b
       0.7480557 -0.05356052 -0.111142 0.004374938
000240 17 56 32 be 16 06 a6 3e 45 8b d0 be 43 33 92 3e
       -0.17415653 0.32426518 -0.40731254 0.28554735
000250 2b 9d 83 3e 73 be 7a be fd 8d 0e 3e 99 f0 ec bd
       0.25705847 -0.24486713 0.13921352 -0.11569328
000260 df ae e8 bd 2c 11 a7 be 04 47 e5 3d ff 0d 06 3e
       -0.11361479 -0.3263029 0.11195186 0.13091277
000270 a2 c5 e2 be 75 f8 82 bd 23 35 91 bd d9 5f 23 be
       -0.44291407 -0.06395046 -0.07090213 -0.15954532
000280 fe a0 a0 be 87 a1 03 3e 2d 4e f1 3d 05 da 98 bd
       -0.31372827 0.12854587 0.11782489 -0.07463459
000290 1c b8 eb 3e ef 33 25 be 31 e7 1d 3e b8 07 9d 3e
       0.46038902 -0.16133092 0.15420224 0.3066995
0002a0 53 98 c5 bd 4a 7c 8e 3e ac e6 e3 3d 27 66 da be
       -0.09648194 0.278292 0.111279815 -0.4265606
0002b0 dc e3 06 3e 05 da 85 3e 10 b9 43 3e 17 85 38 be
       0.13172859 0.26142898 0.19113564 -0.1801952
0002c0 64 17 85 be b9 81 40 bf 69 ad 83 3d 55 e1 50 bf
       -0.25994408 -0.7519794 0.0642956 -0.8159383
0002d0 fc 66 0e 3e 36 c4 3a 3e be e0 2b 3d 4c 95 f2 3e
       0.13906473 0.18238911 0.041962378 0.4737953
0002e0 bc 0c 6b 3e 52 10 8e 3e 70 1c 02 bf 19 48 84 bc
       0.22954077 0.27746826 -0.5082464 -0.01614766
0002f0 1f ea 9e be fa 07 c8 3d 5e cd 01 bf 79 4c 19 bf
       -0.31037995 0.097671464 -0.5070399 -0.59882313
000300 ec c6 ae bd d0 c6 92 be a1 30 1b bd 0b b5 c0 3d
       -0.08534035 -0.28667307 -0.037888173 0.09409531
000310 e9 6d 28 3d 72 6b a1 3e 59 e6 e6 bd 41 f0 b1 be
       0.041120443 0.31527287 -0.11274404 -0.34753612
000320 17 04 f2 3e 32 8f 49 bd 41 d5 d6 3e 9c 1c 3b 3d
       0.47268745 -0.049208827 0.41959575 0.04568158
000330 95 9b 15 bc a3 ac b5 be d5 76 a4 3e 2e 1b 88 be
       -0.009131332 -0.35483274 0.32121912 -0.26583236
000340 bf b1 a1 bd b2 64 05 3f ae 58 8c be 63 d3 80 bf
       -0.078952305 0.52106774 -0.27411407 -1.006451
000350 89 f0 24 bf c4 67 fa bb 64 6e 4c be f4 92 8a 3d
       -0.6442953 -0.0076417644 -0.19963986 0.0676631
000360 c7 24 88 bf 4d f2 5a bf d5 68 41 3e 56 43 55 be
       -1.0636224 -0.8552597 0.18887646 -0.20826468
000370 db ba 56 3e 10 eb 5d bd bc 5d 4e 3d b4 4e 23 3e
       0.20969717 -0.05417925 0.05038236 0.15947992
000380 4f 83 21 3e 26 65 27 be 5c 0e af 3d d5 ea 5f 3e
       0.15772747 -0.16347179 0.08547661 0.21866925
000390 f9 2c 92 bd 3d ef 9d 3e de 3a 0f bd b8 40 42 3e
       -0.07137484 0.30846587 -0.03496825 0.1897
0003a0 58 20 da be ca 5a ac 3c 40 a2 5d 3d b7 96 1c be
       -0.426028 0.021039385 0.05410981 -0.15291868
0003b0 03 73 3d 3e 14 87 f1 3d 99 a4 c6 3d 6f 31 93 3e
       0.18500905 0.11793342 0.09699363 0.28748652
0003c0 d8 7c 3c bc a4 55 c2 be 16 b0 d8 be 06 7e 10 3e
       -0.011504374 -0.37955964 -0.42321843 0.14110574
0003d0 76 e5 bb 3d 15 ba 0a bf be 86 8d 3d ac 2f 76 3d
       0.091746256 -0.5419019 0.06910466 0.060104057
0003e0 a3 c1 82 bd 71 c0 a8 bd ed cf 36 bf 49 d1 f7 be
       -0.063845895 -0.0823983 -0.7141102 -0.4840186
0003f0 f3 97 4a be 10 46 dd 3e ff 44 86 bd 40 c3 ff 3d
       -0.19784527 0.43217516 -0.06556129 0.12488413

fc2.bias f4 [128]
000000 19 b6 23 be 51 74 9a be 9f 5c a0 bd cc a6 16 bf
       -0.15987433 -0.30166867 -0.07830166 -0.5884826
000010 20 f0 49 3e b9 dd a9 bd 6d 42 ed be 95 36 04 bd
       0.19720507 -0.08294243 -0.4633974 -0.032278616
000020 1c 81 66 bc 04 4d 13 3e b5 7c ab 3d da 4d 40 bd
       -0.014068868 0.14384848 0.08373395 -0.046949245
000030 53 40 d7 be 44 60 f9 bc e9 d7 cd be 33 11 8a be
       -0.42041263 -0.03044141 -0.4020379 -0.26966247
000040 8b bd 10 3e 2e 7c bc bd 3b 1c a0 3e 74 73 b0 3b
       0.14134805 -0.09203373 0.31271538 0.005384857
000050 3e cc a5 bd e3 63 20 be 75 a7 65 be cd e9 14 be
       -0.08095597 -0.15663104 -0.22427161 -0.14542313
000060 73 6d 42 be a3 f5 db 3d 46 d4 37 be 91 b9 e7 be
       -0.18987064 0.10740211 -0.1795207 -0.45258763
000070 cb 3d bd be ef 89 04 be c4 84 81 bc f3 53 a2 be
       -0.36961207 -0.12943242 -0.015810378 -0.31704673
000080 d4 4e aa be 13 00 32 be c5 34 db be 66 29 38 bd
       -0.33263266 -0.17382841 -0.42813697 -0.044961356
000090 63 25 01 be 62 35 ee bd 56 00 25 be d4 e9 bd be
       -0.12611918 -0.11631276 -0.1611341 -0.3709246
0000a0 09 98 31 be cd 0a 46 bd b2 11 68 bd 2e d4 04 bf
       -0.17343153 -0.048350144 -0.0566575 -0.5188626
0000b0 85 fc 86 be a6 e3 34 be e8 57 14 3e bb 8a 64 be
       -0.26364532 -0.17664966 0.14486659 -0.22318546
0000c0 af e9 17 be 61 ee 6a bd 77 8f aa 3e 17 6f b4 3e
       -0.14835237 -0.057356242 0.3331258 0.35241005
0000d0 41 e3 b9 be cb 88 e1 bd 47 78 c2 3e 15 e0 47 bd
       -0.36306193 -0.11012419 0.3798239 -0.048797686
0000e0 cb 23 b2 bd cf b2 f6 be d2 51 b2 39 be 2b df bc
       -0.08698233 -0.48183295 0.00034011767 -0.027242538
0000f0 86 9f b5 be 91 b4 9a 3e e0 39 77 be 68 be 78 3e
       -0.3547327 0.30215886 -0.24143171 0.24291384
000100 74 f3 5e be 1d 72 f6 3d 5a ae b0 be 92 7a be be
       -0.21772557 0.12033484 -0.3450802 -0.3720289
000110 d7 e6 6b be bf b4 51 be 56 d9 c3 3b 5f 75 f9 be
       -0.23037277 -0.20479105 0.005976836 -0.4872236
000120 23 3f 5f be c5 70 8e be eb 3d be bd 89 c8 7a be
       -0.21801428 -0.2782041 -0.09289154 -0.2449056
000130 98 0c 3f 3d be 93 00 bf af 6d 85 3e 12 34 3e 3e
       0.04664287 -0.50225437 0.26060244 0.18574551
000140 a5 e9 0c bf 07 ed b6 bd 24 72 e2 bd b7 49 90 be
       -0.55044013 -0.08931928 -0.11056927 -0.2818124
000150 3a 67 bc be d5 96 cc be 06 e6 16 bf a8 d5 f4 3a
       -0.36797506 -0.39958826 -0.5894474 0.0018679397
000160 33 c3 17 bd 84 ea 2f bd 14 4d 7f bd 72 91 da be
       -0.03705139 -0.04294826 -0.062329367 -0.4268909
000170 b8 12 23 be 2c 62 fc 3d e2 9e cd be ea f5 c4 bd
       -0.1592511 0.12323412 -0.4016028 -0.09617217
000180 86 3e ad bd 90 be 2b be cc 9c 83 bd 28 3d eb be
       -0.08459191 -0.16771913 -0.06426391 -0.45945096
000190 26 1f c0 bc 01 04 21 bb 97 3e 10 3e a7 01 8b bd
       -0.023452353 -0.0024569037 0.14086376 -0.067874245
0001a0 4e 94 18 be 4f 05 d3 bd a6 51 a6 bd c2 2c 05 bf
       -0.14900324 -0.10303747 -0.08121042 -0.5202142
0001b0 4d 59 32 bf 0f 14 0d bf 78 ae 3a be e5 26 33 be
       -0.6966751 -0.5510873 -0.18230617 -0.17495306
0001c0 e1 77 b4 3d bc 57 69 be 5f cc 8a 3e 75 91 3c bc
       0.088119276 -0.22787374 0.27109048 -0.011509289
0001d0 6d f1 ab be ef 1f bc 3e 74 78 e6 be fe dd fb bd
       -0.3358263 0.36743113 -0.45013773 -0.12298201
0001e0 a1 01 a7 be 71 eb ba 3d 9c 76 ca 3d 15 a9 f0 bd
       -0.3261843 0.09126938 0.09885904 -0.11751
0001f0 8b 75 b7 be b7 fe 46 be 37 ff 9b be cb 4b 81 be
       -0.35831866 -0.19433104 -0.3046815 -0.25253138

fc3.weight f4 [2, 128]
000000 25 73 03 3f 6b d1 62 3e 52 96 62 3c d4 4e 9b bb
       0.5134757 0.22150199 0.0138297845 -0.0047396217
000010 7d 16 06 be 16 24 35 be f3 f5 69 3e ad d2 fc 3b
       -0.13094516 -0.17689547 0.22847728 0.007715544
000020 3f e1 88 bd 2a 01 1c be 85 a2 b0 3e 74 95 a0 3b
       -0.06683587 -0.15234819 0.34498993 0.0049006287
000030 fa 85 51 3e 52 36 a1 be d1 a8 49 be 48 3e fa 3d
       0.20461264 -0.31486756 -0.19693305 0.122189105
000040 1b e0 5f be 82 8d 36 3c ca 66 6a be 7c bc 83 be
       -0.21862833 0.0111421365 -0.22890773 -0.2572974
000050 c2 5a 9d 3d 7b 0d 7b 3c a4 4c 1c 3e 84 68 11 3e
       0.07683326 0.015323038 0.15263611 0.14200026
000060 65 aa 76 3e bd 97 79 3e ef 51 1d be a8 42 41 bb
       0.24088438 0.2437429 -0.15363286 -0.0029489193
000070 19 ae 00 3e e3 46 08 3b d9 08 c3 bd bc 43 cd bd
       0.12566413 0.0020794205 -0.09523172 -0.10022685
000080 27 93 e3 bd ac 18 39 3e 27 ed df bd ae a3 60 3e
       -0.111120515 0.18075818 -0.10933905 0.21937439
000090 3e dc 04 3e 4e df 50 3e af 1e a0 3e 70 58 f2 bd
       0.1297464 0.20397684 0.3127341 -0.11833274
0000a0 0f 92 95 bd 45 6f 3f bb 57 78 21 be 47 f0 a0 3d
       -0.07303249 -0.002921061 -0.15768562 0.07858329
0000b0 b8 f3 58 be f6 e6 3b bc bd 1f 08 be 32 9b ec 3d
       -0.21186721 -0.01146864 -0.13293357 0.11553039
0000c0 74 02 16 3e 18 99 62 3e de 24 6f 3e c6 2e 41 3e
       0.14649373 0.22128713 0.23353907 0.18865499
0000d0 8b 7f 8c 3c fb 58 f0 3c db e3 be bc df 67 7f 3e
       0.017150661 0.029339304 -0.02330201 0.24941967
0000e0 06 11 dc 3e 04 81 47 3d bb 47 b0 bc 3a b7 14 3d
       0.42981738 0.048707023 -0.021518579 0.03630755
0000f0 79 bf 9b 3d 78 86 38 bd 22 a1 ff 3c 8b 41 1f 3e
       0.0760488 -0.045050114 0.031204764 0.15552346
000100 36 c2 8a 3e 04 b4 51 3d 6e 0a 81 3d 5c ee 82 3e
       0.27101296 0.051197067 0.063008174 0.2557248
000110 fe 54 32 be 08 55 4c 3c a4 46 6b 3e 97 ef 2e 3e
       -0.17415234 0.012471445 0.22976166 0.17083584
000120 5d e8 d8 bd 39 ee a5 3d b7 23 0e 3d d4 23 c1 3d
       -0.10591195 0.08102078 0.03470203 0.09430662
000130 cb 6d 2d 3d cb 17 91 be 27 fb b4 bd 37 87 a5 3e
       0.042341035 -0.28338465 -0.08836966 0.32329723
000140 ad a0 ce 3c 4b c1 3f bb 02 b3 13 3e 36 25 fe bd
       0.0252231 -0.0029259499 0.14423755 -0.12409441
000150 8c 92 14 be 30 c2 48 bb dc 45 29 be 19 19 ab 3e
       -0.14509028 -0.0030633323 -0.16530555 0.33417585
000160 d3 6d a0 3d 0e d8 fc 3c df e8 49 be 68 65 b9 3d
       0.07833447 0.030864742 -0.1971774 0.09052545
000170 ea 2f ca bd 60 84 f6 bd d0 cf df 3d fd 08 a9 bd
       -0.0987242 -0.12036967 0.10928309 -0.082536675
000180 cc d8 20 be 39 d8 1d 3c f8 44 7f 3e 0d f9 a8 3d
       -0.15707701 0.009634071 0.24928653 0.08250628
000190 92 f6 33 be 81 7f 2c bd 7b 6b 05 3e bb 99 0d be
       -0.17574528 -0.042113785 0.13029282 -0.13828175
0001a0 ad 3a 72 be 62 a6 c8 3e 80 b0 86 3b cf 6a 20 bc
       -0.23655196 0.3918944 0.004110396 -0.00979109
0001b0 38 a7 16 3e 78 55 b5 3d c3 e3 1a 3e d5 c3 c7 3e
       0.14712226 0.088541925 0.15125947 0.39016595
0001c0 d1 47 27 be 78 fe 61 3e 64 eb 4e 3d 97 89 e7 be
       -0.1633599 0.22069728 0.050517455 -0.4522216
0001d0 8e 20 c5 bd 06 fe 01 be ee c6 b2 bc 6e f6 62 3e
       -0.0962535 -0.12694559 -0.021823373 0.22164318
0001e0 9a 28 a9 3e 6e 2f 67 3e 21 0a 8d 3e 00 a7 4a 3b
       0.3303879 0.22576687 0.2754679 0.0030922294
0001f0 4e 46 40 be 7e 00 af bd 5c e1 79 3e b0 a5 14 3e
       -0.18776819 -0.08545016 0.24402374 0.1451633
000200 2e 2b a4 be 6b 59 a5 be 8f e0 c0 bc ac 81 e0 be
       -0.32064193 -0.32294783 -0.023544578 -0.43848932
000210 6f 96 49 3e 7c a1 7d be cb 71 f6 be 80 24 6f bb
       0.19686292 -0.24768633 -0.48133692 -0.0036490262
000220 f8 f7 dc be 0e 4e fb 3e a5 f3 a3 3d fa 17 fa 3c
       -0.43157935 0.49082989 0.08005456 0.030529011
000230 0d b8 24 be 61 70 39 be b3 a9 a9 be 03 af ee 3e
       -0.16085835 -0.18109275 -0.33137283 0.46617898
000240 8a 0a b4 3e 42 df 71 bd a0 05 83 3e 8d d0 a3 bc
       0.3516429 -0.059050806 0.2559023 -0.019996906
000250 57 69 f9 3e 97 ed 16 bf 76 07 0c be e7 9f ba bc
       0.4871318 -0.58956283 -0.13674721 -0.022781326
000260 b9 03 b9 3d 1b e2 1a 3e 6e 4b 73 bc a7 e5 cc be
       0.09033913 0.15125315 -0.014849527 -0.4001896
000270 45 34 b1 be e1 e0 d6 3c 99 99 41 3f 4b ab a2 3d
       -0.3461019 0.026230277 0.75624996 0.07942828
000280 55 b9 c6 be 50 74 cf be 6a 45 a7 be c7 e0 58 3e
       -0.38813272 -0.40518427 -0.32670146 0.21179496
000290 16 44 57 3e 74 17 2b 3c 9f d5 ab 3e 09 a6 ba be
       0.21022066 0.010442603 0.33561417 -0.364548
0002a0 25 ca 37 be 2e 80 b2 bc 21 f1 4a be 46 45 01 bf
       -0.17948206 -0.021789636 -0.19818546 -0.5049633
0002b0 51 0a 76 3e ec 47 20 bc 2a cc c2 3e 95 0f 9f 3e
       0.24027373 -0.0097827725 0.3804639 0.31066576
0002c0 45 69 e2 be 45 1a fb bd 3f e8 c2 bd f1 9a 00 3f
       -0.4422094 -0.1226087 -0.09516954 0.5023642
0002d0 24 7e 02 bf 58 e0 9b bc 33 5e a6 3e f8 c1 25 3e
       -0.50973725 -0.019027874 0.32493743 0.16187274
0002e0 8b 5b 04 bd cd ad 89 be 3f 42 2d bf 86 4b 64 be
       -0.032313865 -0.26890412 -0.6767921 -0.22294435
0002f0 67 67 18 bf 56 f8 26 3f a1 7b e4 3e 4f d6 00 bd
       -0.5953278 0.6522268 0.4462557 -0.03145438
000300 97 6e 84 be fd 96 ba 3e 5d a0 80 3e ca 54 85 3c
       -0.25865623 0.3644332 0.25122347 0.016275782
000310 6c 0d b7 be 95 48 09 bf 02 df 61 3e b3 20 af be
       -0.35752428 -0.53626376 0.22057727 -0.34204635
000320 b6 37 de be 2c 56 b9 be d0 cb 03 3f 8d c3 89 3e
       -0.4340188 -0.36198556 0.5148287 0.26907006
000330 ad 7b 2f 3f 5d 96 eb bd 57 75 b1 3e 8e d3 fd 3d
       0.6854809 -0.11503289 0.34659836 0.123938665
000340 9c d6 af 3e 0e d1 46 bd 53 4e 65 bf 62 eb a9 3e
       0.3434342 -0.048539214 -0.8957264 0.33187395
000350 5b 7b ef be a1 5b 1a 3f 2b c8 d8 be 22 ed 1b 3c
       -0.467738 0.60296065 -0.42340216 0.009516986
000360 03 a0 35 be 47 e8 03 bf fd 90 21 3e d4 95 d3 be
       -0.17736821 -0.515263 0.15777965 -0.41325247
000370 15 2d e1 3d 36 3b 18 3e 45 25 87 be ad 38 5d bb
       0.10994927 0.14866337 -0.26395622 -0.0033755705
000380 ae 83 dc be a3 cc d5 bc 6a 90 5d 3e d8 5d 65 be
       -0.43069214 -0.026098555 0.21637121 -0.2239908
000390 aa 98 11 be 21 44 b4 bd 62 c4 9e 3e 79 f7 cd be
       -0.14218393 -0.08802057 0.31009203 -0.4022787
0003a0 f9 f9 cb 3e 92 f5 d7 bc da cd f9 be 0d 40 0c bf
       0.39839152 -0.026362214 -0.48789865 -0.54785234
0003b0 09 ee 9a be c9 58 af be 42 c4 8a be f7 e5 57 bd
       -0.3025973 -0.34247425 -0.27102858 -0.052709546
0003c0 80 4e 15 3f 39 e4 b5 be e8 44 c8 3e 3a 19 2f be
       0.58322906 -0.35525683 0.3911507 -0.17099467
0003d0 8b f5 25 bf a3 1e ad 3d b3 db 08 bf 5e de b7 3d
       -0.64827794 0.08453109 -0.53460234 0.0897796
0003e0 1d 38 80 3c e1 0d da 3d b0 ca 16 3f 27 8f 44 3b
       0.015651757 0.106471784 0.58903027 0.0029992552
0003f0 87 93 ab be b4 55 6b 3e 51 52 c1 be f3 a3 a7 be
       -0.33510992 0.22981912 -0.37758115 -0.3274227

fc3.bias f4 [2]
000000 b6 cd 72 be ca 7f 0c 3f
       -0.23711285 0.5488249
