agent_critic_checkpoint_2_1.pth (torch_old, 185334 bytes, 5 tensors)

fcs1.weight f4 [256, 48]
0	0x3d3dc5dc	0.04633127
1	0x3f44d5a8	0.76888514
2	0xbcac7301	-0.021050932
3	0x3e34cc3b	0.17656033
4	0x3e1e59d0	0.15463948
5	0xbdbde348	-0.09271866
6	0xbd18600d	-0.037200976
7	0x3e53f107	0.20697413
8	0x3ddf24bf	0.10895681
9	0x3f235c32	0.63812554
10	0xbd4a7c9a	-0.049435236
11	0xbde0ea4c	-0.109821886
12	0x3db034af	0.086037986
13	0xbe028e13	-0.1274951
14	0x3d697a29	0.057001267
15	0xbe16310e	-0.1466715
16	0x3ec4ac23	0.3841258
17	0x3f207595	0.62679416
18	0x3b9bb449	0.0047517163
19	0xbdcabdc4	-0.09899476
20	0xbdb60138	-0.08886951
21	0xbe9230d7	-0.28552887
22	0x3d369731	0.04457778
23	0xbe411dc6	-0.18859014
24	0x3e3ff957	0.1874746
25	0x3f4dfcd7	0.8046393
26	0x3d1829d0	0.03714925
27	0xbde34374	-0.1109685
28	0xbe6642e1	-0.2248645
29	0xbe204718	-0.1565212
30	0x3a48ae1a	0.00076553377
31	0xbd9de235	-0.07709161
32	0x3e3f0e6e	0.18657848
33	0x3f4206e4	0.75791764
34	0x3cffc852	0.03122345
35	0x3d6cc37d	0.05780362
36	0xbe0a3ddd	-0.13500161
37	0xbdcfe49e	-0.10151027
38	0x3c2793f0	0.010228142
39	0x3de876ea	0.11350806
40	0x3e48ee8d	0.1962225
41	0x3f5656a0	0.8372593
42	0xbdb9283f	-0.090408795
43	0x3e962c4d	0.29330674
44	0x3d3cb724	0.046073094
45	0xbe92c35c	-0.28664672
46	0xbdab04d3	-0.083505295
47	0x3ebd8426	0.37014884
48	0x3e03538b	0.12824838
49	0xbec6a9ab	-0.3880132
50	0x3ab8109f	0.0014043039
51	0xbe6028f5	-0.21890624
52	0xbd1fe5ab	-0.039037388
53	0xbe02eda9	-0.12785973
54	0xbcfbc4c9	-0.030733483
55	0xbe15e5a5	-0.14638384
56	0x3e2a2703	0.16616444
57	0xbe7a71d0	-0.24457479
58	0xbd83d9ad	-0.06438003
59	0xbd81ce26	-0.06338148
60	0xbd481b59	-0.048854206
61	0xbda92843	-0.082596324
62	0xbd94035c	-0.07227203
63	0xbd3a3318	-0.045458883
64	0x3dda7c54	0.10668245
65	0xbe95cf6d	-0.29259816
66	0x3cbcc97d	0.023045296
67	0xbf16c428	-0.5889306
68	0xbd8499ec	-0.06474671
69	0xbe6c5326	-0.23078594
70	0x3b90127b	0.0043967343
71	0xbf2bf49d	-0.67170125
72	0x3e206acc	0.1566574
73	0xbf1f8b5d	-0.62322026
74	0x3b97e670	0.0046356246
75	0x3d8e1599	0.06937713
76	0xbd2ce2b4	-0.04220839
77	0xbdd5e26a	-0.10443576
78	0xbd2b7e22	-0.041868336
79	0x3d711ebc	0.0588672
80	0x3e5609df	0.20902203
81	0xbf3f939f	-0.74834627
82	0xbdadc220	-0.08484292
83	0x3c3a431a	0.011368537
84	0xbc375656	-0.011190018
85	0xbd278138	-0.040894717
86	0xbd3ad2a1	-0.045611028
87	0xbceaebab	-0.028676828
88	0x3e8640f1	0.2622142
89	0xbf1e7252	-0.6189319
90	0x3cf210c9	0.02954902
91	0xbd2c7739	-0.042105887
92	0x3d9131c4	0.0708957
93	0xbe2bc934	-0.16775972
94	0x3c10a166	0.008827543
95	0xbc924a78	-0.017857775
96	0x3e3b56c4	0.18294817
97	0x3f21e9dc	0.63247466
98	0x3cef9378	0.029245123
99	0x3e96d24e	0.29457325
100	0xbe622d30	-0.2208755
101	0xbe54d8c4	-0.20785815
102	0x3c781d37	0.015143684
103	0x3ec732b8	0.38905883
104	0x3e871d08	0.26389337
105	0x3f311218	0.69168234
106	0xbde6a513	-0.11261954
107	0xbdf565b1	-0.11982287
108	0xbe13324f	-0.1437466
109	0xbe69fc0d	-0.22850056
110	0xbc5da371	-0.013527737
111	0xbe108e39	-0.14116754
112	0x3e9f6e47	0.31138822
113	0x3f0cf283	0.55057544
114	0xbd3e85b0	-0.046514213
115	0xbe92c954	-0.28669226
116	0xbe23c9b0	-0.15994906
117	0xbea7f237	-0.32801983
118	0x3d33568f	0.04378372
119	0xbe315f81	-0.17321588
120	0x3e9acbd2	0.30233628
121	0x3ed2afde	0.411498
122	0xbe05ecc0	-0.13078594
123	0x3e90809c	0.2822312
124	0x3e674121	0.22583438
125	0xbe463c53	-0.1935895
126	0xbd4c1452	-0.049824066
127	0x3e518c45	0.20463665
128	0x3e470394	0.19434959
129	0x3f0796fd	0.52964765
130	0x3d152592	0.036412783
131	0x3dfaecb4	0.12252179
132	0x3e2cb76f	0.1686685
133	0xbe7e6ebb	-0.24846928
134	0x3cb8956e	0.022532191
135	0x3e060453	0.13087587
136	0x3e0170fe	0.1264076
137	0x3ead8332	0.33889157
138	0xbdea87ed	-0.11451707
139	0xbe75be7b	-0.23998444
140	0x3e38d49c	0.18049854
141	0xbe951a0a	-0.2912143
142	0xbdbfcf9c	-0.0936577
143	0xbe337810	-0.17526269
144	0x3e0e28a5	0.13882692
145	0x3f3505a3	0.70711726
146	0x3b093197	0.00209341
147	0x3bd5413c	0.0065080207
148	0x3e7ec8f6	0.24881348
149	0xbe957bff	-0.29196164
150	0xbd0f63f6	-0.03500744
151	0x3cf76df4	0.030203797
152	0x3e910bce	0.2832932
153	0x3f23af78	0.6393962
154	0xbd00c44b	-0.0314372
155	0x3d9de55a	0.07709761
156	0x3eafef09	0.34362057
157	0xbe55cf85	-0.20879944
158	0x3ce36ad4	0.0277609
159	0xbd136ea3	-0.035994183
160	0x3ea96320	0.3308344
161	0x3f42105e	0.75806224
162	0x3d4a061a	0.049322225
163	0xbdb5b7a1	-0.08872915
164	0x3eb3b2f7	0.35097477
165	0x3d3df6e4	0.04637803
166	0xbc40a87c	-0.01175892
167	0xbd314179	-0.04327533
168	0x3edd2be0	0.43197536
169	0xbe322260	-0.17395926
170	0xbcd20993	-0.025639331
171	0xbd8f8ead	-0.07009635
172	0xbe902b0e	-0.28157848
173	0xbec41c8e	-0.38303035
174	0x3c205068	0.009784795
175	0xbcabe26f	-0.020981995
176	0x3eaa29ce	0.3323502
177	0xbeb344a7	-0.35013315
178	0x3d8bae3d	0.06820343
179	0x3e501c82	0.20323375
180	0xbeaf1f8e	-0.34203762
181	0xbe3271e0	-0.17426252
182	0xbd1da32f	-0.038485702
183	0x3e24aaa2	0.16080716
184	0x3ee91778	0.45525718
185	0xbec89e05	-0.3918306
186	0x3ccff54c	0.025385521
187	0xbe2447c2	-0.16042998
188	0xbea4c138	-0.32178664
189	0x3cd1c5b3	0.025606966
190	0x3c4d892d	0.012544912
191	0xbe363769	-0.17794575
192	0x3e6926dc	0.2276873
193	0x3eddf8b9	0.43353823
194	0x3ce0e7c7	0.02745427
195	0x3b4bd2e8	0.0031101052
196	0xbdba5c18	-0.09099597
197	0xbba9ff73	-0.0051879226
198	0xbd3bc4eb	-0.045842092
199	0xbcb2aec1	-0.021811845
200	0x3ecfdae0	0.40596676
201	0x3eda8ce1	0.42685607
202	0xbae93eeb	-0.001779524
203	0xbe178c7f	-0.14799689
204	0xbe8a05e7	-0.26957628
205	0x3dceee7d	0.10104082
206	0x3c34af5f	0.01102814
207	0xbd71f654	-0.059072807
208	0x3eed26ff	0.46318814
209	0x3eed7d24	0.46384537
210	0xbcac98db	-0.02106898
211	0xbdb221e2	-0.08697869
212	0xbf183171	-0.5945044
213	0xbcc3d845	-0.023906836
214	0x3cbd2b14	0.02309183
215	0xbda46ff2	-0.080291644
216	0xbb9720da	-0.0046120705
217	0xbe3883fb	-0.18019097
218	0xbbce657c	-0.006298719
219	0x3e24418b	0.16040628
220	0x3d8fdd13	0.070245884
221	0x3d72faa6	0.05932107
222	0xbb1da6ff	-0.0024055836
223	0x3e3311d0	0.17487264
224	0x3e8196be	0.2531032
225	0x3ddb314f	0.10702764
226	0xbd5b7050	-0.053573906
227	0xbe4a5c61	-0.19761802
228	0x3eb58b4a	0.35457832
229	0x3c837a79	0.01604961
230	0x3d20ef26	0.03929057
231	0xbdcb5f3f	-0.09930276
232	0x3eecb939	0.46235064
233	0x3e8f9721	0.2804499
234	0xbd1332f9	-0.035937283
235	0xbd70f2b6	-0.058825217
236	0x3f1ddb49	0.6166273
237	0xbdb93c26	-0.090446755
238	0x3cc37e69	0.023863988
239	0xbdef837d	-0.11695001
240	0xbdbe7789	-0.09300143
241	0x3d88a379	0.06671805
242	0x3a916f44	0.0011095782
243	0xbe56de31	-0.20983197
244	0x3e61bab8	0.22043884
245	0xbeee830b	-0.46584353
246	0x3c6417b4	0.013921667
247	0xbe233920	-0.1593976
248	0x3c4113a7	0.011784471
249	0xbe60a41d	-0.21937604
250	0xbcbb4c0c	-0.02286341
251	0xbea06386	-0.3132593
252	0x3dec1d49	0.11529023
253	0xbea5bbbc	-0.32369792
254	0xbbf37fe9	-0.0074310196
255	0xbe905039	-0.28186205

fcs1.bias f4 [256]
0	0xbea928ee	-0.3303904
1	0xbe58c7e4	-0.21170002
2	0xbdbe2ddd	-0.092860915
3	0xbf13a3db	-0.576719
4	0xbde252c3	-0.11050942
5	0xbeac05b5	-0.33598104
6	0xbea80701	-0.32817844
7	0xbf24fd4f	-0.6444902
8	0xbe0e2fbc	-0.13885397
9	0xbe5fb7a4	-0.21847397
10	0xbebe61a7	-0.37183878
11	0xbe86c553	-0.2632242
12	0xbdd72374	-0.10504809
13	0x3e9fc0bb	0.3120173
14	0xbf05bdb8	-0.5224261
15	0xbe208cd5	-0.15678723
16	0xbf2883d1	-0.65826136
17	0xbee3b592	-0.44474465
18	0xbdc16347	-0.09442764
19	0xbe326c41	-0.17424108
20	0x3b9523ea	0.0045514004
21	0xbf37820e	-0.7168282
22	0xbdeda7da	-0.11604281
23	0xbeb87924	-0.36029923
24	0x3dc06a9e	0.093953356
25	0x3d407c86	0.046993755
26	0x3dc2f119	0.09518642
27	0x3e9f0d58	0.31064868
28	0xbea08cb0	-0.31357336
29	0xbf5b359e	-0.8562869
30	0xbebb391f	-0.36567017
31	0xbdd98306	-0.10620694
32	0x3e6452a3	0.22297148
33	0xbe0419c7	-0.12900458
34	0xbec9abbb	-0.39388832
35	0xbe9622e0	-0.29323483
36	0xbef7a295	-0.48366228
37	0xbeca2764	-0.39483178
38	0xbee0a6f2	-0.4387737
39	0xbe24969d	-0.1607308
40	0xbe864ed3	-0.26232013
41	0xbeaed671	-0.3414798
42	0xbe5ebc3c	-0.21751493
43	0xbe81cbe6	-0.25350875
44	0xbeabaa78	-0.33528495
45	0xbda5b6e9	-0.08091528
46	0xbf16c141	-0.5888863
47	0xbe4248c7	-0.18973075
48	0x3e18df1a	0.14928856
49	0x3d224e0b	0.03962521
50	0xbf1b4915	-0.6065839
51	0xbe38eb1b	-0.18058436
52	0xbde7e2ca	-0.113225535
53	0x3bc96aaa	0.0061467486
54	0xbe990f19	-0.2989433
55	0xbd148157	-0.03625616
56	0xbe321e73	-0.17394428
57	0xbf04a62a	-0.51816046
58	0xbe3d374f	-0.1847813
59	0xbeacef70	-0.33776426
60	0xbe2399bd	-0.15976615
61	0xbe453ba2	-0.1926103
62	0xbe87e89e	-0.2654466
63	0xbeeef4a5	-0.46671024
64	0xbe27d721	-0.16390659
65	0xbde5490c	-0.11195573
66	0xbece21b4	-0.40260088
67	0x3cb47c7e	0.022032019
68	0xbeb70b9b	-0.35751042
69	0xbe017fa4	-0.12646347
70	0xbed45b8a	-0.4147609
71	0xbee77521	-0.4520655
72	0xbd99feba	-0.07519288
73	0x3d189862	0.0372547
74	0xbebc348a	-0.36758834
75	0x3e5f2a15	0.21793397
76	0xbe32a900	-0.17447281
77	0x3e9ee998	0.31037593
78	0xbe55467b	-0.20827667
79	0xbeb633a3	-0.3558627
80	0xbd29079f	-0.041267034
81	0xbeda699a	-0.42658693
82	0xbe1b38f5	-0.15158446
83	0xbec12f03	-0.3773118
84	0x3dc5aa23	0.09651592
85	0x3e86dff2	0.26342732
86	0xbe881e5b	-0.2658566
87	0xbeced03e	-0.4039325
88	0x3dd4171a	0.10355969
89	0xbedff21e	-0.43739408
90	0xbf43b463	-0.76447123
91	0xbda7f799	-0.082015224
92	0xbda61b29	-0.08110649
93	0x3e966653	0.29374942
94	0xbe52fa4c	-0.20603293
95	0xbe9f8df3	-0.31162986
96	0xbd60c689	-0.054876838
97	0x3e2a3ec4	0.16625506
98	0xbdd8230f	-0.10553562
99	0xbe369f90	-0.17834306
100	0x3f574f7a	0.84105647
101	0xbeb7c32b	-0.3589109
102	0xbe890f48	-0.2676947
103	0x3ed5016e	0.41602653
104	0x3dadbdb1	0.084834464
105	0xbe81c7f5	-0.25347868
106	0xbe07a43e	-0.13246247
107	0x3e299ce2	0.16563752
108	0xbe8af118	-0.27137065
109	0xbf0a795a	-0.5409142
110	0xbef41589	-0.4767268
111	0xbf6e51f4	-0.930938
112	0x3e5661d3	0.20935754
113	0xbe7aedcf	-0.2450478
114	0xbf025294	-0.50907254
115	0xbe588ebc	-0.21148199
116	0xbe9e6f2f	-0.309442
117	0xbe488de6	-0.1958538
118	0xbe6c2b89	-0.23063482
119	0xbeedd6ca	-0.46452934
120	0xbe74e8bc	-0.23916906
121	0xbf254bd3	-0.64568824
122	0xbc23bc65	-0.009993647
123	0xbc9a30d2	-0.018822107
124	0xbe57067a	-0.20998564
125	0xbdd42c8f	-0.103600614
126	0xbeac493a	-0.33649617
127	0x3e79fa4d	0.24411888
128	0xbe6d1f6b	-0.23156516
129	0xbdd03197	-0.101657085
130	0xbf07332a	-0.52812445
131	0xbf7b7144	-0.98219705
132	0xbdf08356	-0.117438
133	0xbebc7735	-0.36809698
134	0xbdf4069d	-0.11915324
135	0xbe36a9f6	-0.17838272
136	0xbee60769	-0.44927529
137	0xbdb1a9a9	-0.08674938
138	0xbd6e1811	-0.05812842
139	0xbf166ac3	-0.58756655
140	0x3c8f48d8	0.01749079
141	0xbedd38fd	-0.4320754
142	0xbf211996	-0.62929666
143	0xbecb6c13	-0.39730892
144	0xbded564c	-0.115887254
145	0xbe774d96	-0.2415069
146	0xbe39101f	-0.18072556
147	0x3d8e2bc5	0.06941942
148	0xbe31980c	-0.17343158
149	0xbe2380c7	-0.15967093
150	0xbebcc78e	-0.36870998
151	0x3c822a99	0.015889453
152	0x3d97f117	0.07419031
153	0xbe9a2ef6	-0.30113953
154	0xbeff981a	-0.49920732
155	0xbeac84f8	-0.33695197
156	0xbe11a67b	-0.14223664
157	0xbdaf5bf1	-0.08562458
158	0x3e168f3c	0.14703077
159	0xbeaff641	-0.34367564
160	0xbe7f0ef5	-0.2490805
161	0x3e16f1f7	0.1474074
162	0xbefcd434	-0.49380648
163	0xbe211087	-0.15728961
164	0xbefd8ab0	-0.49519873
165	0x3d161fb5	0.036651332
166	0xbed68dfc	-0.419052
167	0x3be76683	0.007061781
168	0x3e3daff0	0.18524146
169	0xbdaaedab	-0.08346113
170	0xbea1c2ec	-0.31594026
171	0xbbef493a	-0.0073024305
172	0xbecbf89f	-0.3983812
173	0xbe635b3c	-0.22202772
174	0x3e5f0a0d	0.21781178
175	0xbe9ac3e1	-0.3022757
176	0x3dc61e3c	0.096737355
177	0xbee03072	-0.4378696
178	0xbe5aa4ab	-0.21351878
179	0xbee17ab7	-0.44038936
180	0xbdc3a157	-0.095522575
181	0xbf049bd9	-0.51800305
182	0xbe9648de	-0.29352468
183	0xbebd04c7	-0.36917707
184	0xbe83c410	-0.2573552
185	0xbf57ecb7	-0.84345573
186	0xbe7cf1b1	-0.24701573
187	0xbd9d3915	-0.07676903
188	0xbec3f34f	-0.38271567
189	0xbe53d923	-0.206883
190	0x3e06b292	0.13154057
191	0xbc5ecb87	-0.013598329
192	0xbe0371ad	-0.12836333
193	0xbe8a0e74	-0.26964152
194	0x3d5861e4	0.05282773
195	0xbe534de5	-0.20635183
196	0xbe9a5a39	-0.3014696
197	0xbd9dafde	-0.0769956
198	0xbea466a9	-0.32109573
199	0xbd8246e5	-0.06361178
200	0xbeb13099	-0.3460739
201	0x3e342d7c	0.17595476
202	0x3e005f71	0.12536408
203	0xbf11e74e	-0.5699357
204	0xbf2d9237	-0.6780123
205	0x3d959e73	0.073056124
206	0x3e47eb93	0.19523458
207	0xbef01489	-0.46890667
208	0xbeddfd56	-0.43357342
209	0xbe999413	-0.29995784
210	0xbeb9467c	-0.36186588
211	0xbe831e46	-0.25609034
212	0xbeb86bd6	-0.36019772
213	0xbe8ead54	-0.27866614
214	0xbe8ade15	-0.2712256
215	0xbde43792	-0.11143412
216	0xbf2d93c5	-0.67803603
217	0xbd947001	-0.072479255
218	0xbe91b81f	-0.28460786
219	0xbe8dd5bf	-0.27702138
220	0xbe856227	-0.26051447
221	0xbe17d335	-0.14826663
222	0xbecf4e1a	-0.40489274
223	0xbe46d339	-0.19416513
224	0x3e83fb28	0.25777555
225	0xbf1545c0	-0.58309555
226	0xbf35366e	-0.7078618
227	0xbe70ca7b	-0.2351474
228	0xbdd115ba	-0.10209222
229	0xbee839d0	-0.45356607
230	0xbec4039f	-0.38284013
231	0xbe3e91f1	-0.1861036
232	0xbe8131c0	-0.2523327
233	0xbe53e6cc	-0.20693511
234	0xbe14515e	-0.14484164
235	0xbde96f8a	-0.113982275
236	0xbf03c385	-0.51470214
237	0x3ec5b126	0.38611716
238	0xbe82ee3e	-0.2557239
239	0xbead238d	-0.33816186
240	0xbe8ee240	-0.2790699
241	0xbe7d700b	-0.24749772
242	0xbec34674	-0.3813969
243	0xbcd144b6	-0.02554546
244	0xbe3eae0a	-0.18621078
245	0xbed62430	-0.41824484
246	0xbec3e772	-0.38262516
247	0xbf1408ab	-0.57825726
248	0xbc6d46b0	-0.014482185
249	0xbf397d3c	-0.7245672
250	0xbea690d9	-0.32532385
251	0xbf0293c0	-0.510067
252	0xbedffc76	-0.437473
253	0xbea5b3f9	-0.3236387
254	0x3e669e68	0.22521365
255	0xbe8cda2f	-0.2751021

fc2.weight f4 [128, 260]
0	0xbe813093	-0.25232372
1	0x3da2c1ad	0.07947097
2	0xbd965723	-0.07340839
3	0xbdaecaf6	-0.085348055
4	0x3d7f14d4	0.062275723
5	0xbce24f7c	-0.027625792
6	0xbd8ad5a3	-0.06779029
7	0xbf1005f4	-0.56259084
8	0xbdef7e22	-0.1169398
9	0xbcf8ba96	-0.030362409
10	0x3d53feeb	0.05175678
11	0xbe68c615	-0.22731812
12	0xbe1d8cf1	-0.15385796
13	0x3e050312	0.12989452
14	0xbe05645e	-0.13026568
15	0xbdd15c67	-0.102227025
16	0xbee1ee74	-0.44127238
17	0x3e26ac12	0.16276577
18	0xbaa7724d	-0.0012775153
19	0x3d8167bc	0.06318614
20	0xbe10673c	-0.14101881
21	0xbd817bce	-0.06322442
22	0xbd9ad87d	-0.07560823
23	0x3dfdb07f	0.123871796
24	0x3dadec07	0.08492284
25	0xbe87fe15	-0.26561037
26	0xbdb46643	-0.088085674
27	0xbe06a504	-0.13148886
28	0xbe87794d	-0.26459733
29	0xbe83e36c	-0.25759447
30	0xbcbb86be	-0.022891399
31	0x3c64e670	0.013970956
32	0xbe0941a5	-0.13403948
33	0x3cba09f1	0.022709819
34	0x3c26e350	0.010186031
35	0x3d25cf1d	0.04048072
36	0xbe5c35c4	-0.21504885
37	0x3e0cc25b	0.13746016
38	0x3cd2ca3e	0.025731202
39	0xbe28dc1c	-0.16490215
40	0x3cc2a007	0.023757948
41	0x3ceb906f	0.028755395
42	0xbdbff6b4	-0.09373227
43	0x3cf541fc	0.02993869
44	0xbee342e9	-0.44386986
45	0xbf61cac5	-0.88200027
46	0xbdc00e98	-0.093777835
47	0x3e0e1829	0.13876404
48	0xbf0108d3	-0.5040409
49	0xbd257c33	-0.04040165
50	0xbd8fe9c0	-0.07027006
51	0x3ea84d62	0.32871538
52	0x3de3c776	0.111220285
53	0x3e51f06f	0.20501874
54	0x3c4b1c8d	0.012396944
55	0xbb8025ff	-0.0039107795
56	0x3d330a4e	0.043711
57	0xbedbb851	-0.4291406
58	0x3cf003f3	0.029298758
59	0x3d0a4d15	0.033764917
60	0xbe6681ab	-0.22510402
61	0xbef9aa8b	-0.48762926
62	0xbe10a722	-0.14126256
63	0xbd99ba94	-0.0750629
64	0x3e8663f0	0.2624812
65	0xbeffe8ba	-0.49982244
66	0x3cac9374	0.021066405
67	0x3e061e44	0.13097483
68	0xbe34d3cd	-0.1765892
69	0xbedbe78d	-0.42950097
70	0x3d252760	0.040320754
71	0xbde92ed5	-0.113858856
72	0xbec8efbd	-0.39245406
73	0xbf2d3f91	-0.6767512
74	0x3ddd2dbc	0.10799739
75	0xbe1ae9f1	-0.15128304
76	0xbd00237c	-0.03128384
77	0xbf0d53b9	-0.55205876
78	0x3d2cc79e	0.042182557
79	0x3e00a45d	0.125627
80	0xbc7318c2	-0.014837446
81	0x3cfecabe	0.031102534
82	0x3e10e277	0.1414889
83	0x3d4eccac	0.05048816
84	0xbe6e5431	-0.23274304
85	0xbd8b94c2	-0.06815483
86	0xbd88212d	-0.06646953
87	0xbba76988	-0.005109016
88	0xbed97999	-0.42475584
89	0xbe41b261	-0.18915702
90	0x3da54327	0.08069449
91	0xbe3187fe	-0.17337033
92	0x3db57291	0.088597424
93	0xbe36ec9a	-0.17863694
94	0xbf0d0858	-0.55090857
95	0xbe621025	-0.22076471
96	0xbdb9827c	-0.09058091
97	0xbe1553af	-0.14582704
98	0xbdb9c63b	-0.090710126
99	0xbbb65b4f	-0.005565084
100	0xbf7c9c09	-0.9867559
101	0x3e636031	0.22204663
102	0x3d566bd4	0.052348927
103	0x3de237cc	0.11045799
104	0x3e874e1e	0.26426786
105	0xbdb4fa07	-0.088367514
106	0xbedb2ac0	-0.42806053
107	0x3d08e906	0.033425353
108	0xbcd450ca	-0.02591743
109	0xbddaac5b	-0.106774054
110	0x3db68739	0.089125104
111	0xbd726bd3	-0.05918486
112	0xbe817b75	-0.25289503
113	0xbf2d8fda	-0.67797625
114	0x3cf2457f	0.029574154
115	0xbea43be4	-0.32076943
116	0xbdba0a96	-0.0908405
117	0xbe8e3fa9	-0.27782944
118	0xbd914ae8	-0.07094365
119	0xbddaf447	-0.106911235
120	0xbdf21772	-0.11820878
121	0x3c77cf28	0.0151250735
122	0xbdfab52a	-0.122415856
123	0xbcb28930	-0.021793932
124	0xbeabed1e	-0.33579344
125	0xbbe31886	-0.0069304137
126	0xbeb291d1	-0.34876874
127	0xbec7c2e8	-0.3901589
128	0x3a8e7d63	0.0010871108
129	0xbec0fc9c	-0.37692726
130	0x3d63f242	0.055650957
131	0xbd59471d	-0.053046335
132	0xbc2fa866	-0.010721302
133	0xbe618e2d	-0.22026892
134	0xbc832071	-0.01600668
135	0xbec0da30	-0.37666464
136	0x3dfd7ee8	0.12377721
137	0xbe058f3f	-0.13042925
138	0x3da82171	0.082095034
139	0xbe116340	-0.14198017
140	0xbe3d8fe5	-0.18511923
141	0xbf382107	-0.71925396
142	0x3e2525a3	0.16127639
143	0x3cff9301	0.031198027
144	0x3d5d72dd	0.05406462
145	0xbe5a031f	-0.21290253
146	0x3d40a0c2	0.04702831
147	0xbf0b118c	-0.5432365
148	0xbe1d2cf8	-0.15349185
149	0xbe9a62ba	-0.30153447
150	0xbe7c272e	-0.24624321
151	0xbef77783	-0.48333368
152	0xbc4b8898	-0.012422703
153	0xbefa48c9	-0.48883656
154	0xbd692be6	-0.05692663
155	0x3ce62036	0.028091531
156	0x3e12dba0	0.14341593
157	0xbe83ccf5	-0.25742307
158	0xbd944d9c	-0.07241365
159	0xbefc508c	-0.49280202
160	0xbdf54dac	-0.11977705
161	0x3daa941d	0.083290316
162	0x3db98901	0.090593345
163	0x3d98ba28	0.074573815
164	0xbdf88c40	-0.121361256
165	0xbd88469d	-0.066540934
166	0xbed3a025	-0.41333118
167	0xbe9e7881	-0.30951312
168	0xbd323553	-0.043507885
169	0xbd338f7e	-0.043838017
170	0xbd765ba9	-0.060146008
171	0x3da5a6db	0.08088466
172	0x3e493e58	0.19652689
173	0xbe372971	-0.17886902
174	0x3dfc2a7b	0.1231279
175	0x3f0f8fca	0.5607878
176	0xbe163781	-0.1466961
177	0xbd8e7840	-0.069565296
178	0x3e0711a1	0.13190319
179	0xbdea9957	-0.114550285
180	0xbeeb89fc	-0.4600371
181	0xbe169943	-0.14706902
182	0x3e02d08e	0.1277487
183	0xbed4e639	-0.41581896
184	0xbe3e98a0	-0.1861291
185	0xbd7095cb	-0.058736604
186	0xbd07592b	-0.03304402
187	0xbefa386c	-0.4887117
188	0x3e043efc	0.12914652
189	0x3d79e0dc	0.06100546
190	0xbf0879e8	-0.53311014
191	0x3c00d775	0.007863869
192	0xbcf343a7	-0.029695345
193	0x3e139c71	0.14415146
194	0x3c2e03e1	0.010621042
195	0xbdfa9948	-0.12236267
196	0x3e11c30a	0.14234558
197	0xbeb74bb0	-0.35799932
198	0xbe541985	-0.2071286
199	0x3e00687a	0.12539855
200	0xbdb98c35	-0.090599455
201	0xbe805ccb	-0.25070795
202	0xbddbe08f	-0.107361905
203	0x3e32d156	0.17462668
204	0xbe2a7937	-0.16647802
205	0xbd85c1fd	-0.06531141
206	0xbd741fd3	-0.059600662
207	0x3e01d586	0.12679109
208	0xbe2c1ff6	-0.16809067
209	0xbdca8b0d	-0.09889803
210	0xbf0130ee	-0.50465286
211	0xbc7e7e2e	-0.015533013
212	0xbed871fd	-0.42274466
213	0x3d4e970c	0.05043702
214	0xbe5e6b03	-0.21720509
215	0x3d72ecc1	0.059307817
216	0x3dbaaef3	0.091154
217	0x3ce14124	0.027496882
218	0x3d1350f3	0.03596587
219	0x3da104c0	0.07862234
220	0x3d0bda0f	0.034143504
221	0x3d8aff5a	0.06786986
222	0xbc5513a0	-0.013005167
223	0xbdc5e354	-0.096625
224	0xbdd54015	-0.10412613
225	0x3d8040b3	0.062623404
226	0xbe149c1e	-0.14512679
227	0xbe8c76ba	-0.2743433
228	0xbe907762	-0.28216082
229	0xbe4cf794	-0.20016319
230	0x3e632fb2	0.22186163
231	0x3c995055	0.018715063
232	0x3d6704f7	0.05640122
233	0xbb335b23	-0.0027367554
234	0xbe0680bb	-0.13135044
235	0x3d234e13	0.03986938
236	0xbef6bc3d	-0.4819049
237	0xbf054b6a	-0.520682
238	0x3d817322	0.06320788
239	0x3e43dedc	0.19127983
240	0xbdc512c3	-0.09622719
241	0x3bd4f697	0.0064991224
242	0xbe570fe4	-0.21002156
243	0xbd67800b	-0.056518596
244	0x3e19ab39	0.15006723
245	0xbddab792	-0.106795445
246	0x3e3b7ee4	0.18310124
247	0xbd429453	-0.047504734
248	0xbc0e6541	-0.008691133
249	0x3d94ee95	0.072720684
250	0xbe3991f2	-0.1812208
251	0xbd0837ed	-0.03325646
252	0x3cfe2feb	0.031028708
253	0x3dd9b2ee	0.10629831
254	0xbca2212d	-0.01979121
255	0xbcb23fcf	-0.021758942

fc2.bias f4 [128]
0	0xbec9d8be	-0.39423174
1	0x3e30a305	0.17249687
2	0xbd7b46a9	-0.061346684
3	0xbe7d5b02	-0.24741748
4	0xbe360b14	-0.17777663
5	0xbe08758e	-0.13326094
6	0x3d93cf3c	0.07217261
7	0xbe516c36	-0.20451435
8	0xbdfa479d	-0.122206904
9	0xbdf642ac	-0.120244354
10	0x3dd033a4	0.101661
11	0x3e6dcc4e	0.23222467
12	0xbe937da0	-0.28806782
13	0xbe31175a	-0.17294064
14	0xbe1d9ff4	-0.15393049
15	0x3d8967cd	0.067092516
16	0xbe23f8d4	-0.16012889
17	0xbe769a16	-0.24082217
18	0xbd89b2f2	-0.06723584
19	0xbe28cdd2	-0.16484764
20	0xbeee763e	-0.46574587
21	0xbe381e73	-0.17980365
22	0xbe6dc9b5	-0.23221476
23	0xbe8947f1	-0.268127
24	0xbe683b5a	-0.22678891
25	0xbe8f7ce5	-0.28024974
26	0xbec38ba3	-0.38192472
27	0xbefbc427	-0.4917309
28	0xbe0cefed	-0.137634
29	0x3deeeec2	0.11666633
30	0xbe27e314	-0.16395217
31	0x3ed2d3c1	0.4117718
32	0xbe6eace0	-0.23308134
33	0xbecb8f5c	-0.39757812
34	0xbf2d5f56	-0.67723596
35	0xbd9c6fef	-0.07638537
36	0xbe911201	-0.28334048
37	0xbeec44fa	-0.46146375
38	0xbe992a1d	-0.29914942
39	0xbe6b6826	-0.22988948
40	0x3d913d65	0.07091788
41	0x3e9393c4	0.28823674
42	0xbd78d929	-0.060753975
43	0x3ebdb157	0.37049362
44	0xbe1dc377	-0.15406595
45	0xbf09b424	-0.537905
46	0xbf7c490d	-0.98548967
47	0xbd6d253f	-0.05789685
48	0xbe0808cd	-0.13284607
49	0xbe8536e3	-0.26018438
50	0x3f7230e0	0.9460583
51	0xbe3782e0	-0.17921019
52	0x3b71b975	0.0036884223
53	0xbf279ca7	-0.6547341
54	0xbf5ebf6b	-0.8701083
55	0xbe51ace8	-0.20476115
56	0x3d2811a3	0.041032445
57	0xbea00f71	-0.3126178
58	0x3d607b8c	0.054805323
59	0xbda35222	-0.0797465
60	0xbe0f263a	-0.13979426
61	0xbe425c77	-0.18980585
62	0xbd962324	-0.07330921
63	0xbcc86d38	-0.024466142
64	0x3d8e6651	0.06953109
65	0x3e8f1c28	0.2795117
66	0xbdaf4486	-0.08557992
67	0xbde05724	-0.10954121
68	0xbd4a94c6	-0.049458288
69	0xbe766b07	-0.24064265
70	0xbde6f495	-0.11277119
71	0xbe90220a	-0.2815097
72	0xbe9fd526	-0.31217307
73	0xbf23276f	-0.63732046
74	0xbf7fe562	-0.99959385
75	0xbdd316fc	-0.10307118
76	0xbe2dd4fe	-0.16975781
77	0xbdac6161	-0.08417011
78	0xbf048ed8	-0.5178046
79	0xbee6ddb2	-0.45091015
80	0xbebe53df	-0.37173364
81	0x3eb278aa	0.34857684
82	0xbe24a847	-0.16079818
83	0xbe4f4558	-0.20241296
84	0xbe91abba	-0.2845133
85	0xbeb45e3c	-0.35228145
86	0xbe2fa98c	-0.17154521
87	0xbe7cdc10	-0.24693322
88	0x3f8c1a5a	1.0945542
89	0xbf313534	-0.69221807
90	0xbce8909f	-0.028389273
91	0x3e1a4870	0.15066695
92	0xbef1a939	-0.4719942
93	0xbe110b04	-0.14164358
94	0xbe619876	-0.22030815
95	0xbec387c5	-0.3818952
96	0xbeb486db	-0.35259137
97	0xbf1efbe5	-0.6210311
98	0xbe534963	-0.20633464
99	0xbfa8c45d	-1.3184925
100	0xbc253897	-0.010084293
101	0x3da191e9	0.07889158
102	0xbed1ab3e	-0.4095096
103	0x3c78f871	0.015195952
104	0xbdbd740c	-0.0925065
105	0x3e99d2e5	0.30043712
106	0xbf01ecf1	-0.5075217
107	0xbe0c293f	-0.13687609
108	0x3d9471cd	0.07248268
109	0xbe7af7d1	-0.24508597
110	0xbea2f6c1	-0.31828883
111	0xbc382c3a	-0.011241013
112	0xbe460d51	-0.19341017
113	0xbc4a39cb	-0.0123428805
114	0x3eb1f8dc	0.34760177
115	0xbbaa485b	-0.0051966137
116	0xbed0ce98	-0.4078262
117	0xbe4b124c	-0.19831198
118	0x3e444688	0.1916753
119	0x3e3819b8	0.17978561
120	0xbe2506d2	-0.16115883
121	0xbd56a590	-0.052403986
122	0xbe91bc7d	-0.28464118
123	0xbe8b5246	-0.27211207
124	0x3d573faa	0.05255095
125	0xbeeed94d	-0.46650162
126	0x3e9bef9d	0.30456248
127	0xbea684ec	-0.32523286

fc3.weight f4 [1, 128]
0	0xbccf031e	-0.025270041
1	0x3bf9595f	0.007609531
2	0x3c59c432	0.0132914055
3	0xbc75b316	-0.014996311
4	0xbbe68755	-0.007035176
5	0xbc865cab	-0.01640161
6	0x3ca47028	0.020073012
7	0x3ca23b70	0.019803733
8	0x3c9e39f4	0.019314744
9	0x3c1280f8	0.008941881
10	0x3cb8b95f	0.02254933
11	0xbbf3a2f9	-0.0074351993
12	0xbc252d04	-0.010081533
13	0xbcc00815	-0.023441354
14	0xbc1b85c5	-0.009492342
15	0x3c69d785	0.014272575
16	0xbc3c00e2	-0.01147482
17	0xbc4ef9ff	-0.012632846
18	0xbc622d92	-0.01380481
19	0xbcad32db	-0.021142414
20	0xbc8d580e	-0.017253902
21	0xbcd091f6	-0.025460225
22	0xbaac382a	-0.0013139297
23	0xb84e41a2	-4.9175353e-05
24	0xbc05dad0	-0.008169845
25	0xb956882e	-0.00020459361
26	0xbc726bea	-0.0147962365
27	0xbc61621c	-0.013756301
28	0xbafaf0a1	-0.0019145199
29	0x3c543573	0.012952196
30	0xbc4e2309	-0.012581595
31	0x3c0fac0d	0.008769047
32	0xbb9c1bf6	-0.0047640754
33	0xbcc01337	-0.023446662
34	0xbc460674	-0.0120864995
35	0xbc8d1a95	-0.01722459
36	0xbc02467a	-0.007951373
37	0xbc30974f	-0.010778262
38	0xbc135ca0	-0.0089942515
39	0xbc828fe7	-0.015937759
40	0x3ca7e41a	0.02049451
41	0x3bdaec34	0.0066809896
42	0x3c8748cc	0.016514204
43	0x3c271936	0.010198882
44	0x3c9017a0	0.01758939
45	0xbc2cfacf	-0.010557844
46	0xbbf38a65	-0.0074322694
47	0x3c997251	0.018731268
48	0x3c2adb25	0.010428225
49	0xbba6cf3a	-0.0050906213
50	0x3bbdfadf	0.0057977284
51	0x3c311bf6	0.010809889
52	0x3c1c1aef	0.009527906
53	0xbc6c9ab3	-0.01444118
54	0xbc259bd6	-0.010107955
55	0xbc1f6eca	-0.009731004
56	0x3c61d177	0.0137828505
57	0xbc25e68c	-0.010125767
58	0x3c20254e	0.009774519
59	0xbc4cf5b8	-0.012509756
60	0xbb9abf68	-0.0047225244
61	0xbbac150d	-0.005251533
62	0x3d60029a	0.05468998
63	0x3cc3e6f9	0.023913847
64	0xbc23068d	-0.009950292
65	0x3c20ad19	0.009806895
66	0x3c197ff1	0.0093688825
67	0x3d1545b2	0.03644342
68	0xbc13282f	-0.0089817485
69	0xbc0838f5	-0.008314361
70	0xbc79d392	-0.015248196
71	0xbc84c7f1	-0.01620862
72	0xbc8fd495	-0.017557422
73	0xbc1a97b3	-0.009435582
74	0xbc06af59	-0.008220517
75	0xbc0770c2	-0.00826663
76	0xbc905aad	-0.017621363
77	0xbb54bb6e	-0.003246035
78	0xbc284e59	-0.010272586
79	0xbc181aa9	-0.0092837
80	0xbc996f69	-0.018729882
81	0x3bfc584f	0.007700957
82	0xbbf1a1b8	-0.0073740147
83	0xbd343e16	-0.044004522
84	0xbc957f28	-0.01824911
85	0xbbcc9ae8	-0.006244052
86	0xbc5858b0	-0.0132047385
87	0xbcb3692c	-0.021900736
88	0x3c5a1f60	0.013313144
89	0xbc2440d6	-0.010025224
90	0x3c8520a8	0.016250923
91	0x3c4acbaf	0.0123776635
92	0xbc229613	-0.009923476
93	0x3aa39d1e	0.0012482738
94	0xbbe40d10	-0.006959565
95	0xbc01ffdb	-0.007934536
96	0xbc68f86d	-0.014219386
97	0xbc4d9225	-0.012547051
98	0xbbe07470	-0.006849818
99	0xbca7d8ae	-0.020489063
100	0x3c8d3807	0.01723863
101	0x3cd3a1ba	0.025833953
102	0xbc865eed	-0.016402686
103	0x3c3fe076	0.0117112305
104	0xbc8c7fe2	-0.017150823
105	0xbbd43301	-0.0064758067
106	0xbc8ad037	-0.016944988
107	0x3b3fa4a9	0.0029242432
108	0x3c2ca912	0.010538356
109	0xbc4c31c0	-0.012463033
110	0xbb318737	-0.002708865
111	0x3c9f81d7	0.019471092
112	0xbd12fd63	-0.03588618
113	0x3be4f686	0.0069873957
114	0x3bf240fd	0.007393001
115	0x3c19013e	0.009338675
116	0xbc355ea5	-0.011069928
117	0x3c660359	0.014038884
118	0xbc1e92e8	-0.00967858
119	0x3c2f4f89	0.010700115
120	0xbc8d5c0e	-0.01725581
121	0x3bc8107e	0.0061054816
122	0xbc5d782a	-0.013517419
123	0xbc10b0ec	-0.008831244
124	0xbc70eca5	-0.014704858
125	0xbc457f0d	-0.012054217
126	0x3c2e2db7	0.010631016
127	0x3bfc294b	0.007695352
